…
I0411 00:59:40.079675 17804 net.cpp:315] The NetState phase (0) differed from the phase (1) specified by a rule in layer accuracy
I0411 00:59:40.079857 17804 net.cpp:51] Initializing net from parameters: 
name: "CaffeNet"
state {
  phase: TRAIN
}
layer {
  name: "data"
  type: "Data"
  top: "data"
  top: "label"
  include {
    phase: TRAIN
  }
  transform_param {
    mirror: true
    crop_size: 227
    mean_file: "data/ilsvrc12/imagenet_mean.binaryproto"
  }
  data_param {
    source: "examples/imagenet/ilsvrc12_train_lmdb"
    batch_size: 256
    backend: LMDB
  }
}
layer {
  name: "conv1"
  type: "Convolution"
  bottom: "data"
  top: "conv1"
  param {
    lr_mult: 1
    decay_mult: 1
    regularization_type: "L1"
  }
  param {
    lr_mult: 2
    decay_mult: 0
    regularization_type: "L2"
  }
  connectivity_mode: DISCONNECTED_ELTWISE
  convolution_param {
    num_output: 96
    kernel_size: 11
    stride: 4
    weight_filler {
      type: "gaussian"
      std: 0.01
    }
    bias_filler {
      type: "constant"
      value: 0
    }
  }
}
layer {
  name: "relu1"
  type: "ReLU"
  bottom: "conv1"
  top: "conv1"
}
layer {
  name: "pool1"
  type: "Pooling"
  bottom: "conv1"
  top: "pool1"
  pooling_param {
    pool: MAX
    kernel_size: 3
    stride: 2
  }
}
layer {
  name: "norm1"
  type: "LRN"
  bottom: "pool1"
  top: "norm1"
  lrn_param {
    local_size: 5
    alpha: 0.0001
    beta: 0.75
  }
}
layer {
  name: "conv2"
  type: "Convolution"
  bottom: "norm1"
  top: "conv2"
  param {
    lr_mult: 1
    decay_mult: 1
    regularization_type: "L1"
  }
  param {
    lr_mult: 2
    decay_mult: 0
    regularization_type: "L2"
  }
  connectivity_mode: DISCONNECTED_ELTWISE
  convolution_param {
    num_output: 256
    pad: 2
    kernel_size: 5
    group: 2
    weight_filler {
      type: "gaussian"
      std: 0.01
    }
    bias_filler {
      type: "constant"
      value: 1
    }
  }
}
layer {
  name: "relu2"
  type: "ReLU"
  bottom: "conv2"
  top: "conv2"
}
layer {
  name: "pool2"
  type: "Pooling"
  bottom: "conv2"
  top: "pool2"
  pooling_param {
    pool: MAX
    kernel_size: 3
    stride: 2
  }
}
layer {
  name: "norm2"
  type: "LRN"
  bottom: "pool2"
  top: "norm2"
  lrn_param {
    local_size: 5
    alpha: 0.0001
    beta: 0.75
  }
}
layer {
  name: "conv3"
  type: "Convolution"
  bottom: "norm2"
  top: "conv3"
  param {
    lr_mult: 1
    decay_mult: 1
    regularization_type: "L1"
  }
  param {
    lr_mult: 2
    decay_mult: 0
    regularization_type: "L2"
  }
  connectivity_mode: DISCONNECTED_ELTWISE
  convolution_param {
    num_output: 384
    pad: 1
    kernel_size: 3
    weight_filler {
      type: "gaussian"
      std: 0.01
    }
    bias_filler {
      type: "constant"
      value: 0
    }
  }
}
layer {
  name: "relu3"
  type: "ReLU"
  bottom: "conv3"
  top: "conv3"
}
layer {
  name: "conv4"
  type: "Convolution"
  bottom: "conv3"
  top: "conv4"
  param {
    lr_mult: 1
    decay_mult: 1
    regularization_type: "L1"
  }
  param {
    lr_mult: 2
    decay_mult: 0
    regularization_type: "L2"
  }
  connectivity_mode: DISCONNECTED_ELTWISE
  convolution_param {
    num_output: 384
    pad: 1
    kernel_size: 3
    group: 2
    weight_filler {
      type: "gaussian"
      std: 0.01
    }
    bias_filler {
      type: "constant"
      value: 1
    }
  }
}
layer {
  name: "relu4"
  type: "ReLU"
  bottom: "conv4"
  top: "conv4"
}
layer {
  name: "conv5"
  type: "Convolution"
  bottom: "conv4"
  top: "conv5"
  param {
    lr_mult: 1
    decay_mult: 1
    regularization_type: "L1"
  }
  param {
    lr_mult: 2
    decay_mult: 0
    regularization_type: "L2"
  }
  connectivity_mode: DISCONNECTED_ELTWISE
  convolution_param {
    num_output: 256
    pad: 1
    kernel_size: 3
    group: 2
    weight_filler {
      type: "gaussian"
      std: 0.01
    }
    bias_filler {
      type: "constant"
      value: 1
    }
  }
}
layer {
  name: "relu5"
  type: "ReLU"
  bottom: "conv5"
  top: "conv5"
}
layer {
  name: "pool5"
  type: "Pooling"
  bottom: "conv5"
  top: "pool5"
  pooling_param {
    pool: MAX
    kernel_size: 3
    stride: 2
  }
}
layer {
  name: "fc6"
  type: "InnerProduct"
  bottom: "pool5"
  top: "fc6"
  param {
    lr_mult: 1
    decay_mult: 2.7778
    regularization_type: "L2"
  }
  param {
    lr_mult: 2
    decay_mult: 0
    regularization_type: "L2"
  }
  inner_product_param {
    num_output: 4096
    weight_filler {
      type: "gaussian"
      std: 0.005
    }
    bias_filler {
      type: "constant"
      value: 1
    }
  }
}
layer {
  name: "relu6"
  type: "ReLU"
  bottom: "fc6"
  top: "fc6"
}
layer {
  name: "drop6"
  type: "Dropout"
  bottom: "fc6"
  top: "fc6"
  dropout_param {
    dropout_ratio: 0.5
  }
}
layer {
  name: "fc7"
  type: "InnerProduct"
  bottom: "fc6"
  top: "fc7"
  param {
    lr_mult: 1
    decay_mult: 2.7778
    regularization_type: "L2"
  }
  param {
    lr_mult: 2
    decay_mult: 0
    regularization_type: "L2"
  }
  inner_product_param {
    num_output: 4096
    weight_filler {
      type: "gaussian"
      std: 0.005
    }
    bias_filler {
      type: "constant"
      value: 1
    }
  }
}
layer {
  name: "relu7"
  type: "ReLU"
  bottom: "fc7"
  top: "fc7"
}
layer {
  name: "drop7"
  type: "Dropout"
  bottom: "fc7"
  top: "fc7"
  dropout_param {
    dropout_ratio: 0.5
  }
}
layer {
  name: "fc8"
  type: "InnerProduct"
  bottom: "fc7"
  top: "fc8"
  param {
    lr_mult: 1
    decay_mult: 2.7778
    regularization_type: "L2"
  }
  param {
    lr_mult: 2
    decay_mult: 0
    regularization_type: "L2"
  }
  inner_product_param {
    num_output: 1000
    weight_filler {
      type: "gaussian"
      std: 0.01
    }
    bias_filler {
      type: "constant"
      value: 0
    }
  }
}
layer {
  name: "loss"
  type: "SoftmaxWithLoss"
  bottom: "fc8"
  bottom: "label"
  top: "loss"
}
I0411 00:59:40.080001 17804 layer_factory.hpp:77] Creating layer data
I0411 00:59:40.080567 17804 net.cpp:93] Creating Layer data
I0411 00:59:40.080584 17804 net.cpp:401] data -> data
I0411 00:59:40.080677 17804 net.cpp:401] data -> label
I0411 00:59:40.080701 17804 data_transformer.cpp:25] Loading mean file from: data/ilsvrc12/imagenet_mean.binaryproto
I0411 00:59:40.101506 17808 db_lmdb.cpp:38] Opened lmdb examples/imagenet/ilsvrc12_train_lmdb
I0411 00:59:40.498895 17804 data_layer.cpp:41] output data size: 256,3,227,227
I0411 00:59:40.790808 17804 net.cpp:143] Setting up data
I0411 00:59:40.790904 17804 net.cpp:150] Top shape: 256 3 227 227 (39574272)
I0411 00:59:40.790910 17804 net.cpp:150] Top shape: 256 (256)
I0411 00:59:40.790912 17804 net.cpp:158] Memory required for data: 158298112
I0411 00:59:40.790931 17804 layer_factory.hpp:77] Creating layer conv1
I0411 00:59:40.791002 17804 net.cpp:93] Creating Layer conv1
I0411 00:59:40.791008 17804 net.cpp:427] conv1 <- data
I0411 00:59:40.791023 17804 net.cpp:401] conv1 -> conv1
I0411 00:59:42.225554 17804 net.cpp:143] Setting up conv1
I0411 00:59:42.225615 17804 net.cpp:150] Top shape: 256 96 55 55 (74342400)
I0411 00:59:42.225620 17804 net.cpp:158] Memory required for data: 455667712
I0411 00:59:42.225661 17804 layer_factory.hpp:77] Creating layer relu1
I0411 00:59:42.225680 17804 net.cpp:93] Creating Layer relu1
I0411 00:59:42.225700 17804 net.cpp:427] relu1 <- conv1
I0411 00:59:42.225718 17804 net.cpp:388] relu1 -> conv1 (in-place)
I0411 00:59:42.226027 17804 net.cpp:143] Setting up relu1
I0411 00:59:42.226038 17804 net.cpp:150] Top shape: 256 96 55 55 (74342400)
I0411 00:59:42.226042 17804 net.cpp:158] Memory required for data: 753037312
I0411 00:59:42.226045 17804 layer_factory.hpp:77] Creating layer pool1
I0411 00:59:42.226054 17804 net.cpp:93] Creating Layer pool1
I0411 00:59:42.226058 17804 net.cpp:427] pool1 <- conv1
I0411 00:59:42.226063 17804 net.cpp:401] pool1 -> pool1
I0411 00:59:42.322783 17804 net.cpp:143] Setting up pool1
I0411 00:59:42.322849 17804 net.cpp:150] Top shape: 256 96 27 27 (17915904)
I0411 00:59:42.322854 17804 net.cpp:158] Memory required for data: 824700928
I0411 00:59:42.322860 17804 layer_factory.hpp:77] Creating layer norm1
I0411 00:59:42.322893 17804 net.cpp:93] Creating Layer norm1
I0411 00:59:42.322901 17804 net.cpp:427] norm1 <- pool1
I0411 00:59:42.322907 17804 net.cpp:401] norm1 -> norm1
I0411 00:59:42.419610 17804 net.cpp:143] Setting up norm1
I0411 00:59:42.419675 17804 net.cpp:150] Top shape: 256 96 27 27 (17915904)
I0411 00:59:42.419679 17804 net.cpp:158] Memory required for data: 896364544
I0411 00:59:42.419687 17804 layer_factory.hpp:77] Creating layer conv2
I0411 00:59:42.419713 17804 net.cpp:93] Creating Layer conv2
I0411 00:59:42.419718 17804 net.cpp:427] conv2 <- norm1
I0411 00:59:42.419726 17804 net.cpp:401] conv2 -> conv2
I0411 00:59:43.853229 17804 net.cpp:143] Setting up conv2
I0411 00:59:43.853281 17804 net.cpp:150] Top shape: 256 256 27 27 (47775744)
I0411 00:59:43.853286 17804 net.cpp:158] Memory required for data: 1087467520
I0411 00:59:43.853308 17804 layer_factory.hpp:77] Creating layer relu2
I0411 00:59:43.853327 17804 net.cpp:93] Creating Layer relu2
I0411 00:59:43.853332 17804 net.cpp:427] relu2 <- conv2
I0411 00:59:43.853338 17804 net.cpp:388] relu2 -> conv2 (in-place)
I0411 00:59:43.853617 17804 net.cpp:143] Setting up relu2
I0411 00:59:43.853629 17804 net.cpp:150] Top shape: 256 256 27 27 (47775744)
I0411 00:59:43.853632 17804 net.cpp:158] Memory required for data: 1278570496
I0411 00:59:43.853636 17804 layer_factory.hpp:77] Creating layer pool2
I0411 00:59:43.853642 17804 net.cpp:93] Creating Layer pool2
I0411 00:59:43.853646 17804 net.cpp:427] pool2 <- conv2
I0411 00:59:43.853653 17804 net.cpp:401] pool2 -> pool2
I0411 00:59:43.934275 17804 net.cpp:143] Setting up pool2
I0411 00:59:43.934334 17804 net.cpp:150] Top shape: 256 256 13 13 (11075584)
I0411 00:59:43.934336 17804 net.cpp:158] Memory required for data: 1322872832
I0411 00:59:43.934343 17804 layer_factory.hpp:77] Creating layer norm2
I0411 00:59:43.934365 17804 net.cpp:93] Creating Layer norm2
I0411 00:59:43.934370 17804 net.cpp:427] norm2 <- pool2
I0411 00:59:43.934382 17804 net.cpp:401] norm2 -> norm2
I0411 00:59:44.015956 17804 net.cpp:143] Setting up norm2
I0411 00:59:44.016013 17804 net.cpp:150] Top shape: 256 256 13 13 (11075584)
I0411 00:59:44.016017 17804 net.cpp:158] Memory required for data: 1367175168
I0411 00:59:44.016026 17804 layer_factory.hpp:77] Creating layer conv3
I0411 00:59:44.016049 17804 net.cpp:93] Creating Layer conv3
I0411 00:59:44.016054 17804 net.cpp:427] conv3 <- norm2
I0411 00:59:44.016067 17804 net.cpp:401] conv3 -> conv3
I0411 00:59:44.487550 17804 net.cpp:143] Setting up conv3
I0411 00:59:44.487607 17804 net.cpp:150] Top shape: 256 384 13 13 (16613376)
I0411 00:59:44.487610 17804 net.cpp:158] Memory required for data: 1433628672
I0411 00:59:44.487642 17804 layer_factory.hpp:77] Creating layer relu3
I0411 00:59:44.487655 17804 net.cpp:93] Creating Layer relu3
I0411 00:59:44.487660 17804 net.cpp:427] relu3 <- conv3
I0411 00:59:44.487670 17804 net.cpp:388] relu3 -> conv3 (in-place)
I0411 00:59:44.487892 17804 net.cpp:143] Setting up relu3
I0411 00:59:44.487900 17804 net.cpp:150] Top shape: 256 384 13 13 (16613376)
I0411 00:59:44.487903 17804 net.cpp:158] Memory required for data: 1500082176
I0411 00:59:44.487906 17804 layer_factory.hpp:77] Creating layer conv4
I0411 00:59:44.487922 17804 net.cpp:93] Creating Layer conv4
I0411 00:59:44.487941 17804 net.cpp:427] conv4 <- conv3
I0411 00:59:44.487963 17804 net.cpp:401] conv4 -> conv4
I0411 00:59:45.138564 17804 net.cpp:143] Setting up conv4
I0411 00:59:45.138617 17804 net.cpp:150] Top shape: 256 384 13 13 (16613376)
I0411 00:59:45.138622 17804 net.cpp:158] Memory required for data: 1566535680
I0411 00:59:45.138639 17804 layer_factory.hpp:77] Creating layer relu4
I0411 00:59:45.138655 17804 net.cpp:93] Creating Layer relu4
I0411 00:59:45.138660 17804 net.cpp:427] relu4 <- conv4
I0411 00:59:45.138666 17804 net.cpp:388] relu4 -> conv4 (in-place)
I0411 00:59:45.138916 17804 net.cpp:143] Setting up relu4
I0411 00:59:45.138924 17804 net.cpp:150] Top shape: 256 384 13 13 (16613376)
I0411 00:59:45.138927 17804 net.cpp:158] Memory required for data: 1632989184
I0411 00:59:45.138931 17804 layer_factory.hpp:77] Creating layer conv5
I0411 00:59:45.138947 17804 net.cpp:93] Creating Layer conv5
I0411 00:59:45.138950 17804 net.cpp:427] conv5 <- conv4
I0411 00:59:45.138958 17804 net.cpp:401] conv5 -> conv5
I0411 00:59:45.763720 17804 net.cpp:143] Setting up conv5
I0411 00:59:45.763769 17804 net.cpp:150] Top shape: 256 256 13 13 (11075584)
I0411 00:59:45.763773 17804 net.cpp:158] Memory required for data: 1677291520
I0411 00:59:45.763802 17804 layer_factory.hpp:77] Creating layer relu5
I0411 00:59:45.763813 17804 net.cpp:93] Creating Layer relu5
I0411 00:59:45.763818 17804 net.cpp:427] relu5 <- conv5
I0411 00:59:45.763826 17804 net.cpp:388] relu5 -> conv5 (in-place)
I0411 00:59:45.764087 17804 net.cpp:143] Setting up relu5
I0411 00:59:45.764096 17804 net.cpp:150] Top shape: 256 256 13 13 (11075584)
I0411 00:59:45.764098 17804 net.cpp:158] Memory required for data: 1721593856
I0411 00:59:45.764101 17804 layer_factory.hpp:77] Creating layer pool5
I0411 00:59:45.764111 17804 net.cpp:93] Creating Layer pool5
I0411 00:59:45.764113 17804 net.cpp:427] pool5 <- conv5
I0411 00:59:45.764119 17804 net.cpp:401] pool5 -> pool5
I0411 00:59:45.780258 17804 net.cpp:143] Setting up pool5
I0411 00:59:45.780292 17804 net.cpp:150] Top shape: 256 256 6 6 (2359296)
I0411 00:59:45.780297 17804 net.cpp:158] Memory required for data: 1731031040
I0411 00:59:45.780303 17804 layer_factory.hpp:77] Creating layer fc6
I0411 00:59:45.780325 17804 net.cpp:93] Creating Layer fc6
I0411 00:59:45.780329 17804 net.cpp:427] fc6 <- pool5
I0411 00:59:45.780339 17804 net.cpp:401] fc6 -> fc6
I0411 00:59:46.922469 17804 net.cpp:143] Setting up fc6
I0411 00:59:46.922526 17804 net.cpp:150] Top shape: 256 4096 (1048576)
I0411 00:59:46.922530 17804 net.cpp:158] Memory required for data: 1735225344
I0411 00:59:46.922546 17804 layer_factory.hpp:77] Creating layer relu6
I0411 00:59:46.922564 17804 net.cpp:93] Creating Layer relu6
I0411 00:59:46.922569 17804 net.cpp:427] relu6 <- fc6
I0411 00:59:46.922579 17804 net.cpp:388] relu6 -> fc6 (in-place)
I0411 00:59:46.923035 17804 net.cpp:143] Setting up relu6
I0411 00:59:46.923045 17804 net.cpp:150] Top shape: 256 4096 (1048576)
I0411 00:59:46.923048 17804 net.cpp:158] Memory required for data: 1739419648
I0411 00:59:46.923053 17804 layer_factory.hpp:77] Creating layer drop6
I0411 00:59:46.923063 17804 net.cpp:93] Creating Layer drop6
I0411 00:59:46.923065 17804 net.cpp:427] drop6 <- fc6
I0411 00:59:46.923072 17804 net.cpp:388] drop6 -> fc6 (in-place)
I0411 00:59:46.926731 17804 net.cpp:143] Setting up drop6
I0411 00:59:46.926744 17804 net.cpp:150] Top shape: 256 4096 (1048576)
I0411 00:59:46.926748 17804 net.cpp:158] Memory required for data: 1743613952
I0411 00:59:46.926751 17804 layer_factory.hpp:77] Creating layer fc7
I0411 00:59:46.926766 17804 net.cpp:93] Creating Layer fc7
I0411 00:59:46.926769 17804 net.cpp:427] fc7 <- fc6
I0411 00:59:46.926779 17804 net.cpp:401] fc7 -> fc7
I0411 00:59:47.442077 17804 net.cpp:143] Setting up fc7
I0411 00:59:47.442129 17804 net.cpp:150] Top shape: 256 4096 (1048576)
I0411 00:59:47.442133 17804 net.cpp:158] Memory required for data: 1747808256
I0411 00:59:47.442145 17804 layer_factory.hpp:77] Creating layer relu7
I0411 00:59:47.442157 17804 net.cpp:93] Creating Layer relu7
I0411 00:59:47.442174 17804 net.cpp:427] relu7 <- fc7
I0411 00:59:47.442196 17804 net.cpp:388] relu7 -> fc7 (in-place)
I0411 00:59:47.442517 17804 net.cpp:143] Setting up relu7
I0411 00:59:47.442528 17804 net.cpp:150] Top shape: 256 4096 (1048576)
I0411 00:59:47.442531 17804 net.cpp:158] Memory required for data: 1752002560
I0411 00:59:47.442534 17804 layer_factory.hpp:77] Creating layer drop7
I0411 00:59:47.442543 17804 net.cpp:93] Creating Layer drop7
I0411 00:59:47.442545 17804 net.cpp:427] drop7 <- fc7
I0411 00:59:47.442549 17804 net.cpp:388] drop7 -> fc7 (in-place)
I0411 00:59:47.445621 17804 net.cpp:143] Setting up drop7
I0411 00:59:47.445633 17804 net.cpp:150] Top shape: 256 4096 (1048576)
I0411 00:59:47.445636 17804 net.cpp:158] Memory required for data: 1756196864
I0411 00:59:47.445639 17804 layer_factory.hpp:77] Creating layer fc8
I0411 00:59:47.445652 17804 net.cpp:93] Creating Layer fc8
I0411 00:59:47.445655 17804 net.cpp:427] fc8 <- fc7
I0411 00:59:47.445662 17804 net.cpp:401] fc8 -> fc8
I0411 00:59:47.568966 17804 net.cpp:143] Setting up fc8
I0411 00:59:47.569016 17804 net.cpp:150] Top shape: 256 1000 (256000)
I0411 00:59:47.569020 17804 net.cpp:158] Memory required for data: 1757220864
I0411 00:59:47.569031 17804 layer_factory.hpp:77] Creating layer loss
I0411 00:59:47.569051 17804 net.cpp:93] Creating Layer loss
I0411 00:59:47.569056 17804 net.cpp:427] loss <- fc8
I0411 00:59:47.569061 17804 net.cpp:427] loss <- label
I0411 00:59:47.569072 17804 net.cpp:401] loss -> loss
I0411 00:59:47.569094 17804 layer_factory.hpp:77] Creating layer loss
…
I0411 00:59:47.572561 17804 net.cpp:315] The NetState phase (1) differed from the phase (0) specified by a rule in layer data
I0411 00:59:47.572760 17804 net.cpp:51] Initializing net from parameters: 
name: "CaffeNet"
state {
  phase: TEST
}
layer {
  name: "data"
  type: "Data"
  top: "data"
  top: "label"
  include {
    phase: TEST
  }
  transform_param {
    mirror: false
    crop_size: 227
    mean_file: "data/ilsvrc12/imagenet_mean.binaryproto"
  }
  data_param {
    source: "examples/imagenet/ilsvrc12_val_lmdb"
    batch_size: 50
    backend: LMDB
  }
}
layer {
  name: "conv1"
  type: "Convolution"
  bottom: "data"
  top: "conv1"
  param {
    lr_mult: 1
    decay_mult: 1
    regularization_type: "L1"
  }
  param {
    lr_mult: 2
    decay_mult: 0
    regularization_type: "L2"
  }
  connectivity_mode: DISCONNECTED_ELTWISE
  convolution_param {
    num_output: 96
    kernel_size: 11
    stride: 4
    weight_filler {
      type: "gaussian"
      std: 0.01
    }
    bias_filler {
      type: "constant"
      value: 0
    }
  }
}
layer {
  name: "relu1"
  type: "ReLU"
  bottom: "conv1"
  top: "conv1"
}
layer {
  name: "pool1"
  type: "Pooling"
  bottom: "conv1"
  top: "pool1"
  pooling_param {
    pool: MAX
    kernel_size: 3
    stride: 2
  }
}
layer {
  name: "norm1"
  type: "LRN"
  bottom: "pool1"
  top: "norm1"
  lrn_param {
    local_size: 5
    alpha: 0.0001
    beta: 0.75
  }
}
layer {
  name: "conv2"
  type: "Convolution"
  bottom: "norm1"
  top: "conv2"
  param {
    lr_mult: 1
    decay_mult: 1
    regularization_type: "L1"
  }
  param {
    lr_mult: 2
    decay_mult: 0
    regularization_type: "L2"
  }
  connectivity_mode: DISCONNECTED_ELTWISE
  convolution_param {
    num_output: 256
    pad: 2
    kernel_size: 5
    group: 2
    weight_filler {
      type: "gaussian"
      std: 0.01
    }
    bias_filler {
      type: "constant"
      value: 1
    }
  }
}
layer {
  name: "relu2"
  type: "ReLU"
  bottom: "conv2"
  top: "conv2"
}
layer {
  name: "pool2"
  type: "Pooling"
  bottom: "conv2"
  top: "pool2"
  pooling_param {
    pool: MAX
    kernel_size: 3
    stride: 2
  }
}
layer {
  name: "norm2"
  type: "LRN"
  bottom: "pool2"
  top: "norm2"
  lrn_param {
    local_size: 5
    alpha: 0.0001
    beta: 0.75
  }
}
layer {
  name: "conv3"
  type: "Convolution"
  bottom: "norm2"
  top: "conv3"
  param {
    lr_mult: 1
    decay_mult: 1
    regularization_type: "L1"
  }
  param {
    lr_mult: 2
    decay_mult: 0
    regularization_type: "L2"
  }
  connectivity_mode: DISCONNECTED_ELTWISE
  convolution_param {
    num_output: 384
    pad: 1
    kernel_size: 3
    weight_filler {
      type: "gaussian"
      std: 0.01
    }
    bias_filler {
      type: "constant"
      value: 0
    }
  }
}
layer {
  name: "relu3"
  type: "ReLU"
  bottom: "conv3"
  top: "conv3"
}
layer {
  name: "conv4"
  type: "Convolution"
  bottom: "conv3"
  top: "conv4"
  param {
    lr_mult: 1
    decay_mult: 1
    regularization_type: "L1"
  }
  param {
    lr_mult: 2
    decay_mult: 0
    regularization_type: "L2"
  }
  connectivity_mode: DISCONNECTED_ELTWISE
  convolution_param {
    num_output: 384
    pad: 1
    kernel_size: 3
    group: 2
    weight_filler {
      type: "gaussian"
      std: 0.01
    }
    bias_filler {
      type: "constant"
      value: 1
    }
  }
}
layer {
  name: "relu4"
  type: "ReLU"
  bottom: "conv4"
  top: "conv4"
}
layer {
  name: "conv5"
  type: "Convolution"
  bottom: "conv4"
  top: "conv5"
  param {
    lr_mult: 1
    decay_mult: 1
    regularization_type: "L1"
  }
  param {
    lr_mult: 2
    decay_mult: 0
    regularization_type: "L2"
  }
  connectivity_mode: DISCONNECTED_ELTWISE
  convolution_param {
    num_output: 256
    pad: 1
    kernel_size: 3
    group: 2
    weight_filler {
      type: "gaussian"
      std: 0.01
    }
    bias_filler {
      type: "constant"
      value: 1
    }
  }
}
layer {
  name: "relu5"
  type: "ReLU"
  bottom: "conv5"
  top: "conv5"
}
layer {
  name: "pool5"
  type: "Pooling"
  bottom: "conv5"
  top: "pool5"
  pooling_param {
    pool: MAX
    kernel_size: 3
    stride: 2
  }
}
layer {
  name: "fc6"
  type: "InnerProduct"
  bottom: "pool5"
  top: "fc6"
  param {
    lr_mult: 1
    decay_mult: 2.7778
    regularization_type: "L2"
  }
  param {
    lr_mult: 2
    decay_mult: 0
    regularization_type: "L2"
  }
  inner_product_param {
    num_output: 4096
    weight_filler {
      type: "gaussian"
      std: 0.005
    }
    bias_filler {
      type: "constant"
      value: 1
    }
  }
}
layer {
  name: "relu6"
  type: "ReLU"
  bottom: "fc6"
  top: "fc6"
}
layer {
  name: "drop6"
  type: "Dropout"
  bottom: "fc6"
  top: "fc6"
  dropout_param {
    dropout_ratio: 0.5
  }
}
layer {
  name: "fc7"
  type: "InnerProduct"
  bottom: "fc6"
  top: "fc7"
  param {
    lr_mult: 1
    decay_mult: 2.7778
    regularization_type: "L2"
  }
  param {
    lr_mult: 2
    decay_mult: 0
    regularization_type: "L2"
  }
  inner_product_param {
    num_output: 4096
    weight_filler {
      type: "gaussian"
      std: 0.005
    }
    bias_filler {
      type: "constant"
      value: 1
    }
  }
}
layer {
  name: "relu7"
  type: "ReLU"
  bottom: "fc7"
  top: "fc7"
}
layer {
  name: "drop7"
  type: "Dropout"
  bottom: "fc7"
  top: "fc7"
  dropout_param {
    dropout_ratio: 0.5
  }
}
layer {
  name: "fc8"
  type: "InnerProduct"
  bottom: "fc7"
  top: "fc8"
  param {
    lr_mult: 1
    decay_mult: 2.7778
    regularization_type: "L2"
  }
  param {
    lr_mult: 2
    decay_mult: 0
    regularization_type: "L2"
  }
  inner_product_param {
    num_output: 1000
    weight_filler {
      type: "gaussian"
      std: 0.01
    }
    bias_filler {
      type: "constant"
      value: 0
    }
  }
}
layer {
  name: "accuracy"
  type: "Accuracy"
  bottom: "fc8"
  bottom: "label"
  top: "accuracy"
  include {
    phase: TEST
  }
}
layer {
  name: "loss"
  type: "SoftmaxWithLoss"
  bottom: "fc8"
  bottom: "label"
  top: "loss"
}
I0411 00:59:47.572908 17804 layer_factory.hpp:77] Creating layer data
I0411 00:59:47.574018 17804 net.cpp:93] Creating Layer data
I0411 00:59:47.574031 17804 net.cpp:401] data -> data
I0411 00:59:47.574039 17804 net.cpp:401] data -> label
I0411 00:59:47.574046 17804 data_transformer.cpp:25] Loading mean file from: data/ilsvrc12/imagenet_mean.binaryproto
I0411 00:59:47.596173 17810 db_lmdb.cpp:38] Opened lmdb examples/imagenet/ilsvrc12_val_lmdb
I0411 00:59:47.712450 17804 data_layer.cpp:41] output data size: 50,3,227,227
I0411 00:59:47.791702 17804 net.cpp:143] Setting up data
I0411 00:59:47.791754 17804 net.cpp:150] Top shape: 50 3 227 227 (7729350)
I0411 00:59:47.791759 17804 net.cpp:150] Top shape: 50 (50)
I0411 00:59:47.791762 17804 net.cpp:158] Memory required for data: 30917600
I0411 00:59:47.791769 17804 layer_factory.hpp:77] Creating layer label_data_1_split
I0411 00:59:47.791787 17804 net.cpp:93] Creating Layer label_data_1_split
I0411 00:59:47.791792 17804 net.cpp:427] label_data_1_split <- label
I0411 00:59:47.791800 17804 net.cpp:401] label_data_1_split -> label_data_1_split_0
I0411 00:59:47.791810 17804 net.cpp:401] label_data_1_split -> label_data_1_split_1
I0411 00:59:47.792016 17804 net.cpp:143] Setting up label_data_1_split
I0411 00:59:47.792024 17804 net.cpp:150] Top shape: 50 (50)
I0411 00:59:47.792028 17804 net.cpp:150] Top shape: 50 (50)
I0411 00:59:47.792031 17804 net.cpp:158] Memory required for data: 30918000
I0411 00:59:47.792034 17804 layer_factory.hpp:77] Creating layer conv1
I0411 00:59:47.792050 17804 net.cpp:93] Creating Layer conv1
I0411 00:59:47.792053 17804 net.cpp:427] conv1 <- data
I0411 00:59:47.792059 17804 net.cpp:401] conv1 -> conv1
I0411 00:59:48.074728 17804 net.cpp:143] Setting up conv1
I0411 00:59:48.074793 17804 net.cpp:150] Top shape: 50 96 55 55 (14520000)
I0411 00:59:48.074800 17804 net.cpp:158] Memory required for data: 88998000
I0411 00:59:48.074826 17804 layer_factory.hpp:77] Creating layer relu1
I0411 00:59:48.074843 17804 net.cpp:93] Creating Layer relu1
I0411 00:59:48.074849 17804 net.cpp:427] relu1 <- conv1
I0411 00:59:48.074858 17804 net.cpp:388] relu1 -> conv1 (in-place)
I0411 00:59:48.075182 17804 net.cpp:143] Setting up relu1
I0411 00:59:48.075193 17804 net.cpp:150] Top shape: 50 96 55 55 (14520000)
I0411 00:59:48.075198 17804 net.cpp:158] Memory required for data: 147078000
I0411 00:59:48.075229 17804 layer_factory.hpp:77] Creating layer pool1
I0411 00:59:48.075258 17804 net.cpp:93] Creating Layer pool1
I0411 00:59:48.075263 17804 net.cpp:427] pool1 <- conv1
I0411 00:59:48.075270 17804 net.cpp:401] pool1 -> pool1
I0411 00:59:48.104863 17804 net.cpp:143] Setting up pool1
I0411 00:59:48.104914 17804 net.cpp:150] Top shape: 50 96 27 27 (3499200)
I0411 00:59:48.104919 17804 net.cpp:158] Memory required for data: 161074800
I0411 00:59:48.104926 17804 layer_factory.hpp:77] Creating layer norm1
I0411 00:59:48.104944 17804 net.cpp:93] Creating Layer norm1
I0411 00:59:48.104950 17804 net.cpp:427] norm1 <- pool1
I0411 00:59:48.104962 17804 net.cpp:401] norm1 -> norm1
I0411 00:59:48.134533 17804 net.cpp:143] Setting up norm1
I0411 00:59:48.134590 17804 net.cpp:150] Top shape: 50 96 27 27 (3499200)
I0411 00:59:48.134596 17804 net.cpp:158] Memory required for data: 175071600
I0411 00:59:48.134604 17804 layer_factory.hpp:77] Creating layer conv2
I0411 00:59:48.134629 17804 net.cpp:93] Creating Layer conv2
I0411 00:59:48.134636 17804 net.cpp:427] conv2 <- norm1
I0411 00:59:48.134649 17804 net.cpp:401] conv2 -> conv2
I0411 00:59:48.517048 17804 net.cpp:143] Setting up conv2
I0411 00:59:48.517097 17804 net.cpp:150] Top shape: 50 256 27 27 (9331200)
I0411 00:59:48.517102 17804 net.cpp:158] Memory required for data: 212396400
I0411 00:59:48.517122 17804 layer_factory.hpp:77] Creating layer relu2
I0411 00:59:48.517135 17804 net.cpp:93] Creating Layer relu2
I0411 00:59:48.517139 17804 net.cpp:427] relu2 <- conv2
I0411 00:59:48.517146 17804 net.cpp:388] relu2 -> conv2 (in-place)
I0411 00:59:48.517387 17804 net.cpp:143] Setting up relu2
I0411 00:59:48.517398 17804 net.cpp:150] Top shape: 50 256 27 27 (9331200)
I0411 00:59:48.517401 17804 net.cpp:158] Memory required for data: 249721200
I0411 00:59:48.517405 17804 layer_factory.hpp:77] Creating layer pool2
I0411 00:59:48.517415 17804 net.cpp:93] Creating Layer pool2
I0411 00:59:48.517417 17804 net.cpp:427] pool2 <- conv2
I0411 00:59:48.517423 17804 net.cpp:401] pool2 -> pool2
I0411 00:59:48.532426 17804 net.cpp:143] Setting up pool2
I0411 00:59:48.532445 17804 net.cpp:150] Top shape: 50 256 13 13 (2163200)
I0411 00:59:48.532449 17804 net.cpp:158] Memory required for data: 258374000
I0411 00:59:48.532452 17804 layer_factory.hpp:77] Creating layer norm2
I0411 00:59:48.532464 17804 net.cpp:93] Creating Layer norm2
I0411 00:59:48.532466 17804 net.cpp:427] norm2 <- pool2
I0411 00:59:48.532472 17804 net.cpp:401] norm2 -> norm2
I0411 00:59:48.548001 17804 net.cpp:143] Setting up norm2
I0411 00:59:48.548030 17804 net.cpp:150] Top shape: 50 256 13 13 (2163200)
I0411 00:59:48.548033 17804 net.cpp:158] Memory required for data: 267026800
I0411 00:59:48.548038 17804 layer_factory.hpp:77] Creating layer conv3
I0411 00:59:48.548054 17804 net.cpp:93] Creating Layer conv3
I0411 00:59:48.548059 17804 net.cpp:427] conv3 <- norm2
I0411 00:59:48.548069 17804 net.cpp:401] conv3 -> conv3
I0411 00:59:48.666959 17804 net.cpp:143] Setting up conv3
I0411 00:59:48.667007 17804 net.cpp:150] Top shape: 50 384 13 13 (3244800)
I0411 00:59:48.667011 17804 net.cpp:158] Memory required for data: 280006000
I0411 00:59:48.667033 17804 layer_factory.hpp:77] Creating layer relu3
I0411 00:59:48.667045 17804 net.cpp:93] Creating Layer relu3
I0411 00:59:48.667050 17804 net.cpp:427] relu3 <- conv3
I0411 00:59:48.667058 17804 net.cpp:388] relu3 -> conv3 (in-place)
I0411 00:59:48.667450 17804 net.cpp:143] Setting up relu3
I0411 00:59:48.667464 17804 net.cpp:150] Top shape: 50 384 13 13 (3244800)
I0411 00:59:48.667466 17804 net.cpp:158] Memory required for data: 292985200
I0411 00:59:48.667469 17804 layer_factory.hpp:77] Creating layer conv4
I0411 00:59:48.667484 17804 net.cpp:93] Creating Layer conv4
I0411 00:59:48.667487 17804 net.cpp:427] conv4 <- conv3
I0411 00:59:48.667495 17804 net.cpp:401] conv4 -> conv4
I0411 00:59:48.815913 17804 net.cpp:143] Setting up conv4
I0411 00:59:48.815964 17804 net.cpp:150] Top shape: 50 384 13 13 (3244800)
I0411 00:59:48.815968 17804 net.cpp:158] Memory required for data: 305964400
I0411 00:59:48.815996 17804 layer_factory.hpp:77] Creating layer relu4
I0411 00:59:48.816025 17804 net.cpp:93] Creating Layer relu4
I0411 00:59:48.816032 17804 net.cpp:427] relu4 <- conv4
I0411 00:59:48.816040 17804 net.cpp:388] relu4 -> conv4 (in-place)
I0411 00:59:48.816295 17804 net.cpp:143] Setting up relu4
I0411 00:59:48.816303 17804 net.cpp:150] Top shape: 50 384 13 13 (3244800)
I0411 00:59:48.816306 17804 net.cpp:158] Memory required for data: 318943600
I0411 00:59:48.816309 17804 layer_factory.hpp:77] Creating layer conv5
I0411 00:59:48.816325 17804 net.cpp:93] Creating Layer conv5
I0411 00:59:48.816329 17804 net.cpp:427] conv5 <- conv4
I0411 00:59:48.816335 17804 net.cpp:401] conv5 -> conv5
I0411 00:59:48.948714 17804 net.cpp:143] Setting up conv5
I0411 00:59:48.948762 17804 net.cpp:150] Top shape: 50 256 13 13 (2163200)
I0411 00:59:48.948766 17804 net.cpp:158] Memory required for data: 327596400
I0411 00:59:48.948796 17804 layer_factory.hpp:77] Creating layer relu5
I0411 00:59:48.948812 17804 net.cpp:93] Creating Layer relu5
I0411 00:59:48.948817 17804 net.cpp:427] relu5 <- conv5
I0411 00:59:48.948823 17804 net.cpp:388] relu5 -> conv5 (in-place)
I0411 00:59:48.949064 17804 net.cpp:143] Setting up relu5
I0411 00:59:48.949070 17804 net.cpp:150] Top shape: 50 256 13 13 (2163200)
I0411 00:59:48.949074 17804 net.cpp:158] Memory required for data: 336249200
I0411 00:59:48.949076 17804 layer_factory.hpp:77] Creating layer pool5
I0411 00:59:48.949091 17804 net.cpp:93] Creating Layer pool5
I0411 00:59:48.949095 17804 net.cpp:427] pool5 <- conv5
I0411 00:59:48.949101 17804 net.cpp:401] pool5 -> pool5
I0411 00:59:48.951946 17804 net.cpp:143] Setting up pool5
I0411 00:59:48.951958 17804 net.cpp:150] Top shape: 50 256 6 6 (460800)
I0411 00:59:48.951961 17804 net.cpp:158] Memory required for data: 338092400
I0411 00:59:48.951964 17804 layer_factory.hpp:77] Creating layer fc6
I0411 00:59:48.951975 17804 net.cpp:93] Creating Layer fc6
I0411 00:59:48.951978 17804 net.cpp:427] fc6 <- pool5
I0411 00:59:48.951987 17804 net.cpp:401] fc6 -> fc6
I0411 00:59:50.096324 17804 net.cpp:143] Setting up fc6
I0411 00:59:50.096382 17804 net.cpp:150] Top shape: 50 4096 (204800)
I0411 00:59:50.096387 17804 net.cpp:158] Memory required for data: 338911600
I0411 00:59:50.096403 17804 layer_factory.hpp:77] Creating layer relu6
I0411 00:59:50.096416 17804 net.cpp:93] Creating Layer relu6
I0411 00:59:50.096423 17804 net.cpp:427] relu6 <- fc6
I0411 00:59:50.096432 17804 net.cpp:388] relu6 -> fc6 (in-place)
I0411 00:59:50.096940 17804 net.cpp:143] Setting up relu6
I0411 00:59:50.096951 17804 net.cpp:150] Top shape: 50 4096 (204800)
I0411 00:59:50.096953 17804 net.cpp:158] Memory required for data: 339730800
I0411 00:59:50.096956 17804 layer_factory.hpp:77] Creating layer drop6
I0411 00:59:50.096966 17804 net.cpp:93] Creating Layer drop6
I0411 00:59:50.096968 17804 net.cpp:427] drop6 <- fc6
I0411 00:59:50.096974 17804 net.cpp:388] drop6 -> fc6 (in-place)
I0411 00:59:50.098029 17804 net.cpp:143] Setting up drop6
I0411 00:59:50.098042 17804 net.cpp:150] Top shape: 50 4096 (204800)
I0411 00:59:50.098045 17804 net.cpp:158] Memory required for data: 340550000
I0411 00:59:50.098048 17804 layer_factory.hpp:77] Creating layer fc7
I0411 00:59:50.098060 17804 net.cpp:93] Creating Layer fc7
I0411 00:59:50.098064 17804 net.cpp:427] fc7 <- fc6
I0411 00:59:50.098072 17804 net.cpp:401] fc7 -> fc7
I0411 00:59:50.616791 17804 net.cpp:143] Setting up fc7
I0411 00:59:50.616843 17804 net.cpp:150] Top shape: 50 4096 (204800)
I0411 00:59:50.616847 17804 net.cpp:158] Memory required for data: 341369200
I0411 00:59:50.616861 17804 layer_factory.hpp:77] Creating layer relu7
I0411 00:59:50.616874 17804 net.cpp:93] Creating Layer relu7
I0411 00:59:50.616880 17804 net.cpp:427] relu7 <- fc7
I0411 00:59:50.616889 17804 net.cpp:388] relu7 -> fc7 (in-place)
I0411 00:59:50.617178 17804 net.cpp:143] Setting up relu7
I0411 00:59:50.617187 17804 net.cpp:150] Top shape: 50 4096 (204800)
I0411 00:59:50.617190 17804 net.cpp:158] Memory required for data: 342188400
I0411 00:59:50.617194 17804 layer_factory.hpp:77] Creating layer drop7
I0411 00:59:50.617236 17804 net.cpp:93] Creating Layer drop7
I0411 00:59:50.617239 17804 net.cpp:427] drop7 <- fc7
I0411 00:59:50.617244 17804 net.cpp:388] drop7 -> fc7 (in-place)
I0411 00:59:50.618502 17804 net.cpp:143] Setting up drop7
I0411 00:59:50.618515 17804 net.cpp:150] Top shape: 50 4096 (204800)
I0411 00:59:50.618517 17804 net.cpp:158] Memory required for data: 343007600
I0411 00:59:50.618520 17804 layer_factory.hpp:77] Creating layer fc8
I0411 00:59:50.618533 17804 net.cpp:93] Creating Layer fc8
I0411 00:59:50.618536 17804 net.cpp:427] fc8 <- fc7
I0411 00:59:50.618546 17804 net.cpp:401] fc8 -> fc8
I0411 00:59:50.746078 17804 net.cpp:143] Setting up fc8
I0411 00:59:50.746126 17804 net.cpp:150] Top shape: 50 1000 (50000)
I0411 00:59:50.746129 17804 net.cpp:158] Memory required for data: 343207600
I0411 00:59:50.746140 17804 layer_factory.hpp:77] Creating layer fc8_fc8_0_split
I0411 00:59:50.746152 17804 net.cpp:93] Creating Layer fc8_fc8_0_split
I0411 00:59:50.746158 17804 net.cpp:427] fc8_fc8_0_split <- fc8
I0411 00:59:50.746170 17804 net.cpp:401] fc8_fc8_0_split -> fc8_fc8_0_split_0
I0411 00:59:50.746181 17804 net.cpp:401] fc8_fc8_0_split -> fc8_fc8_0_split_1
I0411 00:59:50.746393 17804 net.cpp:143] Setting up fc8_fc8_0_split
I0411 00:59:50.746402 17804 net.cpp:150] Top shape: 50 1000 (50000)
I0411 00:59:50.746405 17804 net.cpp:150] Top shape: 50 1000 (50000)
I0411 00:59:50.746407 17804 net.cpp:158] Memory required for data: 343607600
I0411 00:59:50.746412 17804 layer_factory.hpp:77] Creating layer accuracy
I0411 00:59:50.746428 17804 net.cpp:93] Creating Layer accuracy
I0411 00:59:50.746430 17804 net.cpp:427] accuracy <- fc8_fc8_0_split_0
I0411 00:59:50.746434 17804 net.cpp:427] accuracy <- label_data_1_split_0
I0411 00:59:50.746440 17804 net.cpp:401] accuracy -> accuracy
…
