…
I0224 22:06:25.007659  9577 net.cpp:289] The NetState phase (0) differed from the phase (1) specified by a rule in layer mnist
I0224 22:06:25.007686  9577 net.cpp:289] The NetState phase (0) differed from the phase (1) specified by a rule in layer accuracy
I0224 22:06:25.007786  9577 net.cpp:44] Initializing net from parameters: 
name: "LeNet"
state {
  phase: TRAIN
}
layer {
  name: "mnist"
  type: "Data"
  top: "data"
  top: "label"
  include {
    phase: TRAIN
  }
  transform_param {
    scale: 0.00390625
  }
  data_param {
    source: "examples/mnist/mnist_train_lmdb"
    batch_size: 64
    backend: LMDB
  }
}
layer {
  name: "conv1"
  type: "Convolution"
  bottom: "data"
  top: "conv1"
  param {
    lr_mult: 1
    decay_mult: 1
    group_decay_mult: 1
  }
  param {
    lr_mult: 2
  }
  convolution_param {
    num_output: 20
    kernel_size: 5
    stride: 1
    weight_filler {
      type: "xavier"
    }
    bias_filler {
      type: "constant"
    }
  }
}
layer {
  name: "pool1"
  type: "Pooling"
  bottom: "conv1"
  top: "pool1"
  pooling_param {
    pool: MAX
    kernel_size: 2
    stride: 2
  }
}
layer {
  name: "conv2"
  type: "Convolution"
  bottom: "pool1"
  top: "conv2"
  param {
    lr_mult: 1
    decay_mult: 1
    group_decay_mult: 1
  }
  param {
    lr_mult: 2
  }
  convolution_param {
    num_output: 50
    kernel_size: 5
    stride: 1
    weight_filler {
      type: "xavier"
    }
    bias_filler {
      type: "constant"
    }
  }
}
layer {
  name: "pool2"
  type: "Pooling"
  bottom: "conv2"
  top: "pool2"
  pooling_param {
    pool: MAX
    kernel_size: 2
    stride: 2
  }
}
layer {
  name: "ip1"
  type: "InnerProduct"
  bottom: "pool2"
  top: "ip1"
  param {
    lr_mult: 1
  }
  param {
    lr_mult: 2
  }
  inner_product_param {
    num_output: 500
    weight_filler {
      type: "xavier"
    }
    bias_filler {
      type: "constant"
    }
  }
}
layer {
  name: "relu1"
  type: "ReLU"
  bottom: "ip1"
  top: "ip1"
}
layer {
  name: "ip2"
  type: "InnerProduct"
  bottom: "ip1"
  top: "ip2"
  param {
    lr_mult: 1
  }
  param {
    lr_mult: 2
  }
  inner_product_param {
    num_output: 10
    weight_filler {
      type: "xavier"
    }
    bias_filler {
      type: "constant"
    }
  }
}
layer {
  name: "loss"
  type: "SoftmaxWithLoss"
  bottom: "ip2"
  bottom: "label"
  top: "loss"
}
I0224 22:06:25.007864  9577 layer_factory.hpp:74] Creating layer mnist
I0224 22:06:25.007905  9577 net.cpp:92] Creating Layer mnist
I0224 22:06:25.007918  9577 net.cpp:370] mnist -> data
I0224 22:06:25.007946  9577 net.cpp:370] mnist -> label
I0224 22:06:25.007973  9577 net.cpp:122] Setting up mnist
I0224 22:06:25.008086  9577 db_lmdb.cpp:22] Opened lmdb examples/mnist/mnist_train_lmdb
I0224 22:06:25.008133  9577 data_layer.cpp:52] output data size: 64,1,28,28
I0224 22:06:25.008301  9577 net.cpp:129] Top shape: 64 1 28 28 (50176)
I0224 22:06:25.008317  9577 net.cpp:129] Top shape: 64 (64)
I0224 22:06:25.008327  9577 layer_factory.hpp:74] Creating layer conv1
I0224 22:06:25.008342  9577 net.cpp:92] Creating Layer conv1
I0224 22:06:25.008352  9577 net.cpp:412] conv1 <- data
I0224 22:06:25.008369  9577 net.cpp:370] conv1 -> conv1
I0224 22:06:25.008384  9577 net.cpp:122] Setting up conv1
I0224 22:06:25.008913  9577 net.cpp:129] Top shape: 64 20 24 24 (737280)
I0224 22:06:25.008937  9577 layer_factory.hpp:74] Creating layer pool1
I0224 22:06:25.008958  9577 net.cpp:92] Creating Layer pool1
I0224 22:06:25.008968  9577 net.cpp:412] pool1 <- conv1
I0224 22:06:25.008985  9577 net.cpp:370] pool1 -> pool1
I0224 22:06:25.009012  9577 net.cpp:122] Setting up pool1
I0224 22:06:25.009032  9577 net.cpp:129] Top shape: 64 20 12 12 (184320)
I0224 22:06:25.009040  9577 layer_factory.hpp:74] Creating layer conv2
I0224 22:06:25.009054  9577 net.cpp:92] Creating Layer conv2
I0224 22:06:25.009062  9577 net.cpp:412] conv2 <- pool1
I0224 22:06:25.009074  9577 net.cpp:370] conv2 -> conv2
I0224 22:06:25.009085  9577 net.cpp:122] Setting up conv2
I0224 22:06:25.009313  9577 net.cpp:129] Top shape: 64 50 8 8 (204800)
I0224 22:06:25.009330  9577 layer_factory.hpp:74] Creating layer pool2
I0224 22:06:25.009340  9577 net.cpp:92] Creating Layer pool2
I0224 22:06:25.009347  9577 net.cpp:412] pool2 <- conv2
I0224 22:06:25.009368  9577 net.cpp:370] pool2 -> pool2
I0224 22:06:25.009379  9577 net.cpp:122] Setting up pool2
I0224 22:06:25.009390  9577 net.cpp:129] Top shape: 64 50 4 4 (51200)
I0224 22:06:25.009397  9577 layer_factory.hpp:74] Creating layer ip1
I0224 22:06:25.009408  9577 net.cpp:92] Creating Layer ip1
I0224 22:06:25.009415  9577 net.cpp:412] ip1 <- pool2
I0224 22:06:25.009428  9577 net.cpp:370] ip1 -> ip1
I0224 22:06:25.009440  9577 net.cpp:122] Setting up ip1
I0224 22:06:25.014736  9577 net.cpp:129] Top shape: 64 500 (32000)
I0224 22:06:25.014786  9577 layer_factory.hpp:74] Creating layer relu1
I0224 22:06:25.015904  9577 net.cpp:92] Creating Layer relu1
I0224 22:06:25.015954  9577 net.cpp:412] relu1 <- ip1
I0224 22:06:25.015969  9577 net.cpp:359] relu1 -> ip1 (in-place)
I0224 22:06:25.015981  9577 net.cpp:122] Setting up relu1
I0224 22:06:25.016007  9577 net.cpp:129] Top shape: 64 500 (32000)
I0224 22:06:25.016017  9577 layer_factory.hpp:74] Creating layer ip2
I0224 22:06:25.016031  9577 net.cpp:92] Creating Layer ip2
I0224 22:06:25.016037  9577 net.cpp:412] ip2 <- ip1
I0224 22:06:25.016047  9577 net.cpp:370] ip2 -> ip2
I0224 22:06:25.016059  9577 net.cpp:122] Setting up ip2
I0224 22:06:25.016127  9577 net.cpp:129] Top shape: 64 10 (640)
I0224 22:06:25.016157  9577 layer_factory.hpp:74] Creating layer loss
I0224 22:06:25.016173  9577 net.cpp:92] Creating Layer loss
I0224 22:06:25.016181  9577 net.cpp:412] loss <- ip2
I0224 22:06:25.016190  9577 net.cpp:412] loss <- label
I0224 22:06:25.016201  9577 net.cpp:370] loss -> loss
I0224 22:06:25.016212  9577 net.cpp:122] Setting up loss
I0224 22:06:25.016224  9577 layer_factory.hpp:74] Creating layer loss
…
I0224 22:06:25.016911  9577 solver.cpp:156] Creating test net (#0) specified by net file: examples/mnist/lenet_train_test.prototxt
I0224 22:06:25.016979  9577 net.cpp:289] The NetState phase (1) differed from the phase (0) specified by a rule in layer mnist
I0224 22:06:25.017097  9577 net.cpp:44] Initializing net from parameters: 
name: "LeNet"
state {
  phase: TEST
}
layer {
  name: "mnist"
  type: "Data"
  top: "data"
  top: "label"
  include {
    phase: TEST
  }
  transform_param {
    scale: 0.00390625
  }
  data_param {
    source: "examples/mnist/mnist_test_lmdb"
    batch_size: 100
    backend: LMDB
  }
}
layer {
  name: "conv1"
  type: "Convolution"
  bottom: "data"
  top: "conv1"
  param {
    lr_mult: 1
    decay_mult: 1
    group_decay_mult: 1
  }
  param {
    lr_mult: 2
  }
  convolution_param {
    num_output: 20
    kernel_size: 5
    stride: 1
    weight_filler {
      type: "xavier"
    }
    bias_filler {
      type: "constant"
    }
  }
}
layer {
  name: "pool1"
  type: "Pooling"
  bottom: "conv1"
  top: "pool1"
  pooling_param {
    pool: MAX
    kernel_size: 2
    stride: 2
  }
}
layer {
  name: "conv2"
  type: "Convolution"
  bottom: "pool1"
  top: "conv2"
  param {
    lr_mult: 1
    decay_mult: 1
    group_decay_mult: 1
  }
  param {
    lr_mult: 2
  }
  convolution_param {
    num_output: 50
    kernel_size: 5
    stride: 1
    weight_filler {
      type: "xavier"
    }
    bias_filler {
      type: "constant"
    }
  }
}
layer {
  name: "pool2"
  type: "Pooling"
  bottom: "conv2"
  top: "pool2"
  pooling_param {
    pool: MAX
    kernel_size: 2
    stride: 2
  }
}
layer {
  name: "ip1"
  type: "InnerProduct"
  bottom: "pool2"
  top: "ip1"
  param {
    lr_mult: 1
  }
  param {
    lr_mult: 2
  }
  inner_product_param {
    num_output: 500
    weight_filler {
      type: "xavier"
    }
    bias_filler {
      type: "constant"
    }
  }
}
layer {
  name: "relu1"
  type: "ReLU"
  bottom: "ip1"
  top: "ip1"
}
layer {
  name: "ip2"
  type: "InnerProduct"
  bottom: "ip1"
  top: "ip2"
  param {
    lr_mult: 1
  }
  param {
    lr_mult: 2
  }
  inner_product_param {
    num_output: 10
    weight_filler {
      type: "xavier"
    }
    bias_filler {
      type: "constant"
    }
  }
}
layer {
  name: "accuracy"
  type: "Accuracy"
  bottom: "ip2"
  bottom: "label"
  top: "accuracy"
  include {
    phase: TEST
  }
}
layer {
  name: "loss"
  type: "SoftmaxWithLoss"
  bottom: "ip2"
  bottom: "label"
  top: "loss"
}
I0224 22:06:25.017367  9577 layer_factory.hpp:74] Creating layer mnist
I0224 22:06:25.017410  9577 net.cpp:92] Creating Layer mnist
I0224 22:06:25.017421  9577 net.cpp:370] mnist -> data
I0224 22:06:25.017437  9577 net.cpp:370] mnist -> label
I0224 22:06:25.017449  9577 net.cpp:122] Setting up mnist
I0224 22:06:25.017580  9577 db_lmdb.cpp:22] Opened lmdb examples/mnist/mnist_test_lmdb
I0224 22:06:25.017619  9577 data_layer.cpp:52] output data size: 100,1,28,28
I0224 22:06:25.017806  9577 net.cpp:129] Top shape: 100 1 28 28 (78400)
I0224 22:06:25.017819  9577 net.cpp:129] Top shape: 100 (100)
I0224 22:06:25.017828  9577 layer_factory.hpp:74] Creating layer label_mnist_1_split
I0224 22:06:25.017838  9577 net.cpp:92] Creating Layer label_mnist_1_split
I0224 22:06:25.017848  9577 net.cpp:412] label_mnist_1_split <- label
I0224 22:06:25.017877  9577 net.cpp:370] label_mnist_1_split -> label_mnist_1_split_0
I0224 22:06:25.017890  9577 net.cpp:370] label_mnist_1_split -> label_mnist_1_split_1
I0224 22:06:25.017901  9577 net.cpp:122] Setting up label_mnist_1_split
I0224 22:06:25.017912  9577 net.cpp:129] Top shape: 100 (100)
I0224 22:06:25.017920  9577 net.cpp:129] Top shape: 100 (100)
I0224 22:06:25.017927  9577 layer_factory.hpp:74] Creating layer conv1
I0224 22:06:25.017943  9577 net.cpp:92] Creating Layer conv1
I0224 22:06:25.017952  9577 net.cpp:412] conv1 <- data
I0224 22:06:25.017962  9577 net.cpp:370] conv1 -> conv1
I0224 22:06:25.017976  9577 net.cpp:122] Setting up conv1
I0224 22:06:25.018013  9577 net.cpp:129] Top shape: 100 20 24 24 (1152000)
I0224 22:06:25.018028  9577 layer_factory.hpp:74] Creating layer pool1
I0224 22:06:25.018036  9577 net.cpp:92] Creating Layer pool1
I0224 22:06:25.018044  9577 net.cpp:412] pool1 <- conv1
I0224 22:06:25.018054  9577 net.cpp:370] pool1 -> pool1
I0224 22:06:25.018064  9577 net.cpp:122] Setting up pool1
I0224 22:06:25.018076  9577 net.cpp:129] Top shape: 100 20 12 12 (288000)
I0224 22:06:25.018084  9577 layer_factory.hpp:74] Creating layer conv2
I0224 22:06:25.018097  9577 net.cpp:92] Creating Layer conv2
I0224 22:06:25.018105  9577 net.cpp:412] conv2 <- pool1
I0224 22:06:25.018124  9577 net.cpp:370] conv2 -> conv2
I0224 22:06:25.018134  9577 net.cpp:122] Setting up conv2
I0224 22:06:25.018378  9577 net.cpp:129] Top shape: 100 50 8 8 (320000)
I0224 22:06:25.018393  9577 layer_factory.hpp:74] Creating layer pool2
I0224 22:06:25.018404  9577 net.cpp:92] Creating Layer pool2
I0224 22:06:25.018410  9577 net.cpp:412] pool2 <- conv2
I0224 22:06:25.018422  9577 net.cpp:370] pool2 -> pool2
I0224 22:06:25.018432  9577 net.cpp:122] Setting up pool2
I0224 22:06:25.018443  9577 net.cpp:129] Top shape: 100 50 4 4 (80000)
I0224 22:06:25.018451  9577 layer_factory.hpp:74] Creating layer ip1
I0224 22:06:25.018465  9577 net.cpp:92] Creating Layer ip1
I0224 22:06:25.018472  9577 net.cpp:412] ip1 <- pool2
I0224 22:06:25.018482  9577 net.cpp:370] ip1 -> ip1
I0224 22:06:25.018493  9577 net.cpp:122] Setting up ip1
I0224 22:06:25.023389  9577 net.cpp:129] Top shape: 100 500 (50000)
I0224 22:06:25.023442  9577 layer_factory.hpp:74] Creating layer relu1
I0224 22:06:25.023460  9577 net.cpp:92] Creating Layer relu1
I0224 22:06:25.023469  9577 net.cpp:412] relu1 <- ip1
I0224 22:06:25.023483  9577 net.cpp:359] relu1 -> ip1 (in-place)
I0224 22:06:25.023494  9577 net.cpp:122] Setting up relu1
I0224 22:06:25.023504  9577 net.cpp:129] Top shape: 100 500 (50000)
I0224 22:06:25.023511  9577 layer_factory.hpp:74] Creating layer ip2
I0224 22:06:25.023524  9577 net.cpp:92] Creating Layer ip2
I0224 22:06:25.023532  9577 net.cpp:412] ip2 <- ip1
I0224 22:06:25.023545  9577 net.cpp:370] ip2 -> ip2
I0224 22:06:25.023556  9577 net.cpp:122] Setting up ip2
I0224 22:06:25.023622  9577 net.cpp:129] Top shape: 100 10 (1000)
I0224 22:06:25.023633  9577 layer_factory.hpp:74] Creating layer ip2_ip2_0_split
I0224 22:06:25.023646  9577 net.cpp:92] Creating Layer ip2_ip2_0_split
I0224 22:06:25.023655  9577 net.cpp:412] ip2_ip2_0_split <- ip2
I0224 22:06:25.023674  9577 net.cpp:370] ip2_ip2_0_split -> ip2_ip2_0_split_0
I0224 22:06:25.023732  9577 net.cpp:370] ip2_ip2_0_split -> ip2_ip2_0_split_1
I0224 22:06:25.023772  9577 net.cpp:122] Setting up ip2_ip2_0_split
I0224 22:06:25.023787  9577 net.cpp:129] Top shape: 100 10 (1000)
I0224 22:06:25.023795  9577 net.cpp:129] Top shape: 100 10 (1000)
I0224 22:06:25.023803  9577 layer_factory.hpp:74] Creating layer accuracy
I0224 22:06:25.023818  9577 net.cpp:92] Creating Layer accuracy
I0224 22:06:25.023825  9577 net.cpp:412] accuracy <- ip2_ip2_0_split_0
I0224 22:06:25.023844  9577 net.cpp:412] accuracy <- label_mnist_1_split_0
I0224 22:06:25.023862  9577 net.cpp:370] accuracy -> accuracy
I0224 22:06:25.023874  9577 net.cpp:122] Setting up accuracy
…
