…
I0406 10:15:59.449755  9801 net.cpp:315] The NetState phase (0) differed from the phase (1) specified by a rule in layer accuracy
I0406 10:15:59.449982  9801 net.cpp:51] Initializing net from parameters: 
name: "CaffeNet"
state {
  phase: TRAIN
}
layer {
  name: "data"
  type: "Data"
  top: "data"
  top: "label"
  include {
    phase: TRAIN
  }
  transform_param {
    mirror: true
    crop_size: 227
    mean_file: "data/ilsvrc12/imagenet_mean.binaryproto"
  }
  data_param {
    source: "examples/imagenet/ilsvrc12_train_lmdb"
    batch_size: 256
    backend: LMDB
  }
}
layer {
  name: "conv1"
  type: "Convolution"
  bottom: "data"
  top: "conv1"
  param {
    lr_mult: 1
    decay_mult: 1
    breadth_decay_mult: 0
    kernel_shape_decay_mult: 0
    block_group_lasso {
      xdimen: 121
      ydimen: 1
      block_decay_mult: 3.5
    }
  }
  param {
    lr_mult: 2
    decay_mult: 0
    breadth_decay_mult: 0
    kernel_shape_decay_mult: 0
  }
  convolution_param {
    num_output: 96
    kernel_size: 11
    stride: 4
    weight_filler {
      type: "gaussian"
      std: 0.01
    }
    bias_filler {
      type: "constant"
      value: 0
    }
  }
}
layer {
  name: "relu1"
  type: "ReLU"
  bottom: "conv1"
  top: "conv1"
}
layer {
  name: "pool1"
  type: "Pooling"
  bottom: "conv1"
  top: "pool1"
  pooling_param {
    pool: MAX
    kernel_size: 3
    stride: 2
  }
}
layer {
  name: "norm1"
  type: "LRN"
  bottom: "pool1"
  top: "norm1"
  lrn_param {
    local_size: 5
    alpha: 0.0001
    beta: 0.75
  }
}
layer {
  name: "conv2"
  type: "Convolution"
  bottom: "norm1"
  top: "conv2"
  param {
    lr_mult: 1
    decay_mult: 1
    breadth_decay_mult: 0
    kernel_shape_decay_mult: 0
    block_group_lasso {
      xdimen: 25
      ydimen: 1
      block_decay_mult: 1.5
    }
  }
  param {
    lr_mult: 2
    decay_mult: 0
    breadth_decay_mult: 0
    kernel_shape_decay_mult: 0
  }
  convolution_param {
    num_output: 256
    pad: 2
    kernel_size: 5
    group: 2
    weight_filler {
      type: "gaussian"
      std: 0.01
    }
    bias_filler {
      type: "constant"
      value: 1
    }
  }
}
layer {
  name: "relu2"
  type: "ReLU"
  bottom: "conv2"
  top: "conv2"
}
layer {
  name: "pool2"
  type: "Pooling"
  bottom: "conv2"
  top: "pool2"
  pooling_param {
    pool: MAX
    kernel_size: 3
    stride: 2
  }
}
layer {
  name: "norm2"
  type: "LRN"
  bottom: "pool2"
  top: "norm2"
  lrn_param {
    local_size: 5
    alpha: 0.0001
    beta: 0.75
  }
}
layer {
  name: "conv3"
  type: "Convolution"
  bottom: "norm2"
  top: "conv3"
  param {
    lr_mult: 1
    decay_mult: 1
    breadth_decay_mult: 0
    kernel_shape_decay_mult: 0
    block_group_lasso {
      xdimen: 9
      ydimen: 1
      block_decay_mult: 1
    }
  }
  param {
    lr_mult: 2
    decay_mult: 0
    breadth_decay_mult: 0
    kernel_shape_decay_mult: 0
  }
  convolution_param {
    num_output: 384
    pad: 1
    kernel_size: 3
    weight_filler {
      type: "gaussian"
      std: 0.01
    }
    bias_filler {
      type: "constant"
      value: 0
    }
  }
}
layer {
  name: "relu3"
  type: "ReLU"
  bottom: "conv3"
  top: "conv3"
}
layer {
  name: "conv4"
  type: "Convolution"
  bottom: "conv3"
  top: "conv4"
  param {
    lr_mult: 1
    decay_mult: 1
    breadth_decay_mult: 0
    kernel_shape_decay_mult: 0
    block_group_lasso {
      xdimen: 9
      ydimen: 1
      block_decay_mult: 1
    }
  }
  param {
    lr_mult: 2
    decay_mult: 0
    breadth_decay_mult: 0
    kernel_shape_decay_mult: 0
  }
  convolution_param {
    num_output: 384
    pad: 1
    kernel_size: 3
    group: 2
    weight_filler {
      type: "gaussian"
      std: 0.01
    }
    bias_filler {
      type: "constant"
      value: 1
    }
  }
}
layer {
  name: "relu4"
  type: "ReLU"
  bottom: "conv4"
  top: "conv4"
}
layer {
  name: "conv5"
  type: "Convolution"
  bottom: "conv4"
  top: "conv5"
  param {
    lr_mult: 1
    decay_mult: 1
    breadth_decay_mult: 0
    kernel_shape_decay_mult: 0
    block_group_lasso {
      xdimen: 9
      ydimen: 1
      block_decay_mult: 1
    }
  }
  param {
    lr_mult: 2
    decay_mult: 0
    breadth_decay_mult: 0
    kernel_shape_decay_mult: 0
  }
  convolution_param {
    num_output: 256
    pad: 1
    kernel_size: 3
    group: 2
    weight_filler {
      type: "gaussian"
      std: 0.01
    }
    bias_filler {
      type: "constant"
      value: 1
    }
  }
}
layer {
  name: "relu5"
  type: "ReLU"
  bottom: "conv5"
  top: "conv5"
}
layer {
  name: "pool5"
  type: "Pooling"
  bottom: "conv5"
  top: "pool5"
  pooling_param {
    pool: MAX
    kernel_size: 3
    stride: 2
  }
}
layer {
  name: "fc6"
  type: "InnerProduct"
  bottom: "pool5"
  top: "fc6"
  param {
    lr_mult: 1
    decay_mult: 1
    breadth_decay_mult: 1
    kernel_shape_decay_mult: 1
  }
  param {
    lr_mult: 2
    decay_mult: 0
    breadth_decay_mult: 0
    kernel_shape_decay_mult: 0
  }
  inner_product_param {
    num_output: 4096
    weight_filler {
      type: "gaussian"
      std: 0.005
    }
    bias_filler {
      type: "constant"
      value: 1
    }
  }
}
layer {
  name: "relu6"
  type: "ReLU"
  bottom: "fc6"
  top: "fc6"
}
layer {
  name: "drop6"
  type: "Dropout"
  bottom: "fc6"
  top: "fc6"
  dropout_param {
    dropout_ratio: 0.5
  }
}
layer {
  name: "fc7"
  type: "InnerProduct"
  bottom: "fc6"
  top: "fc7"
  param {
    lr_mult: 1
    decay_mult: 1
    breadth_decay_mult: 1
    kernel_shape_decay_mult: 1
  }
  param {
    lr_mult: 2
    decay_mult: 0
    breadth_decay_mult: 0
    kernel_shape_decay_mult: 0
  }
  inner_product_param {
    num_output: 4096
    weight_filler {
      type: "gaussian"
      std: 0.005
    }
    bias_filler {
      type: "constant"
      value: 1
    }
  }
}
layer {
  name: "relu7"
  type: "ReLU"
  bottom: "fc7"
  top: "fc7"
}
layer {
  name: "drop7"
  type: "Dropout"
  bottom: "fc7"
  top: "fc7"
  dropout_param {
    dropout_ratio: 0.5
  }
}
layer {
  name: "fc8"
  type: "InnerProduct"
  bottom: "fc7"
  top: "fc8"
  param {
    lr_mult: 1
    decay_mult: 1
    breadth_decay_mult: 0
    kernel_shape_decay_mult: 1
  }
  param {
    lr_mult: 2
    decay_mult: 0
    breadth_decay_mult: 0
    kernel_shape_decay_mult: 0
  }
  inner_product_param {
    num_output: 1000
    weight_filler {
      type: "gaussian"
      std: 0.01
    }
    bias_filler {
      type: "constant"
      value: 0
    }
  }
}
layer {
  name: "loss"
  type: "SoftmaxWithLoss"
  bottom: "fc8"
  bottom: "label"
  top: "loss"
}
I0406 10:15:59.450142  9801 layer_factory.hpp:77] Creating layer data
I0406 10:15:59.450906  9801 net.cpp:93] Creating Layer data
I0406 10:15:59.450927  9801 net.cpp:401] data -> data
I0406 10:15:59.450971  9801 net.cpp:401] data -> label
I0406 10:15:59.451009  9801 data_transformer.cpp:25] Loading mean file from: data/ilsvrc12/imagenet_mean.binaryproto
I0406 10:15:59.504047  9815 db_lmdb.cpp:38] Opened lmdb examples/imagenet/ilsvrc12_train_lmdb
I0406 10:15:59.993640  9801 data_layer.cpp:41] output data size: 256,3,227,227
I0406 10:16:00.288962  9801 net.cpp:143] Setting up data
I0406 10:16:00.289027  9801 net.cpp:150] Top shape: 256 3 227 227 (39574272)
I0406 10:16:00.289038  9801 net.cpp:150] Top shape: 256 (256)
I0406 10:16:00.289058  9801 net.cpp:158] Memory required for data: 158298112
I0406 10:16:00.289093  9801 layer_factory.hpp:77] Creating layer conv1
I0406 10:16:00.289136  9801 net.cpp:93] Creating Layer conv1
I0406 10:16:00.289149  9801 net.cpp:427] conv1 <- data
I0406 10:16:00.289170  9801 net.cpp:401] conv1 -> conv1
I0406 10:16:00.660429  9801 net.cpp:143] Setting up conv1
I0406 10:16:00.660487  9801 net.cpp:150] Top shape: 256 96 55 55 (74342400)
I0406 10:16:00.660496  9801 net.cpp:158] Memory required for data: 455667712
I0406 10:16:00.660537  9801 layer_factory.hpp:77] Creating layer relu1
I0406 10:16:00.660559  9801 net.cpp:93] Creating Layer relu1
I0406 10:16:00.660568  9801 net.cpp:427] relu1 <- conv1
I0406 10:16:00.660581  9801 net.cpp:388] relu1 -> conv1 (in-place)
I0406 10:16:00.660864  9801 net.cpp:143] Setting up relu1
I0406 10:16:00.660881  9801 net.cpp:150] Top shape: 256 96 55 55 (74342400)
I0406 10:16:00.660887  9801 net.cpp:158] Memory required for data: 753037312
I0406 10:16:00.660895  9801 layer_factory.hpp:77] Creating layer pool1
I0406 10:16:00.660912  9801 net.cpp:93] Creating Layer pool1
I0406 10:16:00.660919  9801 net.cpp:427] pool1 <- conv1
I0406 10:16:00.660929  9801 net.cpp:401] pool1 -> pool1
I0406 10:16:00.753327  9801 net.cpp:143] Setting up pool1
I0406 10:16:00.753388  9801 net.cpp:150] Top shape: 256 96 27 27 (17915904)
I0406 10:16:00.753396  9801 net.cpp:158] Memory required for data: 824700928
I0406 10:16:00.753408  9801 layer_factory.hpp:77] Creating layer norm1
I0406 10:16:00.753445  9801 net.cpp:93] Creating Layer norm1
I0406 10:16:00.753455  9801 net.cpp:427] norm1 <- pool1
I0406 10:16:00.753471  9801 net.cpp:401] norm1 -> norm1
I0406 10:16:00.855381  9801 net.cpp:143] Setting up norm1
I0406 10:16:00.855448  9801 net.cpp:150] Top shape: 256 96 27 27 (17915904)
I0406 10:16:00.855458  9801 net.cpp:158] Memory required for data: 896364544
I0406 10:16:00.855470  9801 layer_factory.hpp:77] Creating layer conv2
I0406 10:16:00.855502  9801 net.cpp:93] Creating Layer conv2
I0406 10:16:00.855514  9801 net.cpp:427] conv2 <- norm1
I0406 10:16:00.855531  9801 net.cpp:401] conv2 -> conv2
I0406 10:16:01.004441  9801 net.cpp:143] Setting up conv2
I0406 10:16:01.004495  9801 net.cpp:150] Top shape: 256 256 27 27 (47775744)
I0406 10:16:01.004504  9801 net.cpp:158] Memory required for data: 1087467520
I0406 10:16:01.004537  9801 layer_factory.hpp:77] Creating layer relu2
I0406 10:16:01.004561  9801 net.cpp:93] Creating Layer relu2
I0406 10:16:01.004572  9801 net.cpp:427] relu2 <- conv2
I0406 10:16:01.004590  9801 net.cpp:388] relu2 -> conv2 (in-place)
I0406 10:16:01.005010  9801 net.cpp:143] Setting up relu2
I0406 10:16:01.005028  9801 net.cpp:150] Top shape: 256 256 27 27 (47775744)
I0406 10:16:01.005035  9801 net.cpp:158] Memory required for data: 1278570496
I0406 10:16:01.005044  9801 layer_factory.hpp:77] Creating layer pool2
I0406 10:16:01.005059  9801 net.cpp:93] Creating Layer pool2
I0406 10:16:01.005066  9801 net.cpp:427] pool2 <- conv2
I0406 10:16:01.005076  9801 net.cpp:401] pool2 -> pool2
I0406 10:16:01.063318  9801 net.cpp:143] Setting up pool2
I0406 10:16:01.063376  9801 net.cpp:150] Top shape: 256 256 13 13 (11075584)
I0406 10:16:01.063385  9801 net.cpp:158] Memory required for data: 1322872832
I0406 10:16:01.063397  9801 layer_factory.hpp:77] Creating layer norm2
I0406 10:16:01.063426  9801 net.cpp:93] Creating Layer norm2
I0406 10:16:01.063436  9801 net.cpp:427] norm2 <- pool2
I0406 10:16:01.063452  9801 net.cpp:401] norm2 -> norm2
I0406 10:16:01.121805  9801 net.cpp:143] Setting up norm2
I0406 10:16:01.121863  9801 net.cpp:150] Top shape: 256 256 13 13 (11075584)
I0406 10:16:01.121871  9801 net.cpp:158] Memory required for data: 1367175168
I0406 10:16:01.121886  9801 layer_factory.hpp:77] Creating layer conv3
I0406 10:16:01.121920  9801 net.cpp:93] Creating Layer conv3
I0406 10:16:01.121932  9801 net.cpp:427] conv3 <- norm2
I0406 10:16:01.121949  9801 net.cpp:401] conv3 -> conv3
I0406 10:16:01.210268  9801 net.cpp:143] Setting up conv3
I0406 10:16:01.210326  9801 net.cpp:150] Top shape: 256 384 13 13 (16613376)
I0406 10:16:01.210362  9801 net.cpp:158] Memory required for data: 1433628672
I0406 10:16:01.210396  9801 layer_factory.hpp:77] Creating layer relu3
I0406 10:16:01.210414  9801 net.cpp:93] Creating Layer relu3
I0406 10:16:01.210423  9801 net.cpp:427] relu3 <- conv3
I0406 10:16:01.210439  9801 net.cpp:388] relu3 -> conv3 (in-place)
I0406 10:16:01.210898  9801 net.cpp:143] Setting up relu3
I0406 10:16:01.210917  9801 net.cpp:150] Top shape: 256 384 13 13 (16613376)
I0406 10:16:01.210924  9801 net.cpp:158] Memory required for data: 1500082176
I0406 10:16:01.210932  9801 layer_factory.hpp:77] Creating layer conv4
I0406 10:16:01.210963  9801 net.cpp:93] Creating Layer conv4
I0406 10:16:01.210971  9801 net.cpp:427] conv4 <- conv3
I0406 10:16:01.210983  9801 net.cpp:401] conv4 -> conv4
I0406 10:16:01.290547  9801 net.cpp:143] Setting up conv4
I0406 10:16:01.290604  9801 net.cpp:150] Top shape: 256 384 13 13 (16613376)
I0406 10:16:01.290613  9801 net.cpp:158] Memory required for data: 1566535680
I0406 10:16:01.290638  9801 layer_factory.hpp:77] Creating layer relu4
I0406 10:16:01.290657  9801 net.cpp:93] Creating Layer relu4
I0406 10:16:01.290668  9801 net.cpp:427] relu4 <- conv4
I0406 10:16:01.290683  9801 net.cpp:388] relu4 -> conv4 (in-place)
I0406 10:16:01.290982  9801 net.cpp:143] Setting up relu4
I0406 10:16:01.290998  9801 net.cpp:150] Top shape: 256 384 13 13 (16613376)
I0406 10:16:01.291007  9801 net.cpp:158] Memory required for data: 1632989184
I0406 10:16:01.291014  9801 layer_factory.hpp:77] Creating layer conv5
I0406 10:16:01.291038  9801 net.cpp:93] Creating Layer conv5
I0406 10:16:01.291046  9801 net.cpp:427] conv5 <- conv4
I0406 10:16:01.291060  9801 net.cpp:401] conv5 -> conv5
I0406 10:16:01.346022  9801 net.cpp:143] Setting up conv5
I0406 10:16:01.346079  9801 net.cpp:150] Top shape: 256 256 13 13 (11075584)
I0406 10:16:01.346088  9801 net.cpp:158] Memory required for data: 1677291520
I0406 10:16:01.346118  9801 layer_factory.hpp:77] Creating layer relu5
I0406 10:16:01.346139  9801 net.cpp:93] Creating Layer relu5
I0406 10:16:01.346149  9801 net.cpp:427] relu5 <- conv5
I0406 10:16:01.346163  9801 net.cpp:388] relu5 -> conv5 (in-place)
I0406 10:16:01.346448  9801 net.cpp:143] Setting up relu5
I0406 10:16:01.346464  9801 net.cpp:150] Top shape: 256 256 13 13 (11075584)
I0406 10:16:01.346472  9801 net.cpp:158] Memory required for data: 1721593856
I0406 10:16:01.346480  9801 layer_factory.hpp:77] Creating layer pool5
I0406 10:16:01.346505  9801 net.cpp:93] Creating Layer pool5
I0406 10:16:01.346515  9801 net.cpp:427] pool5 <- conv5
I0406 10:16:01.346529  9801 net.cpp:401] pool5 -> pool5
I0406 10:16:01.358304  9801 net.cpp:143] Setting up pool5
I0406 10:16:01.358357  9801 net.cpp:150] Top shape: 256 256 6 6 (2359296)
I0406 10:16:01.358366  9801 net.cpp:158] Memory required for data: 1731031040
I0406 10:16:01.358379  9801 layer_factory.hpp:77] Creating layer fc6
I0406 10:16:01.358409  9801 net.cpp:93] Creating Layer fc6
I0406 10:16:01.358419  9801 net.cpp:427] fc6 <- pool5
I0406 10:16:01.358433  9801 net.cpp:401] fc6 -> fc6
I0406 10:16:02.636708  9801 net.cpp:143] Setting up fc6
I0406 10:16:02.636754  9801 net.cpp:150] Top shape: 256 4096 (1048576)
I0406 10:16:02.636761  9801 net.cpp:158] Memory required for data: 1735225344
I0406 10:16:02.636780  9801 layer_factory.hpp:77] Creating layer relu6
I0406 10:16:02.636795  9801 net.cpp:93] Creating Layer relu6
I0406 10:16:02.636804  9801 net.cpp:427] relu6 <- fc6
I0406 10:16:02.636816  9801 net.cpp:388] relu6 -> fc6 (in-place)
I0406 10:16:02.637220  9801 net.cpp:143] Setting up relu6
I0406 10:16:02.637238  9801 net.cpp:150] Top shape: 256 4096 (1048576)
I0406 10:16:02.637244  9801 net.cpp:158] Memory required for data: 1739419648
I0406 10:16:02.637253  9801 layer_factory.hpp:77] Creating layer drop6
I0406 10:16:02.637265  9801 net.cpp:93] Creating Layer drop6
I0406 10:16:02.637272  9801 net.cpp:427] drop6 <- fc6
I0406 10:16:02.637280  9801 net.cpp:388] drop6 -> fc6 (in-place)
I0406 10:16:02.639598  9801 net.cpp:143] Setting up drop6
I0406 10:16:02.639623  9801 net.cpp:150] Top shape: 256 4096 (1048576)
I0406 10:16:02.639647  9801 net.cpp:158] Memory required for data: 1743613952
I0406 10:16:02.639653  9801 layer_factory.hpp:77] Creating layer fc7
I0406 10:16:02.639667  9801 net.cpp:93] Creating Layer fc7
I0406 10:16:02.639673  9801 net.cpp:427] fc7 <- fc6
I0406 10:16:02.639684  9801 net.cpp:401] fc7 -> fc7
I0406 10:16:03.197068  9801 net.cpp:143] Setting up fc7
I0406 10:16:03.197124  9801 net.cpp:150] Top shape: 256 4096 (1048576)
I0406 10:16:03.197130  9801 net.cpp:158] Memory required for data: 1747808256
I0406 10:16:03.197149  9801 layer_factory.hpp:77] Creating layer relu7
I0406 10:16:03.197167  9801 net.cpp:93] Creating Layer relu7
I0406 10:16:03.197175  9801 net.cpp:427] relu7 <- fc7
I0406 10:16:03.197188  9801 net.cpp:388] relu7 -> fc7 (in-place)
I0406 10:16:03.197501  9801 net.cpp:143] Setting up relu7
I0406 10:16:03.197515  9801 net.cpp:150] Top shape: 256 4096 (1048576)
I0406 10:16:03.197521  9801 net.cpp:158] Memory required for data: 1752002560
I0406 10:16:03.197528  9801 layer_factory.hpp:77] Creating layer drop7
I0406 10:16:03.197540  9801 net.cpp:93] Creating Layer drop7
I0406 10:16:03.197546  9801 net.cpp:427] drop7 <- fc7
I0406 10:16:03.197561  9801 net.cpp:388] drop7 -> fc7 (in-place)
I0406 10:16:03.199880  9801 net.cpp:143] Setting up drop7
I0406 10:16:03.199897  9801 net.cpp:150] Top shape: 256 4096 (1048576)
I0406 10:16:03.199903  9801 net.cpp:158] Memory required for data: 1756196864
I0406 10:16:03.199910  9801 layer_factory.hpp:77] Creating layer fc8
I0406 10:16:03.199925  9801 net.cpp:93] Creating Layer fc8
I0406 10:16:03.199933  9801 net.cpp:427] fc8 <- fc7
I0406 10:16:03.199944  9801 net.cpp:401] fc8 -> fc8
I0406 10:16:03.336205  9801 net.cpp:143] Setting up fc8
I0406 10:16:03.336256  9801 net.cpp:150] Top shape: 256 1000 (256000)
I0406 10:16:03.336263  9801 net.cpp:158] Memory required for data: 1757220864
I0406 10:16:03.336280  9801 layer_factory.hpp:77] Creating layer loss
I0406 10:16:03.336297  9801 net.cpp:93] Creating Layer loss
I0406 10:16:03.336305  9801 net.cpp:427] loss <- fc8
I0406 10:16:03.336315  9801 net.cpp:427] loss <- label
I0406 10:16:03.336328  9801 net.cpp:401] loss -> loss
I0406 10:16:03.336352  9801 layer_factory.hpp:77] Creating layer loss
…
I0406 10:16:03.339287  9801 net.cpp:315] The NetState phase (1) differed from the phase (0) specified by a rule in layer data
I0406 10:16:03.339496  9801 net.cpp:51] Initializing net from parameters: 
name: "CaffeNet"
state {
  phase: TEST
}
layer {
  name: "data"
  type: "Data"
  top: "data"
  top: "label"
  include {
    phase: TEST
  }
  transform_param {
    mirror: false
    crop_size: 227
    mean_file: "data/ilsvrc12/imagenet_mean.binaryproto"
  }
  data_param {
    source: "examples/imagenet/ilsvrc12_val_lmdb"
    batch_size: 50
    backend: LMDB
  }
}
layer {
  name: "conv1"
  type: "Convolution"
  bottom: "data"
  top: "conv1"
  param {
    lr_mult: 1
    decay_mult: 1
    breadth_decay_mult: 0
    kernel_shape_decay_mult: 0
    block_group_lasso {
      xdimen: 121
      ydimen: 1
      block_decay_mult: 3.5
    }
  }
  param {
    lr_mult: 2
    decay_mult: 0
    breadth_decay_mult: 0
    kernel_shape_decay_mult: 0
  }
  convolution_param {
    num_output: 96
    kernel_size: 11
    stride: 4
    weight_filler {
      type: "gaussian"
      std: 0.01
    }
    bias_filler {
      type: "constant"
      value: 0
    }
  }
}
layer {
  name: "relu1"
  type: "ReLU"
  bottom: "conv1"
  top: "conv1"
}
layer {
  name: "pool1"
  type: "Pooling"
  bottom: "conv1"
  top: "pool1"
  pooling_param {
    pool: MAX
    kernel_size: 3
    stride: 2
  }
}
layer {
  name: "norm1"
  type: "LRN"
  bottom: "pool1"
  top: "norm1"
  lrn_param {
    local_size: 5
    alpha: 0.0001
    beta: 0.75
  }
}
layer {
  name: "conv2"
  type: "Convolution"
  bottom: "norm1"
  top: "conv2"
  param {
    lr_mult: 1
    decay_mult: 1
    breadth_decay_mult: 0
    kernel_shape_decay_mult: 0
    block_group_lasso {
      xdimen: 25
      ydimen: 1
      block_decay_mult: 1.5
    }
  }
  param {
    lr_mult: 2
    decay_mult: 0
    breadth_decay_mult: 0
    kernel_shape_decay_mult: 0
  }
  convolution_param {
    num_output: 256
    pad: 2
    kernel_size: 5
    group: 2
    weight_filler {
      type: "gaussian"
      std: 0.01
    }
    bias_filler {
      type: "constant"
      value: 1
    }
  }
}
layer {
  name: "relu2"
  type: "ReLU"
  bottom: "conv2"
  top: "conv2"
}
layer {
  name: "pool2"
  type: "Pooling"
  bottom: "conv2"
  top: "pool2"
  pooling_param {
    pool: MAX
    kernel_size: 3
    stride: 2
  }
}
layer {
  name: "norm2"
  type: "LRN"
  bottom: "pool2"
  top: "norm2"
  lrn_param {
    local_size: 5
    alpha: 0.0001
    beta: 0.75
  }
}
layer {
  name: "conv3"
  type: "Convolution"
  bottom: "norm2"
  top: "conv3"
  param {
    lr_mult: 1
    decay_mult: 1
    breadth_decay_mult: 0
    kernel_shape_decay_mult: 0
    block_group_lasso {
      xdimen: 9
      ydimen: 1
      block_decay_mult: 1
    }
  }
  param {
    lr_mult: 2
    decay_mult: 0
    breadth_decay_mult: 0
    kernel_shape_decay_mult: 0
  }
  convolution_param {
    num_output: 384
    pad: 1
    kernel_size: 3
    weight_filler {
      type: "gaussian"
      std: 0.01
    }
    bias_filler {
      type: "constant"
      value: 0
    }
  }
}
layer {
  name: "relu3"
  type: "ReLU"
  bottom: "conv3"
  top: "conv3"
}
layer {
  name: "conv4"
  type: "Convolution"
  bottom: "conv3"
  top: "conv4"
  param {
    lr_mult: 1
    decay_mult: 1
    breadth_decay_mult: 0
    kernel_shape_decay_mult: 0
    block_group_lasso {
      xdimen: 9
      ydimen: 1
      block_decay_mult: 1
    }
  }
  param {
    lr_mult: 2
    decay_mult: 0
    breadth_decay_mult: 0
    kernel_shape_decay_mult: 0
  }
  convolution_param {
    num_output: 384
    pad: 1
    kernel_size: 3
    group: 2
    weight_filler {
      type: "gaussian"
      std: 0.01
    }
    bias_filler {
      type: "constant"
      value: 1
    }
  }
}
layer {
  name: "relu4"
  type: "ReLU"
  bottom: "conv4"
  top: "conv4"
}
layer {
  name: "conv5"
  type: "Convolution"
  bottom: "conv4"
  top: "conv5"
  param {
    lr_mult: 1
    decay_mult: 1
    breadth_decay_mult: 0
    kernel_shape_decay_mult: 0
    block_group_lasso {
      xdimen: 9
      ydimen: 1
      block_decay_mult: 1
    }
  }
  param {
    lr_mult: 2
    decay_mult: 0
    breadth_decay_mult: 0
    kernel_shape_decay_mult: 0
  }
  convolution_param {
    num_output: 256
    pad: 1
    kernel_size: 3
    group: 2
    weight_filler {
      type: "gaussian"
      std: 0.01
    }
    bias_filler {
      type: "constant"
      value: 1
    }
  }
}
layer {
  name: "relu5"
  type: "ReLU"
  bottom: "conv5"
  top: "conv5"
}
layer {
  name: "pool5"
  type: "Pooling"
  bottom: "conv5"
  top: "pool5"
  pooling_param {
    pool: MAX
    kernel_size: 3
    stride: 2
  }
}
layer {
  name: "fc6"
  type: "InnerProduct"
  bottom: "pool5"
  top: "fc6"
  param {
    lr_mult: 1
    decay_mult: 1
    breadth_decay_mult: 1
    kernel_shape_decay_mult: 1
  }
  param {
    lr_mult: 2
    decay_mult: 0
    breadth_decay_mult: 0
    kernel_shape_decay_mult: 0
  }
  inner_product_param {
    num_output: 4096
    weight_filler {
      type: "gaussian"
      std: 0.005
    }
    bias_filler {
      type: "constant"
      value: 1
    }
  }
}
layer {
  name: "relu6"
  type: "ReLU"
  bottom: "fc6"
  top: "fc6"
}
layer {
  name: "drop6"
  type: "Dropout"
  bottom: "fc6"
  top: "fc6"
  dropout_param {
    dropout_ratio: 0.5
  }
}
layer {
  name: "fc7"
  type: "InnerProduct"
  bottom: "fc6"
  top: "fc7"
  param {
    lr_mult: 1
    decay_mult: 1
    breadth_decay_mult: 1
    kernel_shape_decay_mult: 1
  }
  param {
    lr_mult: 2
    decay_mult: 0
    breadth_decay_mult: 0
    kernel_shape_decay_mult: 0
  }
  inner_product_param {
    num_output: 4096
    weight_filler {
      type: "gaussian"
      std: 0.005
    }
    bias_filler {
      type: "constant"
      value: 1
    }
  }
}
layer {
  name: "relu7"
  type: "ReLU"
  bottom: "fc7"
  top: "fc7"
}
layer {
  name: "drop7"
  type: "Dropout"
  bottom: "fc7"
  top: "fc7"
  dropout_param {
    dropout_ratio: 0.5
  }
}
layer {
  name: "fc8"
  type: "InnerProduct"
  bottom: "fc7"
  top: "fc8"
  param {
    lr_mult: 1
    decay_mult: 1
    breadth_decay_mult: 0
    kernel_shape_decay_mult: 1
  }
  param {
    lr_mult: 2
    decay_mult: 0
    breadth_decay_mult: 0
    kernel_shape_decay_mult: 0
  }
  inner_product_param {
    num_output: 1000
    weight_filler {
      type: "gaussian"
      std: 0.01
    }
    bias_filler {
      type: "constant"
      value: 0
    }
  }
}
layer {
  name: "accuracy"
  type: "Accuracy"
  bottom: "fc8"
  bottom: "label"
  top: "accuracy"
  include {
    phase: TEST
  }
}
layer {
  name: "loss"
  type: "SoftmaxWithLoss"
  bottom: "fc8"
  bottom: "label"
  top: "loss"
}
I0406 10:16:03.339640  9801 layer_factory.hpp:77] Creating layer data
I0406 10:16:03.339756  9801 net.cpp:93] Creating Layer data
I0406 10:16:03.339774  9801 net.cpp:401] data -> data
I0406 10:16:03.339787  9801 net.cpp:401] data -> label
I0406 10:16:03.339799  9801 data_transformer.cpp:25] Loading mean file from: data/ilsvrc12/imagenet_mean.binaryproto
I0406 10:16:03.352104  9817 db_lmdb.cpp:38] Opened lmdb examples/imagenet/ilsvrc12_val_lmdb
I0406 10:16:03.466459  9801 data_layer.cpp:41] output data size: 50,3,227,227
I0406 10:16:03.537662  9801 net.cpp:143] Setting up data
I0406 10:16:03.537750  9801 net.cpp:150] Top shape: 50 3 227 227 (7729350)
I0406 10:16:03.537765  9801 net.cpp:150] Top shape: 50 (50)
I0406 10:16:03.537775  9801 net.cpp:158] Memory required for data: 30917600
I0406 10:16:03.537791  9801 layer_factory.hpp:77] Creating layer label_data_1_split
I0406 10:16:03.537818  9801 net.cpp:93] Creating Layer label_data_1_split
I0406 10:16:03.537830  9801 net.cpp:427] label_data_1_split <- label
I0406 10:16:03.537865  9801 net.cpp:401] label_data_1_split -> label_data_1_split_0
I0406 10:16:03.537906  9801 net.cpp:401] label_data_1_split -> label_data_1_split_1
I0406 10:16:03.538079  9801 net.cpp:143] Setting up label_data_1_split
I0406 10:16:03.538096  9801 net.cpp:150] Top shape: 50 (50)
I0406 10:16:03.538107  9801 net.cpp:150] Top shape: 50 (50)
I0406 10:16:03.538116  9801 net.cpp:158] Memory required for data: 30918000
I0406 10:16:03.538125  9801 layer_factory.hpp:77] Creating layer conv1
I0406 10:16:03.538159  9801 net.cpp:93] Creating Layer conv1
I0406 10:16:03.538169  9801 net.cpp:427] conv1 <- data
I0406 10:16:03.538187  9801 net.cpp:401] conv1 -> conv1
I0406 10:16:03.592070  9801 net.cpp:143] Setting up conv1
I0406 10:16:03.592138  9801 net.cpp:150] Top shape: 50 96 55 55 (14520000)
I0406 10:16:03.592146  9801 net.cpp:158] Memory required for data: 88998000
I0406 10:16:03.592182  9801 layer_factory.hpp:77] Creating layer relu1
I0406 10:16:03.592205  9801 net.cpp:93] Creating Layer relu1
I0406 10:16:03.592216  9801 net.cpp:427] relu1 <- conv1
I0406 10:16:03.592231  9801 net.cpp:388] relu1 -> conv1 (in-place)
I0406 10:16:03.592574  9801 net.cpp:143] Setting up relu1
I0406 10:16:03.592591  9801 net.cpp:150] Top shape: 50 96 55 55 (14520000)
I0406 10:16:03.592599  9801 net.cpp:158] Memory required for data: 147078000
I0406 10:16:03.592607  9801 layer_factory.hpp:77] Creating layer pool1
I0406 10:16:03.592625  9801 net.cpp:93] Creating Layer pool1
I0406 10:16:03.592633  9801 net.cpp:427] pool1 <- conv1
I0406 10:16:03.592645  9801 net.cpp:401] pool1 -> pool1
I0406 10:16:03.611372  9801 net.cpp:143] Setting up pool1
I0406 10:16:03.611438  9801 net.cpp:150] Top shape: 50 96 27 27 (3499200)
I0406 10:16:03.611448  9801 net.cpp:158] Memory required for data: 161074800
I0406 10:16:03.611460  9801 layer_factory.hpp:77] Creating layer norm1
I0406 10:16:03.611486  9801 net.cpp:93] Creating Layer norm1
I0406 10:16:03.611496  9801 net.cpp:427] norm1 <- pool1
I0406 10:16:03.611515  9801 net.cpp:401] norm1 -> norm1
I0406 10:16:03.630369  9801 net.cpp:143] Setting up norm1
I0406 10:16:03.630444  9801 net.cpp:150] Top shape: 50 96 27 27 (3499200)
I0406 10:16:03.630452  9801 net.cpp:158] Memory required for data: 175071600
I0406 10:16:03.630466  9801 layer_factory.hpp:77] Creating layer conv2
I0406 10:16:03.630520  9801 net.cpp:93] Creating Layer conv2
I0406 10:16:03.630543  9801 net.cpp:427] conv2 <- norm1
I0406 10:16:03.630563  9801 net.cpp:401] conv2 -> conv2
I0406 10:16:03.679054  9801 net.cpp:143] Setting up conv2
I0406 10:16:03.679116  9801 net.cpp:150] Top shape: 50 256 27 27 (9331200)
I0406 10:16:03.679126  9801 net.cpp:158] Memory required for data: 212396400
I0406 10:16:03.679159  9801 layer_factory.hpp:77] Creating layer relu2
I0406 10:16:03.679182  9801 net.cpp:93] Creating Layer relu2
I0406 10:16:03.679191  9801 net.cpp:427] relu2 <- conv2
I0406 10:16:03.679206  9801 net.cpp:388] relu2 -> conv2 (in-place)
I0406 10:16:03.679709  9801 net.cpp:143] Setting up relu2
I0406 10:16:03.679728  9801 net.cpp:150] Top shape: 50 256 27 27 (9331200)
I0406 10:16:03.679735  9801 net.cpp:158] Memory required for data: 249721200
I0406 10:16:03.679744  9801 layer_factory.hpp:77] Creating layer pool2
I0406 10:16:03.679764  9801 net.cpp:93] Creating Layer pool2
I0406 10:16:03.679771  9801 net.cpp:427] pool2 <- conv2
I0406 10:16:03.679783  9801 net.cpp:401] pool2 -> pool2
I0406 10:16:03.690304  9801 net.cpp:143] Setting up pool2
I0406 10:16:03.690368  9801 net.cpp:150] Top shape: 50 256 13 13 (2163200)
I0406 10:16:03.690377  9801 net.cpp:158] Memory required for data: 258374000
I0406 10:16:03.690390  9801 layer_factory.hpp:77] Creating layer norm2
I0406 10:16:03.690418  9801 net.cpp:93] Creating Layer norm2
I0406 10:16:03.690428  9801 net.cpp:427] norm2 <- pool2
I0406 10:16:03.690445  9801 net.cpp:401] norm2 -> norm2
I0406 10:16:03.701668  9801 net.cpp:143] Setting up norm2
I0406 10:16:03.701735  9801 net.cpp:150] Top shape: 50 256 13 13 (2163200)
I0406 10:16:03.701745  9801 net.cpp:158] Memory required for data: 267026800
I0406 10:16:03.701774  9801 layer_factory.hpp:77] Creating layer conv3
I0406 10:16:03.701822  9801 net.cpp:93] Creating Layer conv3
I0406 10:16:03.701835  9801 net.cpp:427] conv3 <- norm2
I0406 10:16:03.701856  9801 net.cpp:401] conv3 -> conv3
I0406 10:16:03.754706  9801 net.cpp:143] Setting up conv3
I0406 10:16:03.754776  9801 net.cpp:150] Top shape: 50 384 13 13 (3244800)
I0406 10:16:03.754786  9801 net.cpp:158] Memory required for data: 280006000
I0406 10:16:03.754823  9801 layer_factory.hpp:77] Creating layer relu3
I0406 10:16:03.754848  9801 net.cpp:93] Creating Layer relu3
I0406 10:16:03.754860  9801 net.cpp:427] relu3 <- conv3
I0406 10:16:03.754878  9801 net.cpp:388] relu3 -> conv3 (in-place)
I0406 10:16:03.755389  9801 net.cpp:143] Setting up relu3
I0406 10:16:03.755406  9801 net.cpp:150] Top shape: 50 384 13 13 (3244800)
I0406 10:16:03.755414  9801 net.cpp:158] Memory required for data: 292985200
I0406 10:16:03.755422  9801 layer_factory.hpp:77] Creating layer conv4
I0406 10:16:03.755450  9801 net.cpp:93] Creating Layer conv4
I0406 10:16:03.755458  9801 net.cpp:427] conv4 <- conv3
I0406 10:16:03.755471  9801 net.cpp:401] conv4 -> conv4
I0406 10:16:03.799633  9801 net.cpp:143] Setting up conv4
I0406 10:16:03.799703  9801 net.cpp:150] Top shape: 50 384 13 13 (3244800)
I0406 10:16:03.799712  9801 net.cpp:158] Memory required for data: 305964400
I0406 10:16:03.799738  9801 layer_factory.hpp:77] Creating layer relu4
I0406 10:16:03.799762  9801 net.cpp:93] Creating Layer relu4
I0406 10:16:03.799774  9801 net.cpp:427] relu4 <- conv4
I0406 10:16:03.799790  9801 net.cpp:388] relu4 -> conv4 (in-place)
I0406 10:16:03.800304  9801 net.cpp:143] Setting up relu4
I0406 10:16:03.800323  9801 net.cpp:150] Top shape: 50 384 13 13 (3244800)
I0406 10:16:03.800330  9801 net.cpp:158] Memory required for data: 318943600
I0406 10:16:03.800339  9801 layer_factory.hpp:77] Creating layer conv5
I0406 10:16:03.800365  9801 net.cpp:93] Creating Layer conv5
I0406 10:16:03.800374  9801 net.cpp:427] conv5 <- conv4
I0406 10:16:03.800387  9801 net.cpp:401] conv5 -> conv5
I0406 10:16:03.830770  9801 net.cpp:143] Setting up conv5
I0406 10:16:03.830843  9801 net.cpp:150] Top shape: 50 256 13 13 (2163200)
I0406 10:16:03.830852  9801 net.cpp:158] Memory required for data: 327596400
I0406 10:16:03.830891  9801 layer_factory.hpp:77] Creating layer relu5
I0406 10:16:03.830915  9801 net.cpp:93] Creating Layer relu5
I0406 10:16:03.830926  9801 net.cpp:427] relu5 <- conv5
I0406 10:16:03.830943  9801 net.cpp:388] relu5 -> conv5 (in-place)
I0406 10:16:03.831445  9801 net.cpp:143] Setting up relu5
I0406 10:16:03.831464  9801 net.cpp:150] Top shape: 50 256 13 13 (2163200)
I0406 10:16:03.831471  9801 net.cpp:158] Memory required for data: 336249200
I0406 10:16:03.831480  9801 layer_factory.hpp:77] Creating layer pool5
I0406 10:16:03.831501  9801 net.cpp:93] Creating Layer pool5
I0406 10:16:03.831508  9801 net.cpp:427] pool5 <- conv5
I0406 10:16:03.831521  9801 net.cpp:401] pool5 -> pool5
I0406 10:16:03.834079  9801 net.cpp:143] Setting up pool5
I0406 10:16:03.834096  9801 net.cpp:150] Top shape: 50 256 6 6 (460800)
I0406 10:16:03.834105  9801 net.cpp:158] Memory required for data: 338092400
I0406 10:16:03.834112  9801 layer_factory.hpp:77] Creating layer fc6
I0406 10:16:03.834131  9801 net.cpp:93] Creating Layer fc6
I0406 10:16:03.834141  9801 net.cpp:427] fc6 <- pool5
I0406 10:16:03.834152  9801 net.cpp:401] fc6 -> fc6
I0406 10:16:05.256737  9801 net.cpp:143] Setting up fc6
I0406 10:16:05.256806  9801 net.cpp:150] Top shape: 50 4096 (204800)
I0406 10:16:05.256815  9801 net.cpp:158] Memory required for data: 338911600
I0406 10:16:05.256839  9801 layer_factory.hpp:77] Creating layer relu6
I0406 10:16:05.256860  9801 net.cpp:93] Creating Layer relu6
I0406 10:16:05.256870  9801 net.cpp:427] relu6 <- fc6
I0406 10:16:05.256882  9801 net.cpp:388] relu6 -> fc6 (in-place)
I0406 10:16:05.257366  9801 net.cpp:143] Setting up relu6
I0406 10:16:05.257383  9801 net.cpp:150] Top shape: 50 4096 (204800)
I0406 10:16:05.257391  9801 net.cpp:158] Memory required for data: 339730800
I0406 10:16:05.257411  9801 layer_factory.hpp:77] Creating layer drop6
I0406 10:16:05.257441  9801 net.cpp:93] Creating Layer drop6
I0406 10:16:05.257448  9801 net.cpp:427] drop6 <- fc6
I0406 10:16:05.257458  9801 net.cpp:388] drop6 -> fc6 (in-place)
I0406 10:16:05.258240  9801 net.cpp:143] Setting up drop6
I0406 10:16:05.258257  9801 net.cpp:150] Top shape: 50 4096 (204800)
I0406 10:16:05.258265  9801 net.cpp:158] Memory required for data: 340550000
I0406 10:16:05.258273  9801 layer_factory.hpp:77] Creating layer fc7
I0406 10:16:05.258290  9801 net.cpp:93] Creating Layer fc7
I0406 10:16:05.258296  9801 net.cpp:427] fc7 <- fc6
I0406 10:16:05.258307  9801 net.cpp:401] fc7 -> fc7
I0406 10:16:05.912616  9801 net.cpp:143] Setting up fc7
I0406 10:16:05.912669  9801 net.cpp:150] Top shape: 50 4096 (204800)
I0406 10:16:05.912678  9801 net.cpp:158] Memory required for data: 341369200
I0406 10:16:05.912696  9801 layer_factory.hpp:77] Creating layer relu7
I0406 10:16:05.912714  9801 net.cpp:93] Creating Layer relu7
I0406 10:16:05.912724  9801 net.cpp:427] relu7 <- fc7
I0406 10:16:05.912740  9801 net.cpp:388] relu7 -> fc7 (in-place)
I0406 10:16:05.913036  9801 net.cpp:143] Setting up relu7
I0406 10:16:05.913051  9801 net.cpp:150] Top shape: 50 4096 (204800)
I0406 10:16:05.913059  9801 net.cpp:158] Memory required for data: 342188400
I0406 10:16:05.913067  9801 layer_factory.hpp:77] Creating layer drop7
I0406 10:16:05.913080  9801 net.cpp:93] Creating Layer drop7
I0406 10:16:05.913087  9801 net.cpp:427] drop7 <- fc7
I0406 10:16:05.913097  9801 net.cpp:388] drop7 -> fc7 (in-place)
I0406 10:16:05.913867  9801 net.cpp:143] Setting up drop7
I0406 10:16:05.913884  9801 net.cpp:150] Top shape: 50 4096 (204800)
I0406 10:16:05.913892  9801 net.cpp:158] Memory required for data: 343007600
I0406 10:16:05.913900  9801 layer_factory.hpp:77] Creating layer fc8
I0406 10:16:05.913914  9801 net.cpp:93] Creating Layer fc8
I0406 10:16:05.913923  9801 net.cpp:427] fc8 <- fc7
I0406 10:16:05.913935  9801 net.cpp:401] fc8 -> fc8
I0406 10:16:06.067472  9801 net.cpp:143] Setting up fc8
I0406 10:16:06.067528  9801 net.cpp:150] Top shape: 50 1000 (50000)
I0406 10:16:06.067535  9801 net.cpp:158] Memory required for data: 343207600
I0406 10:16:06.067551  9801 layer_factory.hpp:77] Creating layer fc8_fc8_0_split
I0406 10:16:06.067571  9801 net.cpp:93] Creating Layer fc8_fc8_0_split
I0406 10:16:06.067581  9801 net.cpp:427] fc8_fc8_0_split <- fc8
I0406 10:16:06.067594  9801 net.cpp:401] fc8_fc8_0_split -> fc8_fc8_0_split_0
I0406 10:16:06.067608  9801 net.cpp:401] fc8_fc8_0_split -> fc8_fc8_0_split_1
I0406 10:16:06.067822  9801 net.cpp:143] Setting up fc8_fc8_0_split
I0406 10:16:06.067836  9801 net.cpp:150] Top shape: 50 1000 (50000)
I0406 10:16:06.067842  9801 net.cpp:150] Top shape: 50 1000 (50000)
I0406 10:16:06.067848  9801 net.cpp:158] Memory required for data: 343607600
I0406 10:16:06.067855  9801 layer_factory.hpp:77] Creating layer accuracy
I0406 10:16:06.067869  9801 net.cpp:93] Creating Layer accuracy
I0406 10:16:06.067876  9801 net.cpp:427] accuracy <- fc8_fc8_0_split_0
I0406 10:16:06.067884  9801 net.cpp:427] accuracy <- label_data_1_split_0
I0406 10:16:06.067895  9801 net.cpp:401] accuracy -> accuracy
…
