…
I0408 13:24:17.521580 17628 net.cpp:315] The NetState phase (0) differed from the phase (1) specified by a rule in layer accuracy
I0408 13:24:17.521767 17628 net.cpp:51] Initializing net from parameters: 
name: "CaffeNet"
state {
  phase: TRAIN
}
layer {
  name: "data"
  type: "Data"
  top: "data"
  top: "label"
  include {
    phase: TRAIN
  }
  transform_param {
    mirror: true
    crop_size: 227
    mean_file: "data/ilsvrc12/imagenet_mean.binaryproto"
  }
  data_param {
    source: "examples/imagenet/ilsvrc12_train_lmdb"
    batch_size: 256
    backend: LMDB
  }
}
layer {
  name: "conv1"
  type: "Convolution"
  bottom: "data"
  top: "conv1"
  param {
    lr_mult: 1
    decay_mult: 1
  }
  param {
    lr_mult: 2
    decay_mult: 0
  }
  connectivity_mode: DISCONNECTED_ELTWISE
  convolution_param {
    num_output: 96
    kernel_size: 11
    stride: 4
    weight_filler {
      type: "gaussian"
      std: 0.01
    }
    bias_filler {
      type: "constant"
      value: 0
    }
  }
}
layer {
  name: "relu1"
  type: "ReLU"
  bottom: "conv1"
  top: "conv1"
}
layer {
  name: "pool1"
  type: "Pooling"
  bottom: "conv1"
  top: "pool1"
  pooling_param {
    pool: MAX
    kernel_size: 3
    stride: 2
  }
}
layer {
  name: "norm1"
  type: "LRN"
  bottom: "pool1"
  top: "norm1"
  lrn_param {
    local_size: 5
    alpha: 0.0001
    beta: 0.75
  }
}
layer {
  name: "conv2"
  type: "Convolution"
  bottom: "norm1"
  top: "conv2"
  param {
    lr_mult: 1
    decay_mult: 1
  }
  param {
    lr_mult: 2
    decay_mult: 0
  }
  connectivity_mode: DISCONNECTED_ELTWISE
  convolution_param {
    num_output: 256
    pad: 2
    kernel_size: 5
    group: 2
    weight_filler {
      type: "gaussian"
      std: 0.01
    }
    bias_filler {
      type: "constant"
      value: 1
    }
  }
}
layer {
  name: "relu2"
  type: "ReLU"
  bottom: "conv2"
  top: "conv2"
}
layer {
  name: "pool2"
  type: "Pooling"
  bottom: "conv2"
  top: "pool2"
  pooling_param {
    pool: MAX
    kernel_size: 3
    stride: 2
  }
}
layer {
  name: "norm2"
  type: "LRN"
  bottom: "pool2"
  top: "norm2"
  lrn_param {
    local_size: 5
    alpha: 0.0001
    beta: 0.75
  }
}
layer {
  name: "conv3"
  type: "Convolution"
  bottom: "norm2"
  top: "conv3"
  param {
    lr_mult: 1
    decay_mult: 1
  }
  param {
    lr_mult: 2
    decay_mult: 0
  }
  connectivity_mode: DISCONNECTED_ELTWISE
  convolution_param {
    num_output: 384
    pad: 1
    kernel_size: 3
    weight_filler {
      type: "gaussian"
      std: 0.01
    }
    bias_filler {
      type: "constant"
      value: 0
    }
  }
}
layer {
  name: "relu3"
  type: "ReLU"
  bottom: "conv3"
  top: "conv3"
}
layer {
  name: "conv4"
  type: "Convolution"
  bottom: "conv3"
  top: "conv4"
  param {
    lr_mult: 1
    decay_mult: 1
  }
  param {
    lr_mult: 2
    decay_mult: 0
  }
  connectivity_mode: DISCONNECTED_ELTWISE
  convolution_param {
    num_output: 384
    pad: 1
    kernel_size: 3
    group: 2
    weight_filler {
      type: "gaussian"
      std: 0.01
    }
    bias_filler {
      type: "constant"
      value: 1
    }
  }
}
layer {
  name: "relu4"
  type: "ReLU"
  bottom: "conv4"
  top: "conv4"
}
layer {
  name: "conv5"
  type: "Convolution"
  bottom: "conv4"
  top: "conv5"
  param {
    lr_mult: 1
    decay_mult: 1
  }
  param {
    lr_mult: 2
    decay_mult: 0
  }
  connectivity_mode: DISCONNECTED_ELTWISE
  convolution_param {
    num_output: 256
    pad: 1
    kernel_size: 3
    group: 2
    weight_filler {
      type: "gaussian"
      std: 0.01
    }
    bias_filler {
      type: "constant"
      value: 1
    }
  }
}
layer {
  name: "relu5"
  type: "ReLU"
  bottom: "conv5"
  top: "conv5"
}
layer {
  name: "pool5"
  type: "Pooling"
  bottom: "conv5"
  top: "pool5"
  pooling_param {
    pool: MAX
    kernel_size: 3
    stride: 2
  }
}
layer {
  name: "fc6"
  type: "InnerProduct"
  bottom: "pool5"
  top: "fc6"
  param {
    lr_mult: 1
    decay_mult: 1
  }
  param {
    lr_mult: 2
    decay_mult: 0
  }
  inner_product_param {
    num_output: 4096
    weight_filler {
      type: "gaussian"
      std: 0.005
    }
    bias_filler {
      type: "constant"
      value: 1
    }
  }
}
layer {
  name: "relu6"
  type: "ReLU"
  bottom: "fc6"
  top: "fc6"
}
layer {
  name: "drop6"
  type: "Dropout"
  bottom: "fc6"
  top: "fc6"
  dropout_param {
    dropout_ratio: 0.5
  }
}
layer {
  name: "fc7"
  type: "InnerProduct"
  bottom: "fc6"
  top: "fc7"
  param {
    lr_mult: 1
    decay_mult: 1
  }
  param {
    lr_mult: 2
    decay_mult: 0
  }
  inner_product_param {
    num_output: 4096
    weight_filler {
      type: "gaussian"
      std: 0.005
    }
    bias_filler {
      type: "constant"
      value: 1
    }
  }
}
layer {
  name: "relu7"
  type: "ReLU"
  bottom: "fc7"
  top: "fc7"
}
layer {
  name: "drop7"
  type: "Dropout"
  bottom: "fc7"
  top: "fc7"
  dropout_param {
    dropout_ratio: 0.5
  }
}
layer {
  name: "fc8"
  type: "InnerProduct"
  bottom: "fc7"
  top: "fc8"
  param {
    lr_mult: 1
    decay_mult: 1
  }
  param {
    lr_mult: 2
    decay_mult: 0
  }
  inner_product_param {
    num_output: 1000
    weight_filler {
      type: "gaussian"
      std: 0.01
    }
    bias_filler {
      type: "constant"
      value: 0
    }
  }
}
layer {
  name: "loss"
  type: "SoftmaxWithLoss"
  bottom: "fc8"
  bottom: "label"
  top: "loss"
}
I0408 13:24:17.521914 17628 layer_factory.hpp:77] Creating layer data
I0408 13:24:17.522642 17628 net.cpp:93] Creating Layer data
I0408 13:24:17.522663 17628 net.cpp:401] data -> data
I0408 13:24:17.522701 17628 net.cpp:401] data -> label
I0408 13:24:17.522721 17628 data_transformer.cpp:25] Loading mean file from: data/ilsvrc12/imagenet_mean.binaryproto
I0408 13:24:17.539898 17633 db_lmdb.cpp:38] Opened lmdb examples/imagenet/ilsvrc12_train_lmdb
I0408 13:24:18.156862 17628 data_layer.cpp:41] output data size: 256,3,227,227
I0408 13:24:18.642622 17628 net.cpp:143] Setting up data
I0408 13:24:18.642688 17628 net.cpp:150] Top shape: 256 3 227 227 (39574272)
I0408 13:24:18.642699 17628 net.cpp:150] Top shape: 256 (256)
I0408 13:24:18.642706 17628 net.cpp:158] Memory required for data: 158298112
I0408 13:24:18.642722 17628 layer_factory.hpp:77] Creating layer conv1
I0408 13:24:18.642765 17628 net.cpp:93] Creating Layer conv1
I0408 13:24:18.642776 17628 net.cpp:427] conv1 <- data
I0408 13:24:18.642796 17628 net.cpp:401] conv1 -> conv1
I0408 13:24:19.218093 17634 blocking_queue.cpp:50] Waiting for data
I0408 13:24:19.223563 17628 net.cpp:143] Setting up conv1
I0408 13:24:19.223613 17628 net.cpp:150] Top shape: 256 96 55 55 (74342400)
I0408 13:24:19.223623 17628 net.cpp:158] Memory required for data: 455667712
I0408 13:24:19.223656 17628 layer_factory.hpp:77] Creating layer relu1
I0408 13:24:19.223677 17628 net.cpp:93] Creating Layer relu1
I0408 13:24:19.223688 17628 net.cpp:427] relu1 <- conv1
I0408 13:24:19.223701 17628 net.cpp:388] relu1 -> conv1 (in-place)
I0408 13:24:19.223927 17628 net.cpp:143] Setting up relu1
I0408 13:24:19.223942 17628 net.cpp:150] Top shape: 256 96 55 55 (74342400)
I0408 13:24:19.223949 17628 net.cpp:158] Memory required for data: 753037312
I0408 13:24:19.223958 17628 layer_factory.hpp:77] Creating layer pool1
I0408 13:24:19.223973 17628 net.cpp:93] Creating Layer pool1
I0408 13:24:19.223994 17628 net.cpp:427] pool1 <- conv1
I0408 13:24:19.224023 17628 net.cpp:401] pool1 -> pool1
I0408 13:24:19.333101 17628 net.cpp:143] Setting up pool1
I0408 13:24:19.333153 17628 net.cpp:150] Top shape: 256 96 27 27 (17915904)
I0408 13:24:19.333163 17628 net.cpp:158] Memory required for data: 824700928
I0408 13:24:19.333175 17628 layer_factory.hpp:77] Creating layer norm1
I0408 13:24:19.333215 17628 net.cpp:93] Creating Layer norm1
I0408 13:24:19.333226 17628 net.cpp:427] norm1 <- pool1
I0408 13:24:19.333241 17628 net.cpp:401] norm1 -> norm1
I0408 13:24:19.472571 17628 net.cpp:143] Setting up norm1
I0408 13:24:19.472635 17628 net.cpp:150] Top shape: 256 96 27 27 (17915904)
I0408 13:24:19.472645 17628 net.cpp:158] Memory required for data: 896364544
I0408 13:24:19.472657 17628 layer_factory.hpp:77] Creating layer conv2
I0408 13:24:19.472684 17628 net.cpp:93] Creating Layer conv2
I0408 13:24:19.472695 17628 net.cpp:427] conv2 <- norm1
I0408 13:24:19.472712 17628 net.cpp:401] conv2 -> conv2
I0408 13:24:19.681223 17628 net.cpp:143] Setting up conv2
I0408 13:24:19.681278 17628 net.cpp:150] Top shape: 256 256 27 27 (47775744)
I0408 13:24:19.681289 17628 net.cpp:158] Memory required for data: 1087467520
I0408 13:24:19.681318 17628 layer_factory.hpp:77] Creating layer relu2
I0408 13:24:19.681337 17628 net.cpp:93] Creating Layer relu2
I0408 13:24:19.681350 17628 net.cpp:427] relu2 <- conv2
I0408 13:24:19.681365 17628 net.cpp:388] relu2 -> conv2 (in-place)
I0408 13:24:19.681615 17628 net.cpp:143] Setting up relu2
I0408 13:24:19.681635 17628 net.cpp:150] Top shape: 256 256 27 27 (47775744)
I0408 13:24:19.681645 17628 net.cpp:158] Memory required for data: 1278570496
I0408 13:24:19.681656 17628 layer_factory.hpp:77] Creating layer pool2
I0408 13:24:19.681673 17628 net.cpp:93] Creating Layer pool2
I0408 13:24:19.681684 17628 net.cpp:427] pool2 <- conv2
I0408 13:24:19.681699 17628 net.cpp:401] pool2 -> pool2
I0408 13:24:19.747643 17628 net.cpp:143] Setting up pool2
I0408 13:24:19.747709 17628 net.cpp:150] Top shape: 256 256 13 13 (11075584)
I0408 13:24:19.747720 17628 net.cpp:158] Memory required for data: 1322872832
I0408 13:24:19.747732 17628 layer_factory.hpp:77] Creating layer norm2
I0408 13:24:19.747766 17628 net.cpp:93] Creating Layer norm2
I0408 13:24:19.747777 17628 net.cpp:427] norm2 <- pool2
I0408 13:24:19.747795 17628 net.cpp:401] norm2 -> norm2
I0408 13:24:19.845744 17628 net.cpp:143] Setting up norm2
I0408 13:24:19.845810 17628 net.cpp:150] Top shape: 256 256 13 13 (11075584)
I0408 13:24:19.845820 17628 net.cpp:158] Memory required for data: 1367175168
I0408 13:24:19.845834 17628 layer_factory.hpp:77] Creating layer conv3
I0408 13:24:19.845870 17628 net.cpp:93] Creating Layer conv3
I0408 13:24:19.845881 17628 net.cpp:427] conv3 <- norm2
I0408 13:24:19.845901 17628 net.cpp:401] conv3 -> conv3
I0408 13:24:19.939399 17628 net.cpp:143] Setting up conv3
I0408 13:24:19.939457 17628 net.cpp:150] Top shape: 256 384 13 13 (16613376)
I0408 13:24:19.939468 17628 net.cpp:158] Memory required for data: 1433628672
I0408 13:24:19.939503 17628 layer_factory.hpp:77] Creating layer relu3
I0408 13:24:19.939528 17628 net.cpp:93] Creating Layer relu3
I0408 13:24:19.939543 17628 net.cpp:427] relu3 <- conv3
I0408 13:24:19.939555 17628 net.cpp:388] relu3 -> conv3 (in-place)
I0408 13:24:19.940037 17628 net.cpp:143] Setting up relu3
I0408 13:24:19.940055 17628 net.cpp:150] Top shape: 256 384 13 13 (16613376)
I0408 13:24:19.940065 17628 net.cpp:158] Memory required for data: 1500082176
I0408 13:24:19.940076 17628 layer_factory.hpp:77] Creating layer conv4
I0408 13:24:19.940106 17628 net.cpp:93] Creating Layer conv4
I0408 13:24:19.940117 17628 net.cpp:427] conv4 <- conv3
I0408 13:24:19.940135 17628 net.cpp:401] conv4 -> conv4
I0408 13:24:20.024732 17628 net.cpp:143] Setting up conv4
I0408 13:24:20.024788 17628 net.cpp:150] Top shape: 256 384 13 13 (16613376)
I0408 13:24:20.024799 17628 net.cpp:158] Memory required for data: 1566535680
I0408 13:24:20.024821 17628 layer_factory.hpp:77] Creating layer relu4
I0408 13:24:20.024855 17628 net.cpp:93] Creating Layer relu4
I0408 13:24:20.024888 17628 net.cpp:427] relu4 <- conv4
I0408 13:24:20.024909 17628 net.cpp:388] relu4 -> conv4 (in-place)
I0408 13:24:20.025188 17628 net.cpp:143] Setting up relu4
I0408 13:24:20.025208 17628 net.cpp:150] Top shape: 256 384 13 13 (16613376)
I0408 13:24:20.025218 17628 net.cpp:158] Memory required for data: 1632989184
I0408 13:24:20.025226 17628 layer_factory.hpp:77] Creating layer conv5
I0408 13:24:20.025254 17628 net.cpp:93] Creating Layer conv5
I0408 13:24:20.025267 17628 net.cpp:427] conv5 <- conv4
I0408 13:24:20.025286 17628 net.cpp:401] conv5 -> conv5
I0408 13:24:20.085518 17628 net.cpp:143] Setting up conv5
I0408 13:24:20.085582 17628 net.cpp:150] Top shape: 256 256 13 13 (11075584)
I0408 13:24:20.085592 17628 net.cpp:158] Memory required for data: 1677291520
I0408 13:24:20.085621 17628 layer_factory.hpp:77] Creating layer relu5
I0408 13:24:20.085640 17628 net.cpp:93] Creating Layer relu5
I0408 13:24:20.085649 17628 net.cpp:427] relu5 <- conv5
I0408 13:24:20.085664 17628 net.cpp:388] relu5 -> conv5 (in-place)
I0408 13:24:20.085923 17628 net.cpp:143] Setting up relu5
I0408 13:24:20.085940 17628 net.cpp:150] Top shape: 256 256 13 13 (11075584)
I0408 13:24:20.085947 17628 net.cpp:158] Memory required for data: 1721593856
I0408 13:24:20.085957 17628 layer_factory.hpp:77] Creating layer pool5
I0408 13:24:20.085969 17628 net.cpp:93] Creating Layer pool5
I0408 13:24:20.085979 17628 net.cpp:427] pool5 <- conv5
I0408 13:24:20.085994 17628 net.cpp:401] pool5 -> pool5
I0408 13:24:20.099665 17628 net.cpp:143] Setting up pool5
I0408 13:24:20.099723 17628 net.cpp:150] Top shape: 256 256 6 6 (2359296)
I0408 13:24:20.099730 17628 net.cpp:158] Memory required for data: 1731031040
I0408 13:24:20.099742 17628 layer_factory.hpp:77] Creating layer fc6
I0408 13:24:20.099771 17628 net.cpp:93] Creating Layer fc6
I0408 13:24:20.099782 17628 net.cpp:427] fc6 <- pool5
I0408 13:24:20.099808 17628 net.cpp:401] fc6 -> fc6
I0408 13:24:21.614573 17628 net.cpp:143] Setting up fc6
I0408 13:24:21.614636 17628 net.cpp:150] Top shape: 256 4096 (1048576)
I0408 13:24:21.614646 17628 net.cpp:158] Memory required for data: 1735225344
I0408 13:24:21.614670 17628 layer_factory.hpp:77] Creating layer relu6
I0408 13:24:21.614693 17628 net.cpp:93] Creating Layer relu6
I0408 13:24:21.614706 17628 net.cpp:427] relu6 <- fc6
I0408 13:24:21.614720 17628 net.cpp:388] relu6 -> fc6 (in-place)
I0408 13:24:21.615231 17628 net.cpp:143] Setting up relu6
I0408 13:24:21.615248 17628 net.cpp:150] Top shape: 256 4096 (1048576)
I0408 13:24:21.615255 17628 net.cpp:158] Memory required for data: 1739419648
I0408 13:24:21.615265 17628 layer_factory.hpp:77] Creating layer drop6
I0408 13:24:21.615279 17628 net.cpp:93] Creating Layer drop6
I0408 13:24:21.615288 17628 net.cpp:427] drop6 <- fc6
I0408 13:24:21.615298 17628 net.cpp:388] drop6 -> fc6 (in-place)
I0408 13:24:21.617746 17628 net.cpp:143] Setting up drop6
I0408 13:24:21.617768 17628 net.cpp:150] Top shape: 256 4096 (1048576)
I0408 13:24:21.617776 17628 net.cpp:158] Memory required for data: 1743613952
I0408 13:24:21.617785 17628 layer_factory.hpp:77] Creating layer fc7
I0408 13:24:21.617804 17628 net.cpp:93] Creating Layer fc7
I0408 13:24:21.617813 17628 net.cpp:427] fc7 <- fc6
I0408 13:24:21.617825 17628 net.cpp:401] fc7 -> fc7
I0408 13:24:22.261096 17628 net.cpp:143] Setting up fc7
I0408 13:24:22.261157 17628 net.cpp:150] Top shape: 256 4096 (1048576)
I0408 13:24:22.261168 17628 net.cpp:158] Memory required for data: 1747808256
I0408 13:24:22.261200 17628 layer_factory.hpp:77] Creating layer relu7
I0408 13:24:22.261219 17628 net.cpp:93] Creating Layer relu7
I0408 13:24:22.261237 17628 net.cpp:427] relu7 <- fc7
I0408 13:24:22.261251 17628 net.cpp:388] relu7 -> fc7 (in-place)
I0408 13:24:22.261518 17628 net.cpp:143] Setting up relu7
I0408 13:24:22.261533 17628 net.cpp:150] Top shape: 256 4096 (1048576)
I0408 13:24:22.261541 17628 net.cpp:158] Memory required for data: 1752002560
I0408 13:24:22.261550 17628 layer_factory.hpp:77] Creating layer drop7
I0408 13:24:22.261572 17628 net.cpp:93] Creating Layer drop7
I0408 13:24:22.261603 17628 net.cpp:427] drop7 <- fc7
I0408 13:24:22.261615 17628 net.cpp:388] drop7 -> fc7 (in-place)
I0408 13:24:22.264325 17628 net.cpp:143] Setting up drop7
I0408 13:24:22.264348 17628 net.cpp:150] Top shape: 256 4096 (1048576)
I0408 13:24:22.264356 17628 net.cpp:158] Memory required for data: 1756196864
I0408 13:24:22.264367 17628 layer_factory.hpp:77] Creating layer fc8
I0408 13:24:22.264384 17628 net.cpp:93] Creating Layer fc8
I0408 13:24:22.264394 17628 net.cpp:427] fc8 <- fc7
I0408 13:24:22.264406 17628 net.cpp:401] fc8 -> fc8
I0408 13:24:22.411531 17628 net.cpp:143] Setting up fc8
I0408 13:24:22.411586 17628 net.cpp:150] Top shape: 256 1000 (256000)
I0408 13:24:22.411593 17628 net.cpp:158] Memory required for data: 1757220864
I0408 13:24:22.411612 17628 layer_factory.hpp:77] Creating layer loss
I0408 13:24:22.411630 17628 net.cpp:93] Creating Layer loss
I0408 13:24:22.411639 17628 net.cpp:427] loss <- fc8
I0408 13:24:22.411651 17628 net.cpp:427] loss <- label
I0408 13:24:22.411665 17628 net.cpp:401] loss -> loss
I0408 13:24:22.411689 17628 layer_factory.hpp:77] Creating layer loss
…
I0408 13:24:22.414865 17628 net.cpp:315] The NetState phase (1) differed from the phase (0) specified by a rule in layer data
I0408 13:24:22.415058 17628 net.cpp:51] Initializing net from parameters: 
name: "CaffeNet"
state {
  phase: TEST
}
layer {
  name: "data"
  type: "Data"
  top: "data"
  top: "label"
  include {
    phase: TEST
  }
  transform_param {
    mirror: false
    crop_size: 227
    mean_file: "data/ilsvrc12/imagenet_mean.binaryproto"
  }
  data_param {
    source: "examples/imagenet/ilsvrc12_val_lmdb"
    batch_size: 50
    backend: LMDB
  }
}
layer {
  name: "conv1"
  type: "Convolution"
  bottom: "data"
  top: "conv1"
  param {
    lr_mult: 1
    decay_mult: 1
  }
  param {
    lr_mult: 2
    decay_mult: 0
  }
  connectivity_mode: DISCONNECTED_ELTWISE
  convolution_param {
    num_output: 96
    kernel_size: 11
    stride: 4
    weight_filler {
      type: "gaussian"
      std: 0.01
    }
    bias_filler {
      type: "constant"
      value: 0
    }
  }
}
layer {
  name: "relu1"
  type: "ReLU"
  bottom: "conv1"
  top: "conv1"
}
layer {
  name: "pool1"
  type: "Pooling"
  bottom: "conv1"
  top: "pool1"
  pooling_param {
    pool: MAX
    kernel_size: 3
    stride: 2
  }
}
layer {
  name: "norm1"
  type: "LRN"
  bottom: "pool1"
  top: "norm1"
  lrn_param {
    local_size: 5
    alpha: 0.0001
    beta: 0.75
  }
}
layer {
  name: "conv2"
  type: "Convolution"
  bottom: "norm1"
  top: "conv2"
  param {
    lr_mult: 1
    decay_mult: 1
  }
  param {
    lr_mult: 2
    decay_mult: 0
  }
  connectivity_mode: DISCONNECTED_ELTWISE
  convolution_param {
    num_output: 256
    pad: 2
    kernel_size: 5
    group: 2
    weight_filler {
      type: "gaussian"
      std: 0.01
    }
    bias_filler {
      type: "constant"
      value: 1
    }
  }
}
layer {
  name: "relu2"
  type: "ReLU"
  bottom: "conv2"
  top: "conv2"
}
layer {
  name: "pool2"
  type: "Pooling"
  bottom: "conv2"
  top: "pool2"
  pooling_param {
    pool: MAX
    kernel_size: 3
    stride: 2
  }
}
layer {
  name: "norm2"
  type: "LRN"
  bottom: "pool2"
  top: "norm2"
  lrn_param {
    local_size: 5
    alpha: 0.0001
    beta: 0.75
  }
}
layer {
  name: "conv3"
  type: "Convolution"
  bottom: "norm2"
  top: "conv3"
  param {
    lr_mult: 1
    decay_mult: 1
  }
  param {
    lr_mult: 2
    decay_mult: 0
  }
  connectivity_mode: DISCONNECTED_ELTWISE
  convolution_param {
    num_output: 384
    pad: 1
    kernel_size: 3
    weight_filler {
      type: "gaussian"
      std: 0.01
    }
    bias_filler {
      type: "constant"
      value: 0
    }
  }
}
layer {
  name: "relu3"
  type: "ReLU"
  bottom: "conv3"
  top: "conv3"
}
layer {
  name: "conv4"
  type: "Convolution"
  bottom: "conv3"
  top: "conv4"
  param {
    lr_mult: 1
    decay_mult: 1
  }
  param {
    lr_mult: 2
    decay_mult: 0
  }
  connectivity_mode: DISCONNECTED_ELTWISE
  convolution_param {
    num_output: 384
    pad: 1
    kernel_size: 3
    group: 2
    weight_filler {
      type: "gaussian"
      std: 0.01
    }
    bias_filler {
      type: "constant"
      value: 1
    }
  }
}
layer {
  name: "relu4"
  type: "ReLU"
  bottom: "conv4"
  top: "conv4"
}
layer {
  name: "conv5"
  type: "Convolution"
  bottom: "conv4"
  top: "conv5"
  param {
    lr_mult: 1
    decay_mult: 1
  }
  param {
    lr_mult: 2
    decay_mult: 0
  }
  connectivity_mode: DISCONNECTED_ELTWISE
  convolution_param {
    num_output: 256
    pad: 1
    kernel_size: 3
    group: 2
    weight_filler {
      type: "gaussian"
      std: 0.01
    }
    bias_filler {
      type: "constant"
      value: 1
    }
  }
}
layer {
  name: "relu5"
  type: "ReLU"
  bottom: "conv5"
  top: "conv5"
}
layer {
  name: "pool5"
  type: "Pooling"
  bottom: "conv5"
  top: "pool5"
  pooling_param {
    pool: MAX
    kernel_size: 3
    stride: 2
  }
}
layer {
  name: "fc6"
  type: "InnerProduct"
  bottom: "pool5"
  top: "fc6"
  param {
    lr_mult: 1
    decay_mult: 1
  }
  param {
    lr_mult: 2
    decay_mult: 0
  }
  inner_product_param {
    num_output: 4096
    weight_filler {
      type: "gaussian"
      std: 0.005
    }
    bias_filler {
      type: "constant"
      value: 1
    }
  }
}
layer {
  name: "relu6"
  type: "ReLU"
  bottom: "fc6"
  top: "fc6"
}
layer {
  name: "drop6"
  type: "Dropout"
  bottom: "fc6"
  top: "fc6"
  dropout_param {
    dropout_ratio: 0.5
  }
}
layer {
  name: "fc7"
  type: "InnerProduct"
  bottom: "fc6"
  top: "fc7"
  param {
    lr_mult: 1
    decay_mult: 1
  }
  param {
    lr_mult: 2
    decay_mult: 0
  }
  inner_product_param {
    num_output: 4096
    weight_filler {
      type: "gaussian"
      std: 0.005
    }
    bias_filler {
      type: "constant"
      value: 1
    }
  }
}
layer {
  name: "relu7"
  type: "ReLU"
  bottom: "fc7"
  top: "fc7"
}
layer {
  name: "drop7"
  type: "Dropout"
  bottom: "fc7"
  top: "fc7"
  dropout_param {
    dropout_ratio: 0.5
  }
}
layer {
  name: "fc8"
  type: "InnerProduct"
  bottom: "fc7"
  top: "fc8"
  param {
    lr_mult: 1
    decay_mult: 1
  }
  param {
    lr_mult: 2
    decay_mult: 0
  }
  inner_product_param {
    num_output: 1000
    weight_filler {
      type: "gaussian"
      std: 0.01
    }
    bias_filler {
      type: "constant"
      value: 0
    }
  }
}
layer {
  name: "accuracy"
  type: "Accuracy"
  bottom: "fc8"
  bottom: "label"
  top: "accuracy"
  include {
    phase: TEST
  }
}
layer {
  name: "loss"
  type: "SoftmaxWithLoss"
  bottom: "fc8"
  bottom: "label"
  top: "loss"
}
I0408 13:24:22.415215 17628 layer_factory.hpp:77] Creating layer data
I0408 13:24:22.415887 17628 net.cpp:93] Creating Layer data
I0408 13:24:22.415912 17628 net.cpp:401] data -> data
I0408 13:24:22.415928 17628 net.cpp:401] data -> label
I0408 13:24:22.415942 17628 data_transformer.cpp:25] Loading mean file from: data/ilsvrc12/imagenet_mean.binaryproto
I0408 13:24:22.417281 17636 db_lmdb.cpp:38] Opened lmdb examples/imagenet/ilsvrc12_val_lmdb
I0408 13:24:22.552680 17628 data_layer.cpp:41] output data size: 50,3,227,227
I0408 13:24:22.683598 17628 net.cpp:143] Setting up data
I0408 13:24:22.683658 17628 net.cpp:150] Top shape: 50 3 227 227 (7729350)
I0408 13:24:22.683671 17628 net.cpp:150] Top shape: 50 (50)
I0408 13:24:22.683679 17628 net.cpp:158] Memory required for data: 30917600
I0408 13:24:22.683692 17628 layer_factory.hpp:77] Creating layer label_data_1_split
I0408 13:24:22.683712 17628 net.cpp:93] Creating Layer label_data_1_split
I0408 13:24:22.683722 17628 net.cpp:427] label_data_1_split <- label
I0408 13:24:22.683735 17628 net.cpp:401] label_data_1_split -> label_data_1_split_0
I0408 13:24:22.683753 17628 net.cpp:401] label_data_1_split -> label_data_1_split_1
I0408 13:24:22.683881 17628 net.cpp:143] Setting up label_data_1_split
I0408 13:24:22.683897 17628 net.cpp:150] Top shape: 50 (50)
I0408 13:24:22.683904 17628 net.cpp:150] Top shape: 50 (50)
I0408 13:24:22.683912 17628 net.cpp:158] Memory required for data: 30918000
I0408 13:24:22.683922 17628 layer_factory.hpp:77] Creating layer conv1
I0408 13:24:22.683943 17628 net.cpp:93] Creating Layer conv1
I0408 13:24:22.683951 17628 net.cpp:427] conv1 <- data
I0408 13:24:22.683964 17628 net.cpp:401] conv1 -> conv1
I0408 13:24:22.773010 17628 net.cpp:143] Setting up conv1
I0408 13:24:22.773072 17628 net.cpp:150] Top shape: 50 96 55 55 (14520000)
I0408 13:24:22.773082 17628 net.cpp:158] Memory required for data: 88998000
I0408 13:24:22.773109 17628 layer_factory.hpp:77] Creating layer relu1
I0408 13:24:22.773128 17628 net.cpp:93] Creating Layer relu1
I0408 13:24:22.773138 17628 net.cpp:427] relu1 <- conv1
I0408 13:24:22.773149 17628 net.cpp:388] relu1 -> conv1 (in-place)
I0408 13:24:22.773406 17628 net.cpp:143] Setting up relu1
I0408 13:24:22.773422 17628 net.cpp:150] Top shape: 50 96 55 55 (14520000)
I0408 13:24:22.773429 17628 net.cpp:158] Memory required for data: 147078000
I0408 13:24:22.773437 17628 layer_factory.hpp:77] Creating layer pool1
I0408 13:24:22.773452 17628 net.cpp:93] Creating Layer pool1
I0408 13:24:22.773461 17628 net.cpp:427] pool1 <- conv1
I0408 13:24:22.773473 17628 net.cpp:401] pool1 -> pool1
I0408 13:24:22.793882 17628 net.cpp:143] Setting up pool1
I0408 13:24:22.793946 17628 net.cpp:150] Top shape: 50 96 27 27 (3499200)
I0408 13:24:22.793956 17628 net.cpp:158] Memory required for data: 161074800
I0408 13:24:22.793968 17628 layer_factory.hpp:77] Creating layer norm1
I0408 13:24:22.793992 17628 net.cpp:93] Creating Layer norm1
I0408 13:24:22.794001 17628 net.cpp:427] norm1 <- pool1
I0408 13:24:22.794018 17628 net.cpp:401] norm1 -> norm1
I0408 13:24:22.818418 17628 net.cpp:143] Setting up norm1
I0408 13:24:22.818483 17628 net.cpp:150] Top shape: 50 96 27 27 (3499200)
I0408 13:24:22.818513 17628 net.cpp:158] Memory required for data: 175071600
I0408 13:24:22.818526 17628 layer_factory.hpp:77] Creating layer conv2
I0408 13:24:22.818572 17628 net.cpp:93] Creating Layer conv2
I0408 13:24:22.818595 17628 net.cpp:427] conv2 <- norm1
I0408 13:24:22.818614 17628 net.cpp:401] conv2 -> conv2
I0408 13:24:22.895637 17628 net.cpp:143] Setting up conv2
I0408 13:24:22.895697 17628 net.cpp:150] Top shape: 50 256 27 27 (9331200)
I0408 13:24:22.895707 17628 net.cpp:158] Memory required for data: 212396400
I0408 13:24:22.895735 17628 layer_factory.hpp:77] Creating layer relu2
I0408 13:24:22.895755 17628 net.cpp:93] Creating Layer relu2
I0408 13:24:22.895763 17628 net.cpp:427] relu2 <- conv2
I0408 13:24:22.895778 17628 net.cpp:388] relu2 -> conv2 (in-place)
I0408 13:24:22.896226 17628 net.cpp:143] Setting up relu2
I0408 13:24:22.896244 17628 net.cpp:150] Top shape: 50 256 27 27 (9331200)
I0408 13:24:22.896251 17628 net.cpp:158] Memory required for data: 249721200
I0408 13:24:22.896260 17628 layer_factory.hpp:77] Creating layer pool2
I0408 13:24:22.896276 17628 net.cpp:93] Creating Layer pool2
I0408 13:24:22.896286 17628 net.cpp:427] pool2 <- conv2
I0408 13:24:22.896296 17628 net.cpp:401] pool2 -> pool2
I0408 13:24:22.909123 17628 net.cpp:143] Setting up pool2
I0408 13:24:22.909179 17628 net.cpp:150] Top shape: 50 256 13 13 (2163200)
I0408 13:24:22.909189 17628 net.cpp:158] Memory required for data: 258374000
I0408 13:24:22.909199 17628 layer_factory.hpp:77] Creating layer norm2
I0408 13:24:22.909219 17628 net.cpp:93] Creating Layer norm2
I0408 13:24:22.909230 17628 net.cpp:427] norm2 <- pool2
I0408 13:24:22.909246 17628 net.cpp:401] norm2 -> norm2
I0408 13:24:22.922726 17628 net.cpp:143] Setting up norm2
I0408 13:24:22.922785 17628 net.cpp:150] Top shape: 50 256 13 13 (2163200)
I0408 13:24:22.922793 17628 net.cpp:158] Memory required for data: 267026800
I0408 13:24:22.922806 17628 layer_factory.hpp:77] Creating layer conv3
I0408 13:24:22.922832 17628 net.cpp:93] Creating Layer conv3
I0408 13:24:22.922840 17628 net.cpp:427] conv3 <- norm2
I0408 13:24:22.922857 17628 net.cpp:401] conv3 -> conv3
I0408 13:24:22.973318 17628 net.cpp:143] Setting up conv3
I0408 13:24:22.973377 17628 net.cpp:150] Top shape: 50 384 13 13 (3244800)
I0408 13:24:22.973387 17628 net.cpp:158] Memory required for data: 280006000
I0408 13:24:22.973412 17628 layer_factory.hpp:77] Creating layer relu3
I0408 13:24:22.973431 17628 net.cpp:93] Creating Layer relu3
I0408 13:24:22.973440 17628 net.cpp:427] relu3 <- conv3
I0408 13:24:22.973454 17628 net.cpp:388] relu3 -> conv3 (in-place)
I0408 13:24:22.973892 17628 net.cpp:143] Setting up relu3
I0408 13:24:22.973909 17628 net.cpp:150] Top shape: 50 384 13 13 (3244800)
I0408 13:24:22.973917 17628 net.cpp:158] Memory required for data: 292985200
I0408 13:24:22.973925 17628 layer_factory.hpp:77] Creating layer conv4
I0408 13:24:22.973947 17628 net.cpp:93] Creating Layer conv4
I0408 13:24:22.973954 17628 net.cpp:427] conv4 <- conv3
I0408 13:24:22.973968 17628 net.cpp:401] conv4 -> conv4
I0408 13:24:23.016491 17628 net.cpp:143] Setting up conv4
I0408 13:24:23.016556 17628 net.cpp:150] Top shape: 50 384 13 13 (3244800)
I0408 13:24:23.016568 17628 net.cpp:158] Memory required for data: 305964400
I0408 13:24:23.016592 17628 layer_factory.hpp:77] Creating layer relu4
I0408 13:24:23.016618 17628 net.cpp:93] Creating Layer relu4
I0408 13:24:23.016629 17628 net.cpp:427] relu4 <- conv4
I0408 13:24:23.016649 17628 net.cpp:388] relu4 -> conv4 (in-place)
I0408 13:24:23.017163 17628 net.cpp:143] Setting up relu4
I0408 13:24:23.017182 17628 net.cpp:150] Top shape: 50 384 13 13 (3244800)
I0408 13:24:23.017192 17628 net.cpp:158] Memory required for data: 318943600
I0408 13:24:23.017200 17628 layer_factory.hpp:77] Creating layer conv5
I0408 13:24:23.017225 17628 net.cpp:93] Creating Layer conv5
I0408 13:24:23.017235 17628 net.cpp:427] conv5 <- conv4
I0408 13:24:23.017251 17628 net.cpp:401] conv5 -> conv5
I0408 13:24:23.048344 17628 net.cpp:143] Setting up conv5
I0408 13:24:23.048399 17628 net.cpp:150] Top shape: 50 256 13 13 (2163200)
I0408 13:24:23.048410 17628 net.cpp:158] Memory required for data: 327596400
I0408 13:24:23.048454 17628 layer_factory.hpp:77] Creating layer relu5
I0408 13:24:23.048493 17628 net.cpp:93] Creating Layer relu5
I0408 13:24:23.048508 17628 net.cpp:427] relu5 <- conv5
I0408 13:24:23.048527 17628 net.cpp:388] relu5 -> conv5 (in-place)
I0408 13:24:23.048997 17628 net.cpp:143] Setting up relu5
I0408 13:24:23.049015 17628 net.cpp:150] Top shape: 50 256 13 13 (2163200)
I0408 13:24:23.049026 17628 net.cpp:158] Memory required for data: 336249200
I0408 13:24:23.049037 17628 layer_factory.hpp:77] Creating layer pool5
I0408 13:24:23.049057 17628 net.cpp:93] Creating Layer pool5
I0408 13:24:23.049067 17628 net.cpp:427] pool5 <- conv5
I0408 13:24:23.049080 17628 net.cpp:401] pool5 -> pool5
I0408 13:24:23.052021 17628 net.cpp:143] Setting up pool5
I0408 13:24:23.052044 17628 net.cpp:150] Top shape: 50 256 6 6 (460800)
I0408 13:24:23.052054 17628 net.cpp:158] Memory required for data: 338092400
I0408 13:24:23.052064 17628 layer_factory.hpp:77] Creating layer fc6
I0408 13:24:23.052083 17628 net.cpp:93] Creating Layer fc6
I0408 13:24:23.052093 17628 net.cpp:427] fc6 <- pool5
I0408 13:24:23.052108 17628 net.cpp:401] fc6 -> fc6
I0408 13:24:24.511505 17628 net.cpp:143] Setting up fc6
I0408 13:24:24.511567 17628 net.cpp:150] Top shape: 50 4096 (204800)
I0408 13:24:24.511577 17628 net.cpp:158] Memory required for data: 338911600
I0408 13:24:24.511597 17628 layer_factory.hpp:77] Creating layer relu6
I0408 13:24:24.511616 17628 net.cpp:93] Creating Layer relu6
I0408 13:24:24.511628 17628 net.cpp:427] relu6 <- fc6
I0408 13:24:24.511643 17628 net.cpp:388] relu6 -> fc6 (in-place)
I0408 13:24:24.512219 17628 net.cpp:143] Setting up relu6
I0408 13:24:24.512236 17628 net.cpp:150] Top shape: 50 4096 (204800)
I0408 13:24:24.512245 17628 net.cpp:158] Memory required for data: 339730800
I0408 13:24:24.512253 17628 layer_factory.hpp:77] Creating layer drop6
I0408 13:24:24.512269 17628 net.cpp:93] Creating Layer drop6
I0408 13:24:24.512279 17628 net.cpp:427] drop6 <- fc6
I0408 13:24:24.512290 17628 net.cpp:388] drop6 -> fc6 (in-place)
I0408 13:24:24.513110 17628 net.cpp:143] Setting up drop6
I0408 13:24:24.513128 17628 net.cpp:150] Top shape: 50 4096 (204800)
I0408 13:24:24.513139 17628 net.cpp:158] Memory required for data: 340550000
I0408 13:24:24.513146 17628 layer_factory.hpp:77] Creating layer fc7
I0408 13:24:24.513164 17628 net.cpp:93] Creating Layer fc7
I0408 13:24:24.513171 17628 net.cpp:427] fc7 <- fc6
I0408 13:24:24.513185 17628 net.cpp:401] fc7 -> fc7
I0408 13:24:25.157742 17628 net.cpp:143] Setting up fc7
I0408 13:24:25.157800 17628 net.cpp:150] Top shape: 50 4096 (204800)
I0408 13:24:25.157809 17628 net.cpp:158] Memory required for data: 341369200
I0408 13:24:25.157827 17628 layer_factory.hpp:77] Creating layer relu7
I0408 13:24:25.157846 17628 net.cpp:93] Creating Layer relu7
I0408 13:24:25.157856 17628 net.cpp:427] relu7 <- fc7
I0408 13:24:25.157871 17628 net.cpp:388] relu7 -> fc7 (in-place)
I0408 13:24:25.158140 17628 net.cpp:143] Setting up relu7
I0408 13:24:25.158156 17628 net.cpp:150] Top shape: 50 4096 (204800)
I0408 13:24:25.158165 17628 net.cpp:158] Memory required for data: 342188400
I0408 13:24:25.158174 17628 layer_factory.hpp:77] Creating layer drop7
I0408 13:24:25.158186 17628 net.cpp:93] Creating Layer drop7
I0408 13:24:25.158195 17628 net.cpp:427] drop7 <- fc7
I0408 13:24:25.158208 17628 net.cpp:388] drop7 -> fc7 (in-place)
I0408 13:24:25.159039 17628 net.cpp:143] Setting up drop7
I0408 13:24:25.159056 17628 net.cpp:150] Top shape: 50 4096 (204800)
I0408 13:24:25.159065 17628 net.cpp:158] Memory required for data: 343007600
I0408 13:24:25.159073 17628 layer_factory.hpp:77] Creating layer fc8
I0408 13:24:25.159090 17628 net.cpp:93] Creating Layer fc8
I0408 13:24:25.159098 17628 net.cpp:427] fc8 <- fc7
I0408 13:24:25.159111 17628 net.cpp:401] fc8 -> fc8
I0408 13:24:25.305203 17628 net.cpp:143] Setting up fc8
I0408 13:24:25.305263 17628 net.cpp:150] Top shape: 50 1000 (50000)
I0408 13:24:25.305274 17628 net.cpp:158] Memory required for data: 343207600
I0408 13:24:25.305294 17628 layer_factory.hpp:77] Creating layer fc8_fc8_0_split
I0408 13:24:25.305330 17628 net.cpp:93] Creating Layer fc8_fc8_0_split
I0408 13:24:25.305357 17628 net.cpp:427] fc8_fc8_0_split <- fc8
I0408 13:24:25.305372 17628 net.cpp:401] fc8_fc8_0_split -> fc8_fc8_0_split_0
I0408 13:24:25.305387 17628 net.cpp:401] fc8_fc8_0_split -> fc8_fc8_0_split_1
I0408 13:24:25.305603 17628 net.cpp:143] Setting up fc8_fc8_0_split
I0408 13:24:25.305618 17628 net.cpp:150] Top shape: 50 1000 (50000)
I0408 13:24:25.305625 17628 net.cpp:150] Top shape: 50 1000 (50000)
I0408 13:24:25.305634 17628 net.cpp:158] Memory required for data: 343607600
I0408 13:24:25.305641 17628 layer_factory.hpp:77] Creating layer accuracy
I0408 13:24:25.305655 17628 net.cpp:93] Creating Layer accuracy
I0408 13:24:25.305665 17628 net.cpp:427] accuracy <- fc8_fc8_0_split_0
I0408 13:24:25.305673 17628 net.cpp:427] accuracy <- label_data_1_split_0
I0408 13:24:25.305685 17628 net.cpp:401] accuracy -> accuracy
…
