…
I0316 15:21:45.301126 24744 net.cpp:315] The NetState phase (0) differed from the phase (1) specified by a rule in layer cifar
I0316 15:21:45.301153 24744 net.cpp:315] The NetState phase (0) differed from the phase (1) specified by a rule in layer accuracy
I0316 15:21:45.301311 24744 net.cpp:51] Initializing net from parameters: 
name: "CIFAR10_full"
state {
  phase: TRAIN
}
layer {
  name: "cifar"
  type: "Data"
  top: "data"
  top: "label"
  include {
    phase: TRAIN
  }
  transform_param {
    mean_file: "examples/cifar10/mean.binaryproto"
  }
  data_param {
    source: "examples/cifar10/cifar10_train_lmdb"
    batch_size: 100
    backend: LMDB
  }
}
layer {
  name: "conv1"
  type: "Convolution"
  bottom: "data"
  top: "conv1"
  param {
    lr_mult: 1
    decay_mult: 0
    breadth_decay_mult: 1
    kernel_shape_decay_mult: 0.2
  }
  param {
    lr_mult: 2
    decay_mult: 0
    breadth_decay_mult: 0
    kernel_shape_decay_mult: 0
  }
  convolution_param {
    num_output: 32
    pad: 2
    kernel_size: 5
    stride: 1
    weight_filler {
      type: "gaussian"
      std: 0.0001
    }
    bias_filler {
      type: "constant"
    }
  }
}
layer {
  name: "pool1"
  type: "Pooling"
  bottom: "conv1"
  top: "pool1"
  pooling_param {
    pool: MAX
    kernel_size: 3
    stride: 2
  }
}
layer {
  name: "relu1"
  type: "ReLU"
  bottom: "pool1"
  top: "pool1"
}
layer {
  name: "norm1"
  type: "LRN"
  bottom: "pool1"
  top: "norm1"
  lrn_param {
    local_size: 3
    alpha: 5e-05
    beta: 0.75
    norm_region: WITHIN_CHANNEL
  }
}
layer {
  name: "conv2"
  type: "Convolution"
  bottom: "norm1"
  top: "conv2"
  param {
    lr_mult: 1
    decay_mult: 0
    breadth_decay_mult: 1
    kernel_shape_decay_mult: 1
  }
  param {
    lr_mult: 2
    decay_mult: 0
    breadth_decay_mult: 0
    kernel_shape_decay_mult: 0
  }
  convolution_param {
    num_output: 32
    pad: 2
    kernel_size: 5
    stride: 1
    weight_filler {
      type: "gaussian"
      std: 0.01
    }
    bias_filler {
      type: "constant"
    }
  }
}
layer {
  name: "relu2"
  type: "ReLU"
  bottom: "conv2"
  top: "conv2"
}
layer {
  name: "pool2"
  type: "Pooling"
  bottom: "conv2"
  top: "pool2"
  pooling_param {
    pool: AVE
    kernel_size: 3
    stride: 2
  }
}
layer {
  name: "norm2"
  type: "LRN"
  bottom: "pool2"
  top: "norm2"
  lrn_param {
    local_size: 3
    alpha: 5e-05
    beta: 0.75
    norm_region: WITHIN_CHANNEL
  }
}
layer {
  name: "conv3"
  type: "Convolution"
  bottom: "norm2"
  top: "conv3"
  param {
    lr_mult: 1
    decay_mult: 0
    breadth_decay_mult: 0.1
    kernel_shape_decay_mult: 1
  }
  param {
    lr_mult: 1
    decay_mult: 0
    breadth_decay_mult: 0
    kernel_shape_decay_mult: 0
  }
  convolution_param {
    num_output: 64
    pad: 2
    kernel_size: 5
    stride: 1
    weight_filler {
      type: "gaussian"
      std: 0.01
    }
    bias_filler {
      type: "constant"
    }
  }
}
layer {
  name: "relu3"
  type: "ReLU"
  bottom: "conv3"
  top: "conv3"
}
layer {
  name: "pool3"
  type: "Pooling"
  bottom: "conv3"
  top: "pool3"
  pooling_param {
    pool: AVE
    kernel_size: 3
    stride: 2
  }
}
layer {
  name: "ip1"
  type: "InnerProduct"
  bottom: "pool3"
  top: "ip1"
  param {
    lr_mult: 1
    decay_mult: 0
    breadth_decay_mult: 1
    kernel_shape_decay_mult: 1
  }
  param {
    lr_mult: 2
    decay_mult: 0
    breadth_decay_mult: 0
    kernel_shape_decay_mult: 0
  }
  inner_product_param {
    num_output: 10
    weight_filler {
      type: "gaussian"
      std: 0.01
    }
    bias_filler {
      type: "constant"
    }
  }
}
layer {
  name: "loss"
  type: "SoftmaxWithLoss"
  bottom: "ip1"
  bottom: "label"
  top: "loss"
}
I0316 15:21:45.301451 24744 layer_factory.hpp:77] Creating layer cifar
I0316 15:21:45.302136 24744 net.cpp:93] Creating Layer cifar
I0316 15:21:45.302170 24744 net.cpp:401] cifar -> data
I0316 15:21:45.302216 24744 net.cpp:401] cifar -> label
I0316 15:21:45.302244 24744 data_transformer.cpp:25] Loading mean file from: examples/cifar10/mean.binaryproto
I0316 15:21:45.303460 24749 db_lmdb.cpp:38] Opened lmdb examples/cifar10/cifar10_train_lmdb
I0316 15:21:45.340180 24744 data_layer.cpp:41] output data size: 100,3,32,32
I0316 15:21:45.347785 24744 net.cpp:143] Setting up cifar
I0316 15:21:45.347821 24744 net.cpp:150] Top shape: 100 3 32 32 (307200)
I0316 15:21:45.347833 24744 net.cpp:150] Top shape: 100 (100)
I0316 15:21:45.347841 24744 net.cpp:158] Memory required for data: 1229200
I0316 15:21:45.347859 24744 layer_factory.hpp:77] Creating layer conv1
I0316 15:21:45.347903 24744 net.cpp:93] Creating Layer conv1
I0316 15:21:45.347916 24744 net.cpp:427] conv1 <- data
I0316 15:21:45.347940 24744 net.cpp:401] conv1 -> conv1
I0316 15:21:45.574373 24744 net.cpp:143] Setting up conv1
I0316 15:21:45.574445 24744 net.cpp:150] Top shape: 100 32 32 32 (3276800)
I0316 15:21:45.574456 24744 net.cpp:158] Memory required for data: 14336400
I0316 15:21:45.574492 24744 layer_factory.hpp:77] Creating layer pool1
I0316 15:21:45.574522 24744 net.cpp:93] Creating Layer pool1
I0316 15:21:45.574532 24744 net.cpp:427] pool1 <- conv1
I0316 15:21:45.574545 24744 net.cpp:401] pool1 -> pool1
I0316 15:21:45.579011 24744 net.cpp:143] Setting up pool1
I0316 15:21:45.579037 24744 net.cpp:150] Top shape: 100 32 16 16 (819200)
I0316 15:21:45.579046 24744 net.cpp:158] Memory required for data: 17613200
I0316 15:21:45.579056 24744 layer_factory.hpp:77] Creating layer relu1
I0316 15:21:45.579071 24744 net.cpp:93] Creating Layer relu1
I0316 15:21:45.579078 24744 net.cpp:427] relu1 <- pool1
I0316 15:21:45.579090 24744 net.cpp:388] relu1 -> pool1 (in-place)
I0316 15:21:45.579357 24744 net.cpp:143] Setting up relu1
I0316 15:21:45.579375 24744 net.cpp:150] Top shape: 100 32 16 16 (819200)
I0316 15:21:45.579382 24744 net.cpp:158] Memory required for data: 20890000
I0316 15:21:45.579391 24744 layer_factory.hpp:77] Creating layer norm1
I0316 15:21:45.579413 24744 net.cpp:93] Creating Layer norm1
I0316 15:21:45.579422 24744 net.cpp:427] norm1 <- pool1
I0316 15:21:45.579434 24744 net.cpp:401] norm1 -> norm1
I0316 15:21:45.593627 24744 net.cpp:143] Setting up norm1
I0316 15:21:45.593689 24744 net.cpp:150] Top shape: 100 32 16 16 (819200)
I0316 15:21:45.593700 24744 net.cpp:158] Memory required for data: 24166800
I0316 15:21:45.593711 24744 layer_factory.hpp:77] Creating layer conv2
I0316 15:21:45.593739 24744 net.cpp:93] Creating Layer conv2
I0316 15:21:45.593750 24744 net.cpp:427] conv2 <- norm1
I0316 15:21:45.593766 24744 net.cpp:401] conv2 -> conv2
I0316 15:21:45.599908 24744 net.cpp:143] Setting up conv2
I0316 15:21:45.599934 24744 net.cpp:150] Top shape: 100 32 16 16 (819200)
I0316 15:21:45.599943 24744 net.cpp:158] Memory required for data: 27443600
I0316 15:21:45.599966 24744 layer_factory.hpp:77] Creating layer relu2
I0316 15:21:45.599982 24744 net.cpp:93] Creating Layer relu2
I0316 15:21:45.599992 24744 net.cpp:427] relu2 <- conv2
I0316 15:21:45.600004 24744 net.cpp:388] relu2 -> conv2 (in-place)
I0316 15:21:45.600224 24744 net.cpp:143] Setting up relu2
I0316 15:21:45.600240 24744 net.cpp:150] Top shape: 100 32 16 16 (819200)
I0316 15:21:45.600250 24744 net.cpp:158] Memory required for data: 30720400
I0316 15:21:45.600257 24744 layer_factory.hpp:77] Creating layer pool2
I0316 15:21:45.600271 24744 net.cpp:93] Creating Layer pool2
I0316 15:21:45.600280 24744 net.cpp:427] pool2 <- conv2
I0316 15:21:45.600308 24744 net.cpp:401] pool2 -> pool2
I0316 15:21:45.601639 24744 net.cpp:143] Setting up pool2
I0316 15:21:45.601660 24744 net.cpp:150] Top shape: 100 32 8 8 (204800)
I0316 15:21:45.601668 24744 net.cpp:158] Memory required for data: 31539600
I0316 15:21:45.601676 24744 layer_factory.hpp:77] Creating layer norm2
I0316 15:21:45.601698 24744 net.cpp:93] Creating Layer norm2
I0316 15:21:45.601708 24744 net.cpp:427] norm2 <- pool2
I0316 15:21:45.601721 24744 net.cpp:401] norm2 -> norm2
I0316 15:21:45.607184 24744 net.cpp:143] Setting up norm2
I0316 15:21:45.607215 24744 net.cpp:150] Top shape: 100 32 8 8 (204800)
I0316 15:21:45.607224 24744 net.cpp:158] Memory required for data: 32358800
I0316 15:21:45.607234 24744 layer_factory.hpp:77] Creating layer conv3
I0316 15:21:45.607260 24744 net.cpp:93] Creating Layer conv3
I0316 15:21:45.607270 24744 net.cpp:427] conv3 <- norm2
I0316 15:21:45.607285 24744 net.cpp:401] conv3 -> conv3
I0316 15:21:45.612651 24744 net.cpp:143] Setting up conv3
I0316 15:21:45.612679 24744 net.cpp:150] Top shape: 100 64 8 8 (409600)
I0316 15:21:45.612689 24744 net.cpp:158] Memory required for data: 33997200
I0316 15:21:45.612707 24744 layer_factory.hpp:77] Creating layer relu3
I0316 15:21:45.612720 24744 net.cpp:93] Creating Layer relu3
I0316 15:21:45.612728 24744 net.cpp:427] relu3 <- conv3
I0316 15:21:45.612740 24744 net.cpp:388] relu3 -> conv3 (in-place)
I0316 15:21:45.613108 24744 net.cpp:143] Setting up relu3
I0316 15:21:45.613126 24744 net.cpp:150] Top shape: 100 64 8 8 (409600)
I0316 15:21:45.613134 24744 net.cpp:158] Memory required for data: 35635600
I0316 15:21:45.613143 24744 layer_factory.hpp:77] Creating layer pool3
I0316 15:21:45.613155 24744 net.cpp:93] Creating Layer pool3
I0316 15:21:45.613163 24744 net.cpp:427] pool3 <- conv3
I0316 15:21:45.613180 24744 net.cpp:401] pool3 -> pool3
I0316 15:21:45.613513 24744 net.cpp:143] Setting up pool3
I0316 15:21:45.613531 24744 net.cpp:150] Top shape: 100 64 4 4 (102400)
I0316 15:21:45.613541 24744 net.cpp:158] Memory required for data: 36045200
I0316 15:21:45.613550 24744 layer_factory.hpp:77] Creating layer ip1
I0316 15:21:45.613567 24744 net.cpp:93] Creating Layer ip1
I0316 15:21:45.613576 24744 net.cpp:427] ip1 <- pool3
I0316 15:21:45.613587 24744 net.cpp:401] ip1 -> ip1
I0316 15:21:45.614811 24744 net.cpp:143] Setting up ip1
I0316 15:21:45.614831 24744 net.cpp:150] Top shape: 100 10 (1000)
I0316 15:21:45.614840 24744 net.cpp:158] Memory required for data: 36049200
I0316 15:21:45.614852 24744 layer_factory.hpp:77] Creating layer loss
I0316 15:21:45.614866 24744 net.cpp:93] Creating Layer loss
I0316 15:21:45.614873 24744 net.cpp:427] loss <- ip1
I0316 15:21:45.614883 24744 net.cpp:427] loss <- label
I0316 15:21:45.614898 24744 net.cpp:401] loss -> loss
I0316 15:21:45.614918 24744 layer_factory.hpp:77] Creating layer loss
…
I0316 15:21:45.616184 24744 solver.cpp:183] Creating test net (#0) specified by net file: examples/cifar10/cifar10_full_train_test.prototxt
I0316 15:21:45.616228 24744 net.cpp:315] The NetState phase (1) differed from the phase (0) specified by a rule in layer cifar
I0316 15:21:45.616402 24744 net.cpp:51] Initializing net from parameters: 
name: "CIFAR10_full"
state {
  phase: TEST
}
layer {
  name: "cifar"
  type: "Data"
  top: "data"
  top: "label"
  include {
    phase: TEST
  }
  transform_param {
    mean_file: "examples/cifar10/mean.binaryproto"
  }
  data_param {
    source: "examples/cifar10/cifar10_test_lmdb"
    batch_size: 100
    backend: LMDB
  }
}
layer {
  name: "conv1"
  type: "Convolution"
  bottom: "data"
  top: "conv1"
  param {
    lr_mult: 1
    decay_mult: 0
    breadth_decay_mult: 1
    kernel_shape_decay_mult: 0.2
  }
  param {
    lr_mult: 2
    decay_mult: 0
    breadth_decay_mult: 0
    kernel_shape_decay_mult: 0
  }
  convolution_param {
    num_output: 32
    pad: 2
    kernel_size: 5
    stride: 1
    weight_filler {
      type: "gaussian"
      std: 0.0001
    }
    bias_filler {
      type: "constant"
    }
  }
}
layer {
  name: "pool1"
  type: "Pooling"
  bottom: "conv1"
  top: "pool1"
  pooling_param {
    pool: MAX
    kernel_size: 3
    stride: 2
  }
}
layer {
  name: "relu1"
  type: "ReLU"
  bottom: "pool1"
  top: "pool1"
}
layer {
  name: "norm1"
  type: "LRN"
  bottom: "pool1"
  top: "norm1"
  lrn_param {
    local_size: 3
    alpha: 5e-05
    beta: 0.75
    norm_region: WITHIN_CHANNEL
  }
}
layer {
  name: "conv2"
  type: "Convolution"
  bottom: "norm1"
  top: "conv2"
  param {
    lr_mult: 1
    decay_mult: 0
    breadth_decay_mult: 1
    kernel_shape_decay_mult: 1
  }
  param {
    lr_mult: 2
    decay_mult: 0
    breadth_decay_mult: 0
    kernel_shape_decay_mult: 0
  }
  convolution_param {
    num_output: 32
    pad: 2
    kernel_size: 5
    stride: 1
    weight_filler {
      type: "gaussian"
      std: 0.01
    }
    bias_filler {
      type: "constant"
    }
  }
}
layer {
  name: "relu2"
  type: "ReLU"
  bottom: "conv2"
  top: "conv2"
}
layer {
  name: "pool2"
  type: "Pooling"
  bottom: "conv2"
  top: "pool2"
  pooling_param {
    pool: AVE
    kernel_size: 3
    stride: 2
  }
}
layer {
  name: "norm2"
  type: "LRN"
  bottom: "pool2"
  top: "norm2"
  lrn_param {
    local_size: 3
    alpha: 5e-05
    beta: 0.75
    norm_region: WITHIN_CHANNEL
  }
}
layer {
  name: "conv3"
  type: "Convolution"
  bottom: "norm2"
  top: "conv3"
  param {
    lr_mult: 1
    decay_mult: 0
    breadth_decay_mult: 0.1
    kernel_shape_decay_mult: 1
  }
  param {
    lr_mult: 1
    decay_mult: 0
    breadth_decay_mult: 0
    kernel_shape_decay_mult: 0
  }
  convolution_param {
    num_output: 64
    pad: 2
    kernel_size: 5
    stride: 1
    weight_filler {
      type: "gaussian"
      std: 0.01
    }
    bias_filler {
      type: "constant"
    }
  }
}
layer {
  name: "relu3"
  type: "ReLU"
  bottom: "conv3"
  top: "conv3"
}
layer {
  name: "pool3"
  type: "Pooling"
  bottom: "conv3"
  top: "pool3"
  pooling_param {
    pool: AVE
    kernel_size: 3
    stride: 2
  }
}
layer {
  name: "ip1"
  type: "InnerProduct"
  bottom: "pool3"
  top: "ip1"
  param {
    lr_mult: 1
    decay_mult: 0
    breadth_decay_mult: 1
    kernel_shape_decay_mult: 1
  }
  param {
    lr_mult: 2
    decay_mult: 0
    breadth_decay_mult: 0
    kernel_shape_decay_mult: 0
  }
  inner_product_param {
    num_output: 10
    weight_filler {
      type: "gaussian"
      std: 0.01
    }
    bias_filler {
      type: "constant"
    }
  }
}
layer {
  name: "accuracy"
  type: "Accuracy"
  bottom: "ip1"
  bottom: "label"
  top: "accuracy"
  include {
    phase: TEST
  }
}
layer {
  name: "loss"
  type: "SoftmaxWithLoss"
  bottom: "ip1"
  bottom: "label"
  top: "loss"
}
I0316 15:21:45.616508 24744 layer_factory.hpp:77] Creating layer cifar
I0316 15:21:45.616675 24744 net.cpp:93] Creating Layer cifar
I0316 15:21:45.616705 24744 net.cpp:401] cifar -> data
I0316 15:21:45.616722 24744 net.cpp:401] cifar -> label
I0316 15:21:45.616737 24744 data_transformer.cpp:25] Loading mean file from: examples/cifar10/mean.binaryproto
I0316 15:21:45.617946 24751 db_lmdb.cpp:38] Opened lmdb examples/cifar10/cifar10_test_lmdb
I0316 15:21:45.622040 24744 data_layer.cpp:41] output data size: 100,3,32,32
I0316 15:21:45.628705 24744 net.cpp:143] Setting up cifar
I0316 15:21:45.628736 24744 net.cpp:150] Top shape: 100 3 32 32 (307200)
I0316 15:21:45.628747 24744 net.cpp:150] Top shape: 100 (100)
I0316 15:21:45.628756 24744 net.cpp:158] Memory required for data: 1229200
I0316 15:21:45.628768 24744 layer_factory.hpp:77] Creating layer label_cifar_1_split
I0316 15:21:45.628788 24744 net.cpp:93] Creating Layer label_cifar_1_split
I0316 15:21:45.628798 24744 net.cpp:427] label_cifar_1_split <- label
I0316 15:21:45.628810 24744 net.cpp:401] label_cifar_1_split -> label_cifar_1_split_0
I0316 15:21:45.628829 24744 net.cpp:401] label_cifar_1_split -> label_cifar_1_split_1
I0316 15:21:45.628936 24744 net.cpp:143] Setting up label_cifar_1_split
I0316 15:21:45.628950 24744 net.cpp:150] Top shape: 100 (100)
I0316 15:21:45.628960 24744 net.cpp:150] Top shape: 100 (100)
I0316 15:21:45.628969 24744 net.cpp:158] Memory required for data: 1230000
I0316 15:21:45.628978 24744 layer_factory.hpp:77] Creating layer conv1
I0316 15:21:45.629009 24744 net.cpp:93] Creating Layer conv1
I0316 15:21:45.629019 24744 net.cpp:427] conv1 <- data
I0316 15:21:45.629032 24744 net.cpp:401] conv1 -> conv1
I0316 15:21:45.641257 24744 net.cpp:143] Setting up conv1
I0316 15:21:45.641309 24744 net.cpp:150] Top shape: 100 32 32 32 (3276800)
I0316 15:21:45.641319 24744 net.cpp:158] Memory required for data: 14337200
I0316 15:21:45.641346 24744 layer_factory.hpp:77] Creating layer pool1
I0316 15:21:45.641372 24744 net.cpp:93] Creating Layer pool1
I0316 15:21:45.641383 24744 net.cpp:427] pool1 <- conv1
I0316 15:21:45.641396 24744 net.cpp:401] pool1 -> pool1
I0316 15:21:45.646185 24744 net.cpp:143] Setting up pool1
I0316 15:21:45.646214 24744 net.cpp:150] Top shape: 100 32 16 16 (819200)
I0316 15:21:45.646224 24744 net.cpp:158] Memory required for data: 17614000
I0316 15:21:45.646232 24744 layer_factory.hpp:77] Creating layer relu1
I0316 15:21:45.646248 24744 net.cpp:93] Creating Layer relu1
I0316 15:21:45.646260 24744 net.cpp:427] relu1 <- pool1
I0316 15:21:45.646270 24744 net.cpp:388] relu1 -> pool1 (in-place)
I0316 15:21:45.646546 24744 net.cpp:143] Setting up relu1
I0316 15:21:45.646563 24744 net.cpp:150] Top shape: 100 32 16 16 (819200)
I0316 15:21:45.646570 24744 net.cpp:158] Memory required for data: 20890800
I0316 15:21:45.646579 24744 layer_factory.hpp:77] Creating layer norm1
I0316 15:21:45.646596 24744 net.cpp:93] Creating Layer norm1
I0316 15:21:45.646605 24744 net.cpp:427] norm1 <- pool1
I0316 15:21:45.646615 24744 net.cpp:401] norm1 -> norm1
I0316 15:21:45.661051 24744 net.cpp:143] Setting up norm1
I0316 15:21:45.661104 24744 net.cpp:150] Top shape: 100 32 16 16 (819200)
I0316 15:21:45.661114 24744 net.cpp:158] Memory required for data: 24167600
I0316 15:21:45.661125 24744 layer_factory.hpp:77] Creating layer conv2
I0316 15:21:45.661155 24744 net.cpp:93] Creating Layer conv2
I0316 15:21:45.661167 24744 net.cpp:427] conv2 <- norm1
I0316 15:21:45.661186 24744 net.cpp:401] conv2 -> conv2
I0316 15:21:45.667971 24744 net.cpp:143] Setting up conv2
I0316 15:21:45.668002 24744 net.cpp:150] Top shape: 100 32 16 16 (819200)
I0316 15:21:45.668011 24744 net.cpp:158] Memory required for data: 27444400
I0316 15:21:45.668038 24744 layer_factory.hpp:77] Creating layer relu2
I0316 15:21:45.668052 24744 net.cpp:93] Creating Layer relu2
I0316 15:21:45.668061 24744 net.cpp:427] relu2 <- conv2
I0316 15:21:45.668076 24744 net.cpp:388] relu2 -> conv2 (in-place)
I0316 15:21:45.668445 24744 net.cpp:143] Setting up relu2
I0316 15:21:45.668463 24744 net.cpp:150] Top shape: 100 32 16 16 (819200)
I0316 15:21:45.668473 24744 net.cpp:158] Memory required for data: 30721200
I0316 15:21:45.668509 24744 layer_factory.hpp:77] Creating layer pool2
I0316 15:21:45.668529 24744 net.cpp:93] Creating Layer pool2
I0316 15:21:45.668539 24744 net.cpp:427] pool2 <- conv2
I0316 15:21:45.668548 24744 net.cpp:401] pool2 -> pool2
I0316 15:21:45.670238 24744 net.cpp:143] Setting up pool2
I0316 15:21:45.670263 24744 net.cpp:150] Top shape: 100 32 8 8 (204800)
I0316 15:21:45.670271 24744 net.cpp:158] Memory required for data: 31540400
I0316 15:21:45.670279 24744 layer_factory.hpp:77] Creating layer norm2
I0316 15:21:45.670295 24744 net.cpp:93] Creating Layer norm2
I0316 15:21:45.670305 24744 net.cpp:427] norm2 <- pool2
I0316 15:21:45.670322 24744 net.cpp:401] norm2 -> norm2
I0316 15:21:45.676100 24744 net.cpp:143] Setting up norm2
I0316 15:21:45.676129 24744 net.cpp:150] Top shape: 100 32 8 8 (204800)
I0316 15:21:45.676138 24744 net.cpp:158] Memory required for data: 32359600
I0316 15:21:45.676147 24744 layer_factory.hpp:77] Creating layer conv3
I0316 15:21:45.676174 24744 net.cpp:93] Creating Layer conv3
I0316 15:21:45.676185 24744 net.cpp:427] conv3 <- norm2
I0316 15:21:45.676198 24744 net.cpp:401] conv3 -> conv3
I0316 15:21:45.683619 24744 net.cpp:143] Setting up conv3
I0316 15:21:45.683651 24744 net.cpp:150] Top shape: 100 64 8 8 (409600)
I0316 15:21:45.683660 24744 net.cpp:158] Memory required for data: 33998000
I0316 15:21:45.683684 24744 layer_factory.hpp:77] Creating layer relu3
I0316 15:21:45.683701 24744 net.cpp:93] Creating Layer relu3
I0316 15:21:45.683712 24744 net.cpp:427] relu3 <- conv3
I0316 15:21:45.683724 24744 net.cpp:388] relu3 -> conv3 (in-place)
I0316 15:21:45.683954 24744 net.cpp:143] Setting up relu3
I0316 15:21:45.683970 24744 net.cpp:150] Top shape: 100 64 8 8 (409600)
I0316 15:21:45.683979 24744 net.cpp:158] Memory required for data: 35636400
I0316 15:21:45.683989 24744 layer_factory.hpp:77] Creating layer pool3
I0316 15:21:45.684005 24744 net.cpp:93] Creating Layer pool3
I0316 15:21:45.684015 24744 net.cpp:427] pool3 <- conv3
I0316 15:21:45.684028 24744 net.cpp:401] pool3 -> pool3
I0316 15:21:45.685151 24744 net.cpp:143] Setting up pool3
I0316 15:21:45.685170 24744 net.cpp:150] Top shape: 100 64 4 4 (102400)
I0316 15:21:45.685179 24744 net.cpp:158] Memory required for data: 36046000
I0316 15:21:45.685189 24744 layer_factory.hpp:77] Creating layer ip1
I0316 15:21:45.685206 24744 net.cpp:93] Creating Layer ip1
I0316 15:21:45.685214 24744 net.cpp:427] ip1 <- pool3
I0316 15:21:45.685226 24744 net.cpp:401] ip1 -> ip1
I0316 15:21:45.685823 24744 net.cpp:143] Setting up ip1
I0316 15:21:45.685863 24744 net.cpp:150] Top shape: 100 10 (1000)
I0316 15:21:45.685873 24744 net.cpp:158] Memory required for data: 36050000
I0316 15:21:45.685884 24744 layer_factory.hpp:77] Creating layer ip1_ip1_0_split
I0316 15:21:45.685896 24744 net.cpp:93] Creating Layer ip1_ip1_0_split
I0316 15:21:45.685904 24744 net.cpp:427] ip1_ip1_0_split <- ip1
I0316 15:21:45.685917 24744 net.cpp:401] ip1_ip1_0_split -> ip1_ip1_0_split_0
I0316 15:21:45.685930 24744 net.cpp:401] ip1_ip1_0_split -> ip1_ip1_0_split_1
I0316 15:21:45.686030 24744 net.cpp:143] Setting up ip1_ip1_0_split
I0316 15:21:45.686044 24744 net.cpp:150] Top shape: 100 10 (1000)
I0316 15:21:45.686054 24744 net.cpp:150] Top shape: 100 10 (1000)
I0316 15:21:45.686063 24744 net.cpp:158] Memory required for data: 36058000
I0316 15:21:45.686070 24744 layer_factory.hpp:77] Creating layer accuracy
I0316 15:21:45.686082 24744 net.cpp:93] Creating Layer accuracy
I0316 15:21:45.686090 24744 net.cpp:427] accuracy <- ip1_ip1_0_split_0
I0316 15:21:45.686100 24744 net.cpp:427] accuracy <- label_cifar_1_split_0
I0316 15:21:45.686110 24744 net.cpp:401] accuracy -> accuracy
…
