…
I0317 22:13:21.621050 13623 net.cpp:315] The NetState phase (0) differed from the phase (1) specified by a rule in layer cifar
I0317 22:13:21.621079 13623 net.cpp:315] The NetState phase (0) differed from the phase (1) specified by a rule in layer accuracy
I0317 22:13:21.621259 13623 net.cpp:51] Initializing net from parameters: 
name: "CIFAR10_full"
state {
  phase: TRAIN
}
layer {
  name: "cifar"
  type: "Data"
  top: "data"
  top: "label"
  include {
    phase: TRAIN
  }
  transform_param {
    mean_file: "examples/cifar10/mean.binaryproto"
  }
  data_param {
    source: "examples/cifar10/cifar10_train_lmdb"
    batch_size: 100
    backend: LMDB
  }
}
layer {
  name: "conv1"
  type: "Convolution"
  bottom: "data"
  top: "conv1"
  param {
    lr_mult: 1
    decay_mult: 1
    breadth_decay_mult: 1
    kernel_shape_decay_mult: 0.2
  }
  param {
    lr_mult: 2
    decay_mult: 1
    breadth_decay_mult: 0
    kernel_shape_decay_mult: 0
  }
  connectivity_mode: DISCONNECTED_GRPWISE
  convolution_param {
    num_output: 32
    pad: 2
    kernel_size: 5
    stride: 1
    weight_filler {
      type: "gaussian"
      std: 0.0001
    }
    bias_filler {
      type: "constant"
    }
  }
}
layer {
  name: "pool1"
  type: "Pooling"
  bottom: "conv1"
  top: "pool1"
  pooling_param {
    pool: MAX
    kernel_size: 3
    stride: 2
  }
}
layer {
  name: "relu1"
  type: "ReLU"
  bottom: "pool1"
  top: "pool1"
}
layer {
  name: "norm1"
  type: "LRN"
  bottom: "pool1"
  top: "norm1"
  lrn_param {
    local_size: 3
    alpha: 5e-05
    beta: 0.75
    norm_region: WITHIN_CHANNEL
  }
}
layer {
  name: "conv2"
  type: "Convolution"
  bottom: "norm1"
  top: "conv2"
  param {
    lr_mult: 1
    decay_mult: 1
    breadth_decay_mult: 1
    kernel_shape_decay_mult: 1
  }
  param {
    lr_mult: 2
    decay_mult: 1
    breadth_decay_mult: 0
    kernel_shape_decay_mult: 0
  }
  connectivity_mode: DISCONNECTED_GRPWISE
  convolution_param {
    num_output: 32
    pad: 2
    kernel_size: 5
    stride: 1
    weight_filler {
      type: "gaussian"
      std: 0.01
    }
    bias_filler {
      type: "constant"
    }
  }
}
layer {
  name: "relu2"
  type: "ReLU"
  bottom: "conv2"
  top: "conv2"
}
layer {
  name: "pool2"
  type: "Pooling"
  bottom: "conv2"
  top: "pool2"
  pooling_param {
    pool: AVE
    kernel_size: 3
    stride: 2
  }
}
layer {
  name: "norm2"
  type: "LRN"
  bottom: "pool2"
  top: "norm2"
  lrn_param {
    local_size: 3
    alpha: 5e-05
    beta: 0.75
    norm_region: WITHIN_CHANNEL
  }
}
layer {
  name: "conv3"
  type: "Convolution"
  bottom: "norm2"
  top: "conv3"
  param {
    lr_mult: 1
    decay_mult: 1
    breadth_decay_mult: 0.1
    kernel_shape_decay_mult: 1
  }
  param {
    lr_mult: 1
    decay_mult: 1
    breadth_decay_mult: 0
    kernel_shape_decay_mult: 0
  }
  connectivity_mode: DISCONNECTED_GRPWISE
  convolution_param {
    num_output: 64
    pad: 2
    kernel_size: 5
    stride: 1
    weight_filler {
      type: "gaussian"
      std: 0.01
    }
    bias_filler {
      type: "constant"
    }
  }
}
layer {
  name: "relu3"
  type: "ReLU"
  bottom: "conv3"
  top: "conv3"
}
layer {
  name: "pool3"
  type: "Pooling"
  bottom: "conv3"
  top: "pool3"
  pooling_param {
    pool: AVE
    kernel_size: 3
    stride: 2
  }
}
layer {
  name: "ip1"
  type: "InnerProduct"
  bottom: "pool3"
  top: "ip1"
  param {
    lr_mult: 1
    decay_mult: 1
    breadth_decay_mult: 1
    kernel_shape_decay_mult: 1
  }
  param {
    lr_mult: 2
    decay_mult: 1
    breadth_decay_mult: 0
    kernel_shape_decay_mult: 0
  }
  connectivity_mode: DISCONNECTED_GRPWISE
  inner_product_param {
    num_output: 10
    weight_filler {
      type: "gaussian"
      std: 0.01
    }
    bias_filler {
      type: "constant"
    }
  }
}
layer {
  name: "drop1"
  type: "Dropout"
  bottom: "ip1"
  top: "ip1"
  dropout_param {
    dropout_ratio: 0.5
  }
}
layer {
  name: "loss"
  type: "SoftmaxWithLoss"
  bottom: "ip1"
  bottom: "label"
  top: "loss"
}
I0317 22:13:21.621417 13623 layer_factory.hpp:77] Creating layer cifar
I0317 22:13:21.622092 13623 net.cpp:93] Creating Layer cifar
I0317 22:13:21.622151 13623 net.cpp:401] cifar -> data
I0317 22:13:21.622210 13623 net.cpp:401] cifar -> label
I0317 22:13:21.622244 13623 data_transformer.cpp:25] Loading mean file from: examples/cifar10/mean.binaryproto
I0317 22:13:21.625658 13629 db_lmdb.cpp:38] Opened lmdb examples/cifar10/cifar10_train_lmdb
I0317 22:13:21.641160 13623 data_layer.cpp:41] output data size: 100,3,32,32
I0317 22:13:21.645231 13623 net.cpp:143] Setting up cifar
I0317 22:13:21.645268 13623 net.cpp:150] Top shape: 100 3 32 32 (307200)
I0317 22:13:21.645282 13623 net.cpp:150] Top shape: 100 (100)
I0317 22:13:21.645292 13623 net.cpp:158] Memory required for data: 1229200
I0317 22:13:21.645310 13623 layer_factory.hpp:77] Creating layer conv1
I0317 22:13:21.645351 13623 net.cpp:93] Creating Layer conv1
I0317 22:13:21.645364 13623 net.cpp:427] conv1 <- data
I0317 22:13:21.645390 13623 net.cpp:401] conv1 -> conv1
I0317 22:13:21.823681 13623 net.cpp:143] Setting up conv1
I0317 22:13:21.823766 13623 net.cpp:150] Top shape: 100 32 32 32 (3276800)
I0317 22:13:21.823781 13623 net.cpp:158] Memory required for data: 14336400
I0317 22:13:21.823820 13623 layer_factory.hpp:77] Creating layer pool1
I0317 22:13:21.823853 13623 net.cpp:93] Creating Layer pool1
I0317 22:13:21.823866 13623 net.cpp:427] pool1 <- conv1
I0317 22:13:21.823889 13623 net.cpp:401] pool1 -> pool1
I0317 22:13:21.828685 13623 net.cpp:143] Setting up pool1
I0317 22:13:21.828711 13623 net.cpp:150] Top shape: 100 32 16 16 (819200)
I0317 22:13:21.828719 13623 net.cpp:158] Memory required for data: 17613200
I0317 22:13:21.828729 13623 layer_factory.hpp:77] Creating layer relu1
I0317 22:13:21.828743 13623 net.cpp:93] Creating Layer relu1
I0317 22:13:21.828752 13623 net.cpp:427] relu1 <- pool1
I0317 22:13:21.828765 13623 net.cpp:388] relu1 -> pool1 (in-place)
I0317 22:13:21.829059 13623 net.cpp:143] Setting up relu1
I0317 22:13:21.829077 13623 net.cpp:150] Top shape: 100 32 16 16 (819200)
I0317 22:13:21.829085 13623 net.cpp:158] Memory required for data: 20890000
I0317 22:13:21.829094 13623 layer_factory.hpp:77] Creating layer norm1
I0317 22:13:21.829124 13623 net.cpp:93] Creating Layer norm1
I0317 22:13:21.829134 13623 net.cpp:427] norm1 <- pool1
I0317 22:13:21.829145 13623 net.cpp:401] norm1 -> norm1
I0317 22:13:21.844184 13623 net.cpp:143] Setting up norm1
I0317 22:13:21.844266 13623 net.cpp:150] Top shape: 100 32 16 16 (819200)
I0317 22:13:21.844277 13623 net.cpp:158] Memory required for data: 24166800
I0317 22:13:21.844290 13623 layer_factory.hpp:77] Creating layer conv2
I0317 22:13:21.844319 13623 net.cpp:93] Creating Layer conv2
I0317 22:13:21.844331 13623 net.cpp:427] conv2 <- norm1
I0317 22:13:21.844349 13623 net.cpp:401] conv2 -> conv2
I0317 22:13:21.850666 13623 net.cpp:143] Setting up conv2
I0317 22:13:21.850690 13623 net.cpp:150] Top shape: 100 32 16 16 (819200)
I0317 22:13:21.850699 13623 net.cpp:158] Memory required for data: 27443600
I0317 22:13:21.850724 13623 layer_factory.hpp:77] Creating layer relu2
I0317 22:13:21.850739 13623 net.cpp:93] Creating Layer relu2
I0317 22:13:21.850749 13623 net.cpp:427] relu2 <- conv2
I0317 22:13:21.850759 13623 net.cpp:388] relu2 -> conv2 (in-place)
I0317 22:13:21.850989 13623 net.cpp:143] Setting up relu2
I0317 22:13:21.851018 13623 net.cpp:150] Top shape: 100 32 16 16 (819200)
I0317 22:13:21.851053 13623 net.cpp:158] Memory required for data: 30720400
I0317 22:13:21.851089 13623 layer_factory.hpp:77] Creating layer pool2
I0317 22:13:21.851104 13623 net.cpp:93] Creating Layer pool2
I0317 22:13:21.851112 13623 net.cpp:427] pool2 <- conv2
I0317 22:13:21.851126 13623 net.cpp:401] pool2 -> pool2
I0317 22:13:21.852349 13623 net.cpp:143] Setting up pool2
I0317 22:13:21.852370 13623 net.cpp:150] Top shape: 100 32 8 8 (204800)
I0317 22:13:21.852380 13623 net.cpp:158] Memory required for data: 31539600
I0317 22:13:21.852388 13623 layer_factory.hpp:77] Creating layer norm2
I0317 22:13:21.852407 13623 net.cpp:93] Creating Layer norm2
I0317 22:13:21.852416 13623 net.cpp:427] norm2 <- pool2
I0317 22:13:21.852430 13623 net.cpp:401] norm2 -> norm2
I0317 22:13:21.858319 13623 net.cpp:143] Setting up norm2
I0317 22:13:21.858352 13623 net.cpp:150] Top shape: 100 32 8 8 (204800)
I0317 22:13:21.858362 13623 net.cpp:158] Memory required for data: 32358800
I0317 22:13:21.858374 13623 layer_factory.hpp:77] Creating layer conv3
I0317 22:13:21.858397 13623 net.cpp:93] Creating Layer conv3
I0317 22:13:21.858407 13623 net.cpp:427] conv3 <- norm2
I0317 22:13:21.858429 13623 net.cpp:401] conv3 -> conv3
I0317 22:13:21.863996 13623 net.cpp:143] Setting up conv3
I0317 22:13:21.864020 13623 net.cpp:150] Top shape: 100 64 8 8 (409600)
I0317 22:13:21.864029 13623 net.cpp:158] Memory required for data: 33997200
I0317 22:13:21.864048 13623 layer_factory.hpp:77] Creating layer relu3
I0317 22:13:21.864063 13623 net.cpp:93] Creating Layer relu3
I0317 22:13:21.864073 13623 net.cpp:427] relu3 <- conv3
I0317 22:13:21.864083 13623 net.cpp:388] relu3 -> conv3 (in-place)
I0317 22:13:21.864467 13623 net.cpp:143] Setting up relu3
I0317 22:13:21.864486 13623 net.cpp:150] Top shape: 100 64 8 8 (409600)
I0317 22:13:21.864495 13623 net.cpp:158] Memory required for data: 35635600
I0317 22:13:21.864505 13623 layer_factory.hpp:77] Creating layer pool3
I0317 22:13:21.864519 13623 net.cpp:93] Creating Layer pool3
I0317 22:13:21.864529 13623 net.cpp:427] pool3 <- conv3
I0317 22:13:21.864542 13623 net.cpp:401] pool3 -> pool3
I0317 22:13:21.864898 13623 net.cpp:143] Setting up pool3
I0317 22:13:21.864917 13623 net.cpp:150] Top shape: 100 64 4 4 (102400)
I0317 22:13:21.864925 13623 net.cpp:158] Memory required for data: 36045200
I0317 22:13:21.864934 13623 layer_factory.hpp:77] Creating layer ip1
I0317 22:13:21.864948 13623 net.cpp:93] Creating Layer ip1
I0317 22:13:21.864966 13623 net.cpp:427] ip1 <- pool3
I0317 22:13:21.865001 13623 net.cpp:401] ip1 -> ip1
I0317 22:13:21.866303 13623 net.cpp:143] Setting up ip1
I0317 22:13:21.866322 13623 net.cpp:150] Top shape: 100 10 (1000)
I0317 22:13:21.866331 13623 net.cpp:158] Memory required for data: 36049200
I0317 22:13:21.866344 13623 layer_factory.hpp:77] Creating layer drop1
I0317 22:13:21.866358 13623 net.cpp:93] Creating Layer drop1
I0317 22:13:21.866366 13623 net.cpp:427] drop1 <- ip1
I0317 22:13:21.866380 13623 net.cpp:388] drop1 -> ip1 (in-place)
I0317 22:13:21.866448 13623 net.cpp:143] Setting up drop1
I0317 22:13:21.866462 13623 net.cpp:150] Top shape: 100 10 (1000)
I0317 22:13:21.866471 13623 net.cpp:158] Memory required for data: 36053200
I0317 22:13:21.866479 13623 layer_factory.hpp:77] Creating layer loss
I0317 22:13:21.866492 13623 net.cpp:93] Creating Layer loss
I0317 22:13:21.866499 13623 net.cpp:427] loss <- ip1
I0317 22:13:21.866508 13623 net.cpp:427] loss <- label
I0317 22:13:21.866520 13623 net.cpp:401] loss -> loss
I0317 22:13:21.866542 13623 layer_factory.hpp:77] Creating layer loss
…
I0317 22:13:21.867911 13623 solver.cpp:183] Creating test net (#0) specified by net file: examples/cifar10/cifar10_full_train_test_ft.prototxt
I0317 22:13:21.867955 13623 net.cpp:315] The NetState phase (1) differed from the phase (0) specified by a rule in layer cifar
I0317 22:13:21.868165 13623 net.cpp:51] Initializing net from parameters: 
name: "CIFAR10_full"
state {
  phase: TEST
}
layer {
  name: "cifar"
  type: "Data"
  top: "data"
  top: "label"
  include {
    phase: TEST
  }
  transform_param {
    mean_file: "examples/cifar10/mean.binaryproto"
  }
  data_param {
    source: "examples/cifar10/cifar10_test_lmdb"
    batch_size: 100
    backend: LMDB
  }
}
layer {
  name: "conv1"
  type: "Convolution"
  bottom: "data"
  top: "conv1"
  param {
    lr_mult: 1
    decay_mult: 1
    breadth_decay_mult: 1
    kernel_shape_decay_mult: 0.2
  }
  param {
    lr_mult: 2
    decay_mult: 1
    breadth_decay_mult: 0
    kernel_shape_decay_mult: 0
  }
  connectivity_mode: DISCONNECTED_GRPWISE
  convolution_param {
    num_output: 32
    pad: 2
    kernel_size: 5
    stride: 1
    weight_filler {
      type: "gaussian"
      std: 0.0001
    }
    bias_filler {
      type: "constant"
    }
  }
}
layer {
  name: "pool1"
  type: "Pooling"
  bottom: "conv1"
  top: "pool1"
  pooling_param {
    pool: MAX
    kernel_size: 3
    stride: 2
  }
}
layer {
  name: "relu1"
  type: "ReLU"
  bottom: "pool1"
  top: "pool1"
}
layer {
  name: "norm1"
  type: "LRN"
  bottom: "pool1"
  top: "norm1"
  lrn_param {
    local_size: 3
    alpha: 5e-05
    beta: 0.75
    norm_region: WITHIN_CHANNEL
  }
}
layer {
  name: "conv2"
  type: "Convolution"
  bottom: "norm1"
  top: "conv2"
  param {
    lr_mult: 1
    decay_mult: 1
    breadth_decay_mult: 1
    kernel_shape_decay_mult: 1
  }
  param {
    lr_mult: 2
    decay_mult: 1
    breadth_decay_mult: 0
    kernel_shape_decay_mult: 0
  }
  connectivity_mode: DISCONNECTED_GRPWISE
  convolution_param {
    num_output: 32
    pad: 2
    kernel_size: 5
    stride: 1
    weight_filler {
      type: "gaussian"
      std: 0.01
    }
    bias_filler {
      type: "constant"
    }
  }
}
layer {
  name: "relu2"
  type: "ReLU"
  bottom: "conv2"
  top: "conv2"
}
layer {
  name: "pool2"
  type: "Pooling"
  bottom: "conv2"
  top: "pool2"
  pooling_param {
    pool: AVE
    kernel_size: 3
    stride: 2
  }
}
layer {
  name: "norm2"
  type: "LRN"
  bottom: "pool2"
  top: "norm2"
  lrn_param {
    local_size: 3
    alpha: 5e-05
    beta: 0.75
    norm_region: WITHIN_CHANNEL
  }
}
layer {
  name: "conv3"
  type: "Convolution"
  bottom: "norm2"
  top: "conv3"
  param {
    lr_mult: 1
    decay_mult: 1
    breadth_decay_mult: 0.1
    kernel_shape_decay_mult: 1
  }
  param {
    lr_mult: 1
    decay_mult: 1
    breadth_decay_mult: 0
    kernel_shape_decay_mult: 0
  }
  connectivity_mode: DISCONNECTED_GRPWISE
  convolution_param {
    num_output: 64
    pad: 2
    kernel_size: 5
    stride: 1
    weight_filler {
      type: "gaussian"
      std: 0.01
    }
    bias_filler {
      type: "constant"
    }
  }
}
layer {
  name: "relu3"
  type: "ReLU"
  bottom: "conv3"
  top: "conv3"
}
layer {
  name: "pool3"
  type: "Pooling"
  bottom: "conv3"
  top: "pool3"
  pooling_param {
    pool: AVE
    kernel_size: 3
    stride: 2
  }
}
layer {
  name: "ip1"
  type: "InnerProduct"
  bottom: "pool3"
  top: "ip1"
  param {
    lr_mult: 1
    decay_mult: 1
    breadth_decay_mult: 1
    kernel_shape_decay_mult: 1
  }
  param {
    lr_mult: 2
    decay_mult: 1
    breadth_decay_mult: 0
    kernel_shape_decay_mult: 0
  }
  connectivity_mode: DISCONNECTED_GRPWISE
  inner_product_param {
    num_output: 10
    weight_filler {
      type: "gaussian"
      std: 0.01
    }
    bias_filler {
      type: "constant"
    }
  }
}
layer {
  name: "drop1"
  type: "Dropout"
  bottom: "ip1"
  top: "ip1"
  dropout_param {
    dropout_ratio: 0.5
  }
}
layer {
  name: "accuracy"
  type: "Accuracy"
  bottom: "ip1"
  bottom: "label"
  top: "accuracy"
  include {
    phase: TEST
  }
}
layer {
  name: "loss"
  type: "SoftmaxWithLoss"
  bottom: "ip1"
  bottom: "label"
  top: "loss"
}
I0317 22:13:21.868335 13623 layer_factory.hpp:77] Creating layer cifar
I0317 22:13:21.868499 13623 net.cpp:93] Creating Layer cifar
I0317 22:13:21.868515 13623 net.cpp:401] cifar -> data
I0317 22:13:21.868532 13623 net.cpp:401] cifar -> label
I0317 22:13:21.868548 13623 data_transformer.cpp:25] Loading mean file from: examples/cifar10/mean.binaryproto
I0317 22:13:21.870380 13631 db_lmdb.cpp:38] Opened lmdb examples/cifar10/cifar10_test_lmdb
I0317 22:13:21.875346 13623 data_layer.cpp:41] output data size: 100,3,32,32
I0317 22:13:21.880211 13623 net.cpp:143] Setting up cifar
I0317 22:13:21.880239 13623 net.cpp:150] Top shape: 100 3 32 32 (307200)
I0317 22:13:21.880249 13623 net.cpp:150] Top shape: 100 (100)
I0317 22:13:21.880257 13623 net.cpp:158] Memory required for data: 1229200
I0317 22:13:21.880269 13623 layer_factory.hpp:77] Creating layer label_cifar_1_split
I0317 22:13:21.880288 13623 net.cpp:93] Creating Layer label_cifar_1_split
I0317 22:13:21.880300 13623 net.cpp:427] label_cifar_1_split <- label
I0317 22:13:21.880312 13623 net.cpp:401] label_cifar_1_split -> label_cifar_1_split_0
I0317 22:13:21.880329 13623 net.cpp:401] label_cifar_1_split -> label_cifar_1_split_1
I0317 22:13:21.880421 13623 net.cpp:143] Setting up label_cifar_1_split
I0317 22:13:21.880436 13623 net.cpp:150] Top shape: 100 (100)
I0317 22:13:21.880446 13623 net.cpp:150] Top shape: 100 (100)
I0317 22:13:21.880455 13623 net.cpp:158] Memory required for data: 1230000
I0317 22:13:21.880462 13623 layer_factory.hpp:77] Creating layer conv1
I0317 22:13:21.880487 13623 net.cpp:93] Creating Layer conv1
I0317 22:13:21.880496 13623 net.cpp:427] conv1 <- data
I0317 22:13:21.880509 13623 net.cpp:401] conv1 -> conv1
I0317 22:13:21.892490 13623 net.cpp:143] Setting up conv1
I0317 22:13:21.892547 13623 net.cpp:150] Top shape: 100 32 32 32 (3276800)
I0317 22:13:21.892557 13623 net.cpp:158] Memory required for data: 14337200
I0317 22:13:21.892583 13623 layer_factory.hpp:77] Creating layer pool1
I0317 22:13:21.892601 13623 net.cpp:93] Creating Layer pool1
I0317 22:13:21.892612 13623 net.cpp:427] pool1 <- conv1
I0317 22:13:21.892642 13623 net.cpp:401] pool1 -> pool1
I0317 22:13:21.897480 13623 net.cpp:143] Setting up pool1
I0317 22:13:21.897505 13623 net.cpp:150] Top shape: 100 32 16 16 (819200)
I0317 22:13:21.897513 13623 net.cpp:158] Memory required for data: 17614000
I0317 22:13:21.897521 13623 layer_factory.hpp:77] Creating layer relu1
I0317 22:13:21.897536 13623 net.cpp:93] Creating Layer relu1
I0317 22:13:21.897544 13623 net.cpp:427] relu1 <- pool1
I0317 22:13:21.897557 13623 net.cpp:388] relu1 -> pool1 (in-place)
I0317 22:13:21.897848 13623 net.cpp:143] Setting up relu1
I0317 22:13:21.897866 13623 net.cpp:150] Top shape: 100 32 16 16 (819200)
I0317 22:13:21.897876 13623 net.cpp:158] Memory required for data: 20890800
I0317 22:13:21.897884 13623 layer_factory.hpp:77] Creating layer norm1
I0317 22:13:21.897907 13623 net.cpp:93] Creating Layer norm1
I0317 22:13:21.897915 13623 net.cpp:427] norm1 <- pool1
I0317 22:13:21.897928 13623 net.cpp:401] norm1 -> norm1
I0317 22:13:21.912492 13623 net.cpp:143] Setting up norm1
I0317 22:13:21.912565 13623 net.cpp:150] Top shape: 100 32 16 16 (819200)
I0317 22:13:21.912575 13623 net.cpp:158] Memory required for data: 24167600
I0317 22:13:21.912585 13623 layer_factory.hpp:77] Creating layer conv2
I0317 22:13:21.912613 13623 net.cpp:93] Creating Layer conv2
I0317 22:13:21.912624 13623 net.cpp:427] conv2 <- norm1
I0317 22:13:21.912641 13623 net.cpp:401] conv2 -> conv2
I0317 22:13:21.918905 13623 net.cpp:143] Setting up conv2
I0317 22:13:21.918931 13623 net.cpp:150] Top shape: 100 32 16 16 (819200)
I0317 22:13:21.918939 13623 net.cpp:158] Memory required for data: 27444400
I0317 22:13:21.918959 13623 layer_factory.hpp:77] Creating layer relu2
I0317 22:13:21.918975 13623 net.cpp:93] Creating Layer relu2
I0317 22:13:21.918984 13623 net.cpp:427] relu2 <- conv2
I0317 22:13:21.918994 13623 net.cpp:388] relu2 -> conv2 (in-place)
I0317 22:13:21.919375 13623 net.cpp:143] Setting up relu2
I0317 22:13:21.919394 13623 net.cpp:150] Top shape: 100 32 16 16 (819200)
I0317 22:13:21.919404 13623 net.cpp:158] Memory required for data: 30721200
I0317 22:13:21.919412 13623 layer_factory.hpp:77] Creating layer pool2
I0317 22:13:21.919430 13623 net.cpp:93] Creating Layer pool2
I0317 22:13:21.919440 13623 net.cpp:427] pool2 <- conv2
I0317 22:13:21.919452 13623 net.cpp:401] pool2 -> pool2
I0317 22:13:21.920655 13623 net.cpp:143] Setting up pool2
I0317 22:13:21.920675 13623 net.cpp:150] Top shape: 100 32 8 8 (204800)
I0317 22:13:21.920683 13623 net.cpp:158] Memory required for data: 31540400
I0317 22:13:21.920692 13623 layer_factory.hpp:77] Creating layer norm2
I0317 22:13:21.920709 13623 net.cpp:93] Creating Layer norm2
I0317 22:13:21.920717 13623 net.cpp:427] norm2 <- pool2
I0317 22:13:21.920728 13623 net.cpp:401] norm2 -> norm2
I0317 22:13:21.926483 13623 net.cpp:143] Setting up norm2
I0317 22:13:21.926508 13623 net.cpp:150] Top shape: 100 32 8 8 (204800)
I0317 22:13:21.926517 13623 net.cpp:158] Memory required for data: 32359600
I0317 22:13:21.926527 13623 layer_factory.hpp:77] Creating layer conv3
I0317 22:13:21.926549 13623 net.cpp:93] Creating Layer conv3
I0317 22:13:21.926559 13623 net.cpp:427] conv3 <- norm2
I0317 22:13:21.926575 13623 net.cpp:401] conv3 -> conv3
I0317 22:13:21.932142 13623 net.cpp:143] Setting up conv3
I0317 22:13:21.932164 13623 net.cpp:150] Top shape: 100 64 8 8 (409600)
I0317 22:13:21.932173 13623 net.cpp:158] Memory required for data: 33998000
I0317 22:13:21.932191 13623 layer_factory.hpp:77] Creating layer relu3
I0317 22:13:21.932206 13623 net.cpp:93] Creating Layer relu3
I0317 22:13:21.932215 13623 net.cpp:427] relu3 <- conv3
I0317 22:13:21.932225 13623 net.cpp:388] relu3 -> conv3 (in-place)
I0317 22:13:21.932463 13623 net.cpp:143] Setting up relu3
I0317 22:13:21.932481 13623 net.cpp:150] Top shape: 100 64 8 8 (409600)
I0317 22:13:21.932489 13623 net.cpp:158] Memory required for data: 35636400
I0317 22:13:21.932497 13623 layer_factory.hpp:77] Creating layer pool3
I0317 22:13:21.932509 13623 net.cpp:93] Creating Layer pool3
I0317 22:13:21.932518 13623 net.cpp:427] pool3 <- conv3
I0317 22:13:21.932530 13623 net.cpp:401] pool3 -> pool3
I0317 22:13:21.933648 13623 net.cpp:143] Setting up pool3
I0317 22:13:21.933668 13623 net.cpp:150] Top shape: 100 64 4 4 (102400)
I0317 22:13:21.933676 13623 net.cpp:158] Memory required for data: 36046000
I0317 22:13:21.933686 13623 layer_factory.hpp:77] Creating layer ip1
I0317 22:13:21.933702 13623 net.cpp:93] Creating Layer ip1
I0317 22:13:21.933711 13623 net.cpp:427] ip1 <- pool3
I0317 22:13:21.933724 13623 net.cpp:401] ip1 -> ip1
I0317 22:13:21.934337 13623 net.cpp:143] Setting up ip1
I0317 22:13:21.934353 13623 net.cpp:150] Top shape: 100 10 (1000)
I0317 22:13:21.934361 13623 net.cpp:158] Memory required for data: 36050000
I0317 22:13:21.934373 13623 layer_factory.hpp:77] Creating layer drop1
I0317 22:13:21.934387 13623 net.cpp:93] Creating Layer drop1
I0317 22:13:21.934398 13623 net.cpp:427] drop1 <- ip1
I0317 22:13:21.934414 13623 net.cpp:388] drop1 -> ip1 (in-place)
I0317 22:13:21.934504 13623 net.cpp:143] Setting up drop1
I0317 22:13:21.934533 13623 net.cpp:150] Top shape: 100 10 (1000)
I0317 22:13:21.934541 13623 net.cpp:158] Memory required for data: 36054000
I0317 22:13:21.934550 13623 layer_factory.hpp:77] Creating layer ip1_drop1_0_split
I0317 22:13:21.934561 13623 net.cpp:93] Creating Layer ip1_drop1_0_split
I0317 22:13:21.934568 13623 net.cpp:427] ip1_drop1_0_split <- ip1
I0317 22:13:21.934579 13623 net.cpp:401] ip1_drop1_0_split -> ip1_drop1_0_split_0
I0317 22:13:21.934590 13623 net.cpp:401] ip1_drop1_0_split -> ip1_drop1_0_split_1
I0317 22:13:21.934682 13623 net.cpp:143] Setting up ip1_drop1_0_split
I0317 22:13:21.934696 13623 net.cpp:150] Top shape: 100 10 (1000)
I0317 22:13:21.934705 13623 net.cpp:150] Top shape: 100 10 (1000)
I0317 22:13:21.934713 13623 net.cpp:158] Memory required for data: 36062000
I0317 22:13:21.934721 13623 layer_factory.hpp:77] Creating layer accuracy
I0317 22:13:21.934738 13623 net.cpp:93] Creating Layer accuracy
I0317 22:13:21.934747 13623 net.cpp:427] accuracy <- ip1_drop1_0_split_0
I0317 22:13:21.934756 13623 net.cpp:427] accuracy <- label_cifar_1_split_0
I0317 22:13:21.934767 13623 net.cpp:401] accuracy -> accuracy
…
