…
I0314 11:24:40.676771 30884 net.cpp:315] The NetState phase (0) differed from the phase (1) specified by a rule in layer cifar
I0314 11:24:40.676798 30884 net.cpp:315] The NetState phase (0) differed from the phase (1) specified by a rule in layer accuracy
I0314 11:24:40.676961 30884 net.cpp:51] Initializing net from parameters: 
name: "CIFAR10_full"
state {
  phase: TRAIN
}
layer {
  name: "cifar"
  type: "Data"
  top: "data"
  top: "label"
  include {
    phase: TRAIN
  }
  transform_param {
    mean_file: "examples/cifar10/mean.binaryproto"
  }
  data_param {
    source: "examples/cifar10/cifar10_train_lmdb"
    batch_size: 100
    backend: LMDB
  }
}
layer {
  name: "conv1"
  type: "Convolution"
  bottom: "data"
  top: "conv1"
  param {
    lr_mult: 1
    decay_mult: 0
    breadth_decay_mult: 1
    kernel_shape_decay_mult: 0.2
  }
  param {
    lr_mult: 2
    decay_mult: 0
    breadth_decay_mult: 0
    kernel_shape_decay_mult: 0
  }
  convolution_param {
    num_output: 32
    pad: 2
    kernel_size: 5
    stride: 1
    weight_filler {
      type: "gaussian"
      std: 0.0001
    }
    bias_filler {
      type: "constant"
    }
  }
}
layer {
  name: "pool1"
  type: "Pooling"
  bottom: "conv1"
  top: "pool1"
  pooling_param {
    pool: MAX
    kernel_size: 3
    stride: 2
  }
}
layer {
  name: "relu1"
  type: "ReLU"
  bottom: "pool1"
  top: "pool1"
}
layer {
  name: "norm1"
  type: "LRN"
  bottom: "pool1"
  top: "norm1"
  lrn_param {
    local_size: 3
    alpha: 5e-05
    beta: 0.75
    norm_region: WITHIN_CHANNEL
  }
}
layer {
  name: "conv2"
  type: "Convolution"
  bottom: "norm1"
  top: "conv2"
  param {
    lr_mult: 1
    decay_mult: 0
    breadth_decay_mult: 1
    kernel_shape_decay_mult: 1
  }
  param {
    lr_mult: 2
    decay_mult: 0
    breadth_decay_mult: 0
    kernel_shape_decay_mult: 0
  }
  convolution_param {
    num_output: 32
    pad: 2
    kernel_size: 5
    stride: 1
    weight_filler {
      type: "gaussian"
      std: 0.01
    }
    bias_filler {
      type: "constant"
    }
  }
}
layer {
  name: "relu2"
  type: "ReLU"
  bottom: "conv2"
  top: "conv2"
}
layer {
  name: "pool2"
  type: "Pooling"
  bottom: "conv2"
  top: "pool2"
  pooling_param {
    pool: AVE
    kernel_size: 3
    stride: 2
  }
}
layer {
  name: "norm2"
  type: "LRN"
  bottom: "pool2"
  top: "norm2"
  lrn_param {
    local_size: 3
    alpha: 5e-05
    beta: 0.75
    norm_region: WITHIN_CHANNEL
  }
}
layer {
  name: "conv3"
  type: "Convolution"
  bottom: "norm2"
  top: "conv3"
  param {
    lr_mult: 1
    decay_mult: 0
    breadth_decay_mult: 0.1
    kernel_shape_decay_mult: 1
  }
  param {
    lr_mult: 1
    decay_mult: 0
    breadth_decay_mult: 0
    kernel_shape_decay_mult: 0
  }
  convolution_param {
    num_output: 64
    pad: 2
    kernel_size: 5
    stride: 1
    weight_filler {
      type: "gaussian"
      std: 0.01
    }
    bias_filler {
      type: "constant"
    }
  }
}
layer {
  name: "relu3"
  type: "ReLU"
  bottom: "conv3"
  top: "conv3"
}
layer {
  name: "pool3"
  type: "Pooling"
  bottom: "conv3"
  top: "pool3"
  pooling_param {
    pool: AVE
    kernel_size: 3
    stride: 2
  }
}
layer {
  name: "ip1"
  type: "InnerProduct"
  bottom: "pool3"
  top: "ip1"
  param {
    lr_mult: 1
    decay_mult: 1
    breadth_decay_mult: 0
    kernel_shape_decay_mult: 0
  }
  param {
    lr_mult: 2
    decay_mult: 0
    breadth_decay_mult: 0
    kernel_shape_decay_mult: 0
  }
  inner_product_param {
    num_output: 10
    weight_filler {
      type: "gaussian"
      std: 0.01
    }
    bias_filler {
      type: "constant"
    }
  }
}
layer {
  name: "drop1"
  type: "Dropout"
  bottom: "ip1"
  top: "ip1"
  dropout_param {
    dropout_ratio: 0.5
  }
}
layer {
  name: "loss"
  type: "SoftmaxWithLoss"
  bottom: "ip1"
  bottom: "label"
  top: "loss"
}
I0314 11:24:40.677120 30884 layer_factory.hpp:77] Creating layer cifar
I0314 11:24:40.677789 30884 net.cpp:93] Creating Layer cifar
I0314 11:24:40.677837 30884 net.cpp:401] cifar -> data
I0314 11:24:40.677884 30884 net.cpp:401] cifar -> label
I0314 11:24:40.677917 30884 data_transformer.cpp:25] Loading mean file from: examples/cifar10/mean.binaryproto
I0314 11:24:40.692348 30888 db_lmdb.cpp:38] Opened lmdb examples/cifar10/cifar10_train_lmdb
I0314 11:24:40.805377 30884 data_layer.cpp:41] output data size: 100,3,32,32
I0314 11:24:40.823657 30884 net.cpp:143] Setting up cifar
I0314 11:24:40.823693 30884 net.cpp:150] Top shape: 100 3 32 32 (307200)
I0314 11:24:40.823705 30884 net.cpp:150] Top shape: 100 (100)
I0314 11:24:40.823714 30884 net.cpp:158] Memory required for data: 1229200
I0314 11:24:40.823732 30884 layer_factory.hpp:77] Creating layer conv1
I0314 11:24:40.823781 30884 net.cpp:93] Creating Layer conv1
I0314 11:24:40.823794 30884 net.cpp:427] conv1 <- data
I0314 11:24:40.823819 30884 net.cpp:401] conv1 -> conv1
I0314 11:24:41.204612 30884 net.cpp:143] Setting up conv1
I0314 11:24:41.204710 30884 net.cpp:150] Top shape: 100 32 32 32 (3276800)
I0314 11:24:41.204723 30884 net.cpp:158] Memory required for data: 14336400
I0314 11:24:41.204772 30884 layer_factory.hpp:77] Creating layer pool1
I0314 11:24:41.204854 30884 net.cpp:93] Creating Layer pool1
I0314 11:24:41.204869 30884 net.cpp:427] pool1 <- conv1
I0314 11:24:41.204887 30884 net.cpp:401] pool1 -> pool1
I0314 11:24:41.209554 30884 net.cpp:143] Setting up pool1
I0314 11:24:41.209578 30884 net.cpp:150] Top shape: 100 32 16 16 (819200)
I0314 11:24:41.209589 30884 net.cpp:158] Memory required for data: 17613200
I0314 11:24:41.209597 30884 layer_factory.hpp:77] Creating layer relu1
I0314 11:24:41.209620 30884 net.cpp:93] Creating Layer relu1
I0314 11:24:41.209630 30884 net.cpp:427] relu1 <- pool1
I0314 11:24:41.209641 30884 net.cpp:388] relu1 -> pool1 (in-place)
I0314 11:24:41.209950 30884 net.cpp:143] Setting up relu1
I0314 11:24:41.209969 30884 net.cpp:150] Top shape: 100 32 16 16 (819200)
I0314 11:24:41.209977 30884 net.cpp:158] Memory required for data: 20890000
I0314 11:24:41.209988 30884 layer_factory.hpp:77] Creating layer norm1
I0314 11:24:41.210022 30884 net.cpp:93] Creating Layer norm1
I0314 11:24:41.210032 30884 net.cpp:427] norm1 <- pool1
I0314 11:24:41.210044 30884 net.cpp:401] norm1 -> norm1
I0314 11:24:41.224778 30884 net.cpp:143] Setting up norm1
I0314 11:24:41.224848 30884 net.cpp:150] Top shape: 100 32 16 16 (819200)
I0314 11:24:41.224858 30884 net.cpp:158] Memory required for data: 24166800
I0314 11:24:41.224870 30884 layer_factory.hpp:77] Creating layer conv2
I0314 11:24:41.224907 30884 net.cpp:93] Creating Layer conv2
I0314 11:24:41.224920 30884 net.cpp:427] conv2 <- norm1
I0314 11:24:41.224938 30884 net.cpp:401] conv2 -> conv2
I0314 11:24:41.239495 30884 net.cpp:143] Setting up conv2
I0314 11:24:41.239521 30884 net.cpp:150] Top shape: 100 32 16 16 (819200)
I0314 11:24:41.239531 30884 net.cpp:158] Memory required for data: 27443600
I0314 11:24:41.239553 30884 layer_factory.hpp:77] Creating layer relu2
I0314 11:24:41.239568 30884 net.cpp:93] Creating Layer relu2
I0314 11:24:41.239576 30884 net.cpp:427] relu2 <- conv2
I0314 11:24:41.239590 30884 net.cpp:388] relu2 -> conv2 (in-place)
I0314 11:24:41.239804 30884 net.cpp:143] Setting up relu2
I0314 11:24:41.239820 30884 net.cpp:150] Top shape: 100 32 16 16 (819200)
I0314 11:24:41.239828 30884 net.cpp:158] Memory required for data: 30720400
I0314 11:24:41.239837 30884 layer_factory.hpp:77] Creating layer pool2
I0314 11:24:41.239852 30884 net.cpp:93] Creating Layer pool2
I0314 11:24:41.239876 30884 net.cpp:427] pool2 <- conv2
I0314 11:24:41.239902 30884 net.cpp:401] pool2 -> pool2
I0314 11:24:41.241068 30884 net.cpp:143] Setting up pool2
I0314 11:24:41.241089 30884 net.cpp:150] Top shape: 100 32 8 8 (204800)
I0314 11:24:41.241098 30884 net.cpp:158] Memory required for data: 31539600
I0314 11:24:41.241108 30884 layer_factory.hpp:77] Creating layer norm2
I0314 11:24:41.241128 30884 net.cpp:93] Creating Layer norm2
I0314 11:24:41.241137 30884 net.cpp:427] norm2 <- pool2
I0314 11:24:41.241148 30884 net.cpp:401] norm2 -> norm2
I0314 11:24:41.246798 30884 net.cpp:143] Setting up norm2
I0314 11:24:41.246826 30884 net.cpp:150] Top shape: 100 32 8 8 (204800)
I0314 11:24:41.246836 30884 net.cpp:158] Memory required for data: 32358800
I0314 11:24:41.246847 30884 layer_factory.hpp:77] Creating layer conv3
I0314 11:24:41.246876 30884 net.cpp:93] Creating Layer conv3
I0314 11:24:41.246886 30884 net.cpp:427] conv3 <- norm2
I0314 11:24:41.246902 30884 net.cpp:401] conv3 -> conv3
I0314 11:24:41.256660 30884 net.cpp:143] Setting up conv3
I0314 11:24:41.256686 30884 net.cpp:150] Top shape: 100 64 8 8 (409600)
I0314 11:24:41.256700 30884 net.cpp:158] Memory required for data: 33997200
I0314 11:24:41.256719 30884 layer_factory.hpp:77] Creating layer relu3
I0314 11:24:41.256734 30884 net.cpp:93] Creating Layer relu3
I0314 11:24:41.256744 30884 net.cpp:427] relu3 <- conv3
I0314 11:24:41.256757 30884 net.cpp:388] relu3 -> conv3 (in-place)
I0314 11:24:41.257490 30884 net.cpp:143] Setting up relu3
I0314 11:24:41.257508 30884 net.cpp:150] Top shape: 100 64 8 8 (409600)
I0314 11:24:41.257525 30884 net.cpp:158] Memory required for data: 35635600
I0314 11:24:41.257540 30884 layer_factory.hpp:77] Creating layer pool3
I0314 11:24:41.257563 30884 net.cpp:93] Creating Layer pool3
I0314 11:24:41.257573 30884 net.cpp:427] pool3 <- conv3
I0314 11:24:41.257586 30884 net.cpp:401] pool3 -> pool3
I0314 11:24:41.260072 30884 net.cpp:143] Setting up pool3
I0314 11:24:41.260097 30884 net.cpp:150] Top shape: 100 64 4 4 (102400)
I0314 11:24:41.260107 30884 net.cpp:158] Memory required for data: 36045200
I0314 11:24:41.260121 30884 layer_factory.hpp:77] Creating layer ip1
I0314 11:24:41.260138 30884 net.cpp:93] Creating Layer ip1
I0314 11:24:41.260149 30884 net.cpp:427] ip1 <- pool3
I0314 11:24:41.260161 30884 net.cpp:401] ip1 -> ip1
I0314 11:24:41.261432 30884 net.cpp:143] Setting up ip1
I0314 11:24:41.261451 30884 net.cpp:150] Top shape: 100 10 (1000)
I0314 11:24:41.261461 30884 net.cpp:158] Memory required for data: 36049200
I0314 11:24:41.261474 30884 layer_factory.hpp:77] Creating layer drop1
I0314 11:24:41.261492 30884 net.cpp:93] Creating Layer drop1
I0314 11:24:41.261503 30884 net.cpp:427] drop1 <- ip1
I0314 11:24:41.261515 30884 net.cpp:388] drop1 -> ip1 (in-place)
I0314 11:24:41.261584 30884 net.cpp:143] Setting up drop1
I0314 11:24:41.261602 30884 net.cpp:150] Top shape: 100 10 (1000)
I0314 11:24:41.261611 30884 net.cpp:158] Memory required for data: 36053200
I0314 11:24:41.261621 30884 layer_factory.hpp:77] Creating layer loss
I0314 11:24:41.261638 30884 net.cpp:93] Creating Layer loss
I0314 11:24:41.261648 30884 net.cpp:427] loss <- ip1
I0314 11:24:41.261661 30884 net.cpp:427] loss <- label
I0314 11:24:41.261675 30884 net.cpp:401] loss -> loss
I0314 11:24:41.261698 30884 layer_factory.hpp:77] Creating layer loss
…
I0314 11:24:41.263607 30884 solver.cpp:183] Creating test net (#0) specified by net file: examples/cifar10/cifar10_full_train_test.prototxt
I0314 11:24:41.263653 30884 net.cpp:315] The NetState phase (1) differed from the phase (0) specified by a rule in layer cifar
I0314 11:24:41.263831 30884 net.cpp:51] Initializing net from parameters: 
name: "CIFAR10_full"
state {
  phase: TEST
}
layer {
  name: "cifar"
  type: "Data"
  top: "data"
  top: "label"
  include {
    phase: TEST
  }
  transform_param {
    mean_file: "examples/cifar10/mean.binaryproto"
  }
  data_param {
    source: "examples/cifar10/cifar10_test_lmdb"
    batch_size: 100
    backend: LMDB
  }
}
layer {
  name: "conv1"
  type: "Convolution"
  bottom: "data"
  top: "conv1"
  param {
    lr_mult: 1
    decay_mult: 0
    breadth_decay_mult: 1
    kernel_shape_decay_mult: 0.2
  }
  param {
    lr_mult: 2
    decay_mult: 0
    breadth_decay_mult: 0
    kernel_shape_decay_mult: 0
  }
  convolution_param {
    num_output: 32
    pad: 2
    kernel_size: 5
    stride: 1
    weight_filler {
      type: "gaussian"
      std: 0.0001
    }
    bias_filler {
      type: "constant"
    }
  }
}
layer {
  name: "pool1"
  type: "Pooling"
  bottom: "conv1"
  top: "pool1"
  pooling_param {
    pool: MAX
    kernel_size: 3
    stride: 2
  }
}
layer {
  name: "relu1"
  type: "ReLU"
  bottom: "pool1"
  top: "pool1"
}
layer {
  name: "norm1"
  type: "LRN"
  bottom: "pool1"
  top: "norm1"
  lrn_param {
    local_size: 3
    alpha: 5e-05
    beta: 0.75
    norm_region: WITHIN_CHANNEL
  }
}
layer {
  name: "conv2"
  type: "Convolution"
  bottom: "norm1"
  top: "conv2"
  param {
    lr_mult: 1
    decay_mult: 0
    breadth_decay_mult: 1
    kernel_shape_decay_mult: 1
  }
  param {
    lr_mult: 2
    decay_mult: 0
    breadth_decay_mult: 0
    kernel_shape_decay_mult: 0
  }
  convolution_param {
    num_output: 32
    pad: 2
    kernel_size: 5
    stride: 1
    weight_filler {
      type: "gaussian"
      std: 0.01
    }
    bias_filler {
      type: "constant"
    }
  }
}
layer {
  name: "relu2"
  type: "ReLU"
  bottom: "conv2"
  top: "conv2"
}
layer {
  name: "pool2"
  type: "Pooling"
  bottom: "conv2"
  top: "pool2"
  pooling_param {
    pool: AVE
    kernel_size: 3
    stride: 2
  }
}
layer {
  name: "norm2"
  type: "LRN"
  bottom: "pool2"
  top: "norm2"
  lrn_param {
    local_size: 3
    alpha: 5e-05
    beta: 0.75
    norm_region: WITHIN_CHANNEL
  }
}
layer {
  name: "conv3"
  type: "Convolution"
  bottom: "norm2"
  top: "conv3"
  param {
    lr_mult: 1
    decay_mult: 0
    breadth_decay_mult: 0.1
    kernel_shape_decay_mult: 1
  }
  param {
    lr_mult: 1
    decay_mult: 0
    breadth_decay_mult: 0
    kernel_shape_decay_mult: 0
  }
  convolution_param {
    num_output: 64
    pad: 2
    kernel_size: 5
    stride: 1
    weight_filler {
      type: "gaussian"
      std: 0.01
    }
    bias_filler {
      type: "constant"
    }
  }
}
layer {
  name: "relu3"
  type: "ReLU"
  bottom: "conv3"
  top: "conv3"
}
layer {
  name: "pool3"
  type: "Pooling"
  bottom: "conv3"
  top: "pool3"
  pooling_param {
    pool: AVE
    kernel_size: 3
    stride: 2
  }
}
layer {
  name: "ip1"
  type: "InnerProduct"
  bottom: "pool3"
  top: "ip1"
  param {
    lr_mult: 1
    decay_mult: 1
    breadth_decay_mult: 0
    kernel_shape_decay_mult: 0
  }
  param {
    lr_mult: 2
    decay_mult: 0
    breadth_decay_mult: 0
    kernel_shape_decay_mult: 0
  }
  inner_product_param {
    num_output: 10
    weight_filler {
      type: "gaussian"
      std: 0.01
    }
    bias_filler {
      type: "constant"
    }
  }
}
layer {
  name: "drop1"
  type: "Dropout"
  bottom: "ip1"
  top: "ip1"
  dropout_param {
    dropout_ratio: 0.5
  }
}
layer {
  name: "accuracy"
  type: "Accuracy"
  bottom: "ip1"
  bottom: "label"
  top: "accuracy"
  include {
    phase: TEST
  }
}
layer {
  name: "loss"
  type: "SoftmaxWithLoss"
  bottom: "ip1"
  bottom: "label"
  top: "loss"
}
I0314 11:24:41.263962 30884 layer_factory.hpp:77] Creating layer cifar
I0314 11:24:41.264796 30884 net.cpp:93] Creating Layer cifar
I0314 11:24:41.264816 30884 net.cpp:401] cifar -> data
I0314 11:24:41.264832 30884 net.cpp:401] cifar -> label
I0314 11:24:41.264847 30884 data_transformer.cpp:25] Loading mean file from: examples/cifar10/mean.binaryproto
I0314 11:24:41.266185 30890 db_lmdb.cpp:38] Opened lmdb examples/cifar10/cifar10_test_lmdb
I0314 11:24:41.270272 30884 data_layer.cpp:41] output data size: 100,3,32,32
I0314 11:24:41.280642 30884 net.cpp:143] Setting up cifar
I0314 11:24:41.280668 30884 net.cpp:150] Top shape: 100 3 32 32 (307200)
I0314 11:24:41.280679 30884 net.cpp:150] Top shape: 100 (100)
I0314 11:24:41.280689 30884 net.cpp:158] Memory required for data: 1229200
I0314 11:24:41.280700 30884 layer_factory.hpp:77] Creating layer label_cifar_1_split
I0314 11:24:41.280720 30884 net.cpp:93] Creating Layer label_cifar_1_split
I0314 11:24:41.280731 30884 net.cpp:427] label_cifar_1_split <- label
I0314 11:24:41.280745 30884 net.cpp:401] label_cifar_1_split -> label_cifar_1_split_0
I0314 11:24:41.280761 30884 net.cpp:401] label_cifar_1_split -> label_cifar_1_split_1
I0314 11:24:41.280915 30884 net.cpp:143] Setting up label_cifar_1_split
I0314 11:24:41.280931 30884 net.cpp:150] Top shape: 100 (100)
I0314 11:24:41.280943 30884 net.cpp:150] Top shape: 100 (100)
I0314 11:24:41.280953 30884 net.cpp:158] Memory required for data: 1230000
I0314 11:24:41.280963 30884 layer_factory.hpp:77] Creating layer conv1
I0314 11:24:41.280989 30884 net.cpp:93] Creating Layer conv1
I0314 11:24:41.281000 30884 net.cpp:427] conv1 <- data
I0314 11:24:41.281013 30884 net.cpp:401] conv1 -> conv1
I0314 11:24:41.298672 30884 net.cpp:143] Setting up conv1
I0314 11:24:41.298729 30884 net.cpp:150] Top shape: 100 32 32 32 (3276800)
I0314 11:24:41.298743 30884 net.cpp:158] Memory required for data: 14337200
I0314 11:24:41.298769 30884 layer_factory.hpp:77] Creating layer pool1
I0314 11:24:41.298790 30884 net.cpp:93] Creating Layer pool1
I0314 11:24:41.298802 30884 net.cpp:427] pool1 <- conv1
I0314 11:24:41.298815 30884 net.cpp:401] pool1 -> pool1
I0314 11:24:41.303644 30884 net.cpp:143] Setting up pool1
I0314 11:24:41.303671 30884 net.cpp:150] Top shape: 100 32 16 16 (819200)
I0314 11:24:41.303681 30884 net.cpp:158] Memory required for data: 17614000
I0314 11:24:41.303690 30884 layer_factory.hpp:77] Creating layer relu1
I0314 11:24:41.303711 30884 net.cpp:93] Creating Layer relu1
I0314 11:24:41.303721 30884 net.cpp:427] relu1 <- pool1
I0314 11:24:41.303733 30884 net.cpp:388] relu1 -> pool1 (in-place)
I0314 11:24:41.304045 30884 net.cpp:143] Setting up relu1
I0314 11:24:41.304064 30884 net.cpp:150] Top shape: 100 32 16 16 (819200)
I0314 11:24:41.304072 30884 net.cpp:158] Memory required for data: 20890800
I0314 11:24:41.304081 30884 layer_factory.hpp:77] Creating layer norm1
I0314 11:24:41.304101 30884 net.cpp:93] Creating Layer norm1
I0314 11:24:41.304111 30884 net.cpp:427] norm1 <- pool1
I0314 11:24:41.304122 30884 net.cpp:401] norm1 -> norm1
I0314 11:24:41.318992 30884 net.cpp:143] Setting up norm1
I0314 11:24:41.319044 30884 net.cpp:150] Top shape: 100 32 16 16 (819200)
I0314 11:24:41.319056 30884 net.cpp:158] Memory required for data: 24167600
I0314 11:24:41.319067 30884 layer_factory.hpp:77] Creating layer conv2
I0314 11:24:41.319094 30884 net.cpp:93] Creating Layer conv2
I0314 11:24:41.319120 30884 net.cpp:427] conv2 <- norm1
I0314 11:24:41.319157 30884 net.cpp:401] conv2 -> conv2
I0314 11:24:41.330049 30884 net.cpp:143] Setting up conv2
I0314 11:24:41.330078 30884 net.cpp:150] Top shape: 100 32 16 16 (819200)
I0314 11:24:41.330088 30884 net.cpp:158] Memory required for data: 27444400
I0314 11:24:41.330109 30884 layer_factory.hpp:77] Creating layer relu2
I0314 11:24:41.330124 30884 net.cpp:93] Creating Layer relu2
I0314 11:24:41.330133 30884 net.cpp:427] relu2 <- conv2
I0314 11:24:41.330148 30884 net.cpp:388] relu2 -> conv2 (in-place)
I0314 11:24:41.330554 30884 net.cpp:143] Setting up relu2
I0314 11:24:41.330572 30884 net.cpp:150] Top shape: 100 32 16 16 (819200)
I0314 11:24:41.330581 30884 net.cpp:158] Memory required for data: 30721200
I0314 11:24:41.330590 30884 layer_factory.hpp:77] Creating layer pool2
I0314 11:24:41.330615 30884 net.cpp:93] Creating Layer pool2
I0314 11:24:41.330631 30884 net.cpp:427] pool2 <- conv2
I0314 11:24:41.330647 30884 net.cpp:401] pool2 -> pool2
I0314 11:24:41.333974 30884 net.cpp:143] Setting up pool2
I0314 11:24:41.333997 30884 net.cpp:150] Top shape: 100 32 8 8 (204800)
I0314 11:24:41.334007 30884 net.cpp:158] Memory required for data: 31540400
I0314 11:24:41.334015 30884 layer_factory.hpp:77] Creating layer norm2
I0314 11:24:41.334036 30884 net.cpp:93] Creating Layer norm2
I0314 11:24:41.334049 30884 net.cpp:427] norm2 <- pool2
I0314 11:24:41.334061 30884 net.cpp:401] norm2 -> norm2
I0314 11:24:41.340011 30884 net.cpp:143] Setting up norm2
I0314 11:24:41.340039 30884 net.cpp:150] Top shape: 100 32 8 8 (204800)
I0314 11:24:41.340056 30884 net.cpp:158] Memory required for data: 32359600
I0314 11:24:41.340070 30884 layer_factory.hpp:77] Creating layer conv3
I0314 11:24:41.340096 30884 net.cpp:93] Creating Layer conv3
I0314 11:24:41.340106 30884 net.cpp:427] conv3 <- norm2
I0314 11:24:41.340122 30884 net.cpp:401] conv3 -> conv3
I0314 11:24:41.348484 30884 net.cpp:143] Setting up conv3
I0314 11:24:41.348508 30884 net.cpp:150] Top shape: 100 64 8 8 (409600)
I0314 11:24:41.348518 30884 net.cpp:158] Memory required for data: 33998000
I0314 11:24:41.348539 30884 layer_factory.hpp:77] Creating layer relu3
I0314 11:24:41.348553 30884 net.cpp:93] Creating Layer relu3
I0314 11:24:41.348563 30884 net.cpp:427] relu3 <- conv3
I0314 11:24:41.348578 30884 net.cpp:388] relu3 -> conv3 (in-place)
I0314 11:24:41.348804 30884 net.cpp:143] Setting up relu3
I0314 11:24:41.348826 30884 net.cpp:150] Top shape: 100 64 8 8 (409600)
I0314 11:24:41.348839 30884 net.cpp:158] Memory required for data: 35636400
I0314 11:24:41.348852 30884 layer_factory.hpp:77] Creating layer pool3
I0314 11:24:41.348866 30884 net.cpp:93] Creating Layer pool3
I0314 11:24:41.348875 30884 net.cpp:427] pool3 <- conv3
I0314 11:24:41.348886 30884 net.cpp:401] pool3 -> pool3
I0314 11:24:41.353097 30884 net.cpp:143] Setting up pool3
I0314 11:24:41.353123 30884 net.cpp:150] Top shape: 100 64 4 4 (102400)
I0314 11:24:41.353132 30884 net.cpp:158] Memory required for data: 36046000
I0314 11:24:41.353142 30884 layer_factory.hpp:77] Creating layer ip1
I0314 11:24:41.353162 30884 net.cpp:93] Creating Layer ip1
I0314 11:24:41.353173 30884 net.cpp:427] ip1 <- pool3
I0314 11:24:41.353188 30884 net.cpp:401] ip1 -> ip1
I0314 11:24:41.353811 30884 net.cpp:143] Setting up ip1
I0314 11:24:41.353845 30884 net.cpp:150] Top shape: 100 10 (1000)
I0314 11:24:41.353858 30884 net.cpp:158] Memory required for data: 36050000
I0314 11:24:41.353873 30884 layer_factory.hpp:77] Creating layer drop1
I0314 11:24:41.353890 30884 net.cpp:93] Creating Layer drop1
I0314 11:24:41.353899 30884 net.cpp:427] drop1 <- ip1
I0314 11:24:41.353914 30884 net.cpp:388] drop1 -> ip1 (in-place)
I0314 11:24:41.353987 30884 net.cpp:143] Setting up drop1
I0314 11:24:41.354002 30884 net.cpp:150] Top shape: 100 10 (1000)
I0314 11:24:41.354015 30884 net.cpp:158] Memory required for data: 36054000
I0314 11:24:41.354029 30884 layer_factory.hpp:77] Creating layer ip1_drop1_0_split
I0314 11:24:41.354045 30884 net.cpp:93] Creating Layer ip1_drop1_0_split
I0314 11:24:41.354068 30884 net.cpp:427] ip1_drop1_0_split <- ip1
I0314 11:24:41.354092 30884 net.cpp:401] ip1_drop1_0_split -> ip1_drop1_0_split_0
I0314 11:24:41.354106 30884 net.cpp:401] ip1_drop1_0_split -> ip1_drop1_0_split_1
I0314 11:24:41.354200 30884 net.cpp:143] Setting up ip1_drop1_0_split
I0314 11:24:41.354218 30884 net.cpp:150] Top shape: 100 10 (1000)
I0314 11:24:41.354228 30884 net.cpp:150] Top shape: 100 10 (1000)
I0314 11:24:41.354236 30884 net.cpp:158] Memory required for data: 36062000
I0314 11:24:41.354244 30884 layer_factory.hpp:77] Creating layer accuracy
I0314 11:24:41.354264 30884 net.cpp:93] Creating Layer accuracy
I0314 11:24:41.354279 30884 net.cpp:427] accuracy <- ip1_drop1_0_split_0
I0314 11:24:41.354297 30884 net.cpp:427] accuracy <- label_cifar_1_split_0
I0314 11:24:41.354315 30884 net.cpp:401] accuracy -> accuracy
…
