…
I0302 16:24:24.203251 28731 net.cpp:315] The NetState phase (0) differed from the phase (1) specified by a rule in layer accuracy
I0302 16:24:24.203444 28731 net.cpp:51] Initializing net from parameters: 
name: "CaffeNet"
state {
  phase: TRAIN
}
layer {
  name: "data"
  type: "Data"
  top: "data"
  top: "label"
  include {
    phase: TRAIN
  }
  transform_param {
    mirror: true
    crop_size: 227
    mean_file: "data/ilsvrc12/imagenet_mean.binaryproto"
  }
  data_param {
    source: "examples/imagenet/ilsvrc12_train_lmdb"
    batch_size: 256
    backend: LMDB
  }
}
layer {
  name: "conv1"
  type: "Convolution"
  bottom: "data"
  top: "conv1"
  param {
    lr_mult: 1
    decay_mult: 1
    group_decay_mult: 0
  }
  param {
    lr_mult: 2
    decay_mult: 0
  }
  convolution_param {
    num_output: 96
    kernel_size: 11
    stride: 4
    weight_filler {
      type: "gaussian"
      std: 0.01
    }
    bias_filler {
      type: "constant"
      value: 0
    }
  }
}
layer {
  name: "relu1"
  type: "ReLU"
  bottom: "conv1"
  top: "conv1"
}
layer {
  name: "pool1"
  type: "Pooling"
  bottom: "conv1"
  top: "pool1"
  pooling_param {
    pool: MAX
    kernel_size: 3
    stride: 2
  }
}
layer {
  name: "norm1"
  type: "LRN"
  bottom: "pool1"
  top: "norm1"
  lrn_param {
    local_size: 5
    alpha: 0.0001
    beta: 0.75
  }
}
layer {
  name: "conv2"
  type: "Convolution"
  bottom: "norm1"
  top: "conv2"
  param {
    lr_mult: 1
    decay_mult: 1
    group_decay_mult: 1
  }
  param {
    lr_mult: 2
    decay_mult: 0
  }
  convolution_param {
    num_output: 256
    pad: 2
    kernel_size: 5
    group: 2
    weight_filler {
      type: "gaussian"
      std: 0.01
    }
    bias_filler {
      type: "constant"
      value: 1
    }
  }
}
layer {
  name: "relu2"
  type: "ReLU"
  bottom: "conv2"
  top: "conv2"
}
layer {
  name: "pool2"
  type: "Pooling"
  bottom: "conv2"
  top: "pool2"
  pooling_param {
    pool: MAX
    kernel_size: 3
    stride: 2
  }
}
layer {
  name: "norm2"
  type: "LRN"
  bottom: "pool2"
  top: "norm2"
  lrn_param {
    local_size: 5
    alpha: 0.0001
    beta: 0.75
  }
}
layer {
  name: "conv3"
  type: "Convolution"
  bottom: "norm2"
  top: "conv3"
  param {
    lr_mult: 1
    decay_mult: 1
    group_decay_mult: 1
  }
  param {
    lr_mult: 2
    decay_mult: 0
  }
  convolution_param {
    num_output: 384
    pad: 1
    kernel_size: 3
    weight_filler {
      type: "gaussian"
      std: 0.01
    }
    bias_filler {
      type: "constant"
      value: 0
    }
  }
}
layer {
  name: "relu3"
  type: "ReLU"
  bottom: "conv3"
  top: "conv3"
}
layer {
  name: "conv4"
  type: "Convolution"
  bottom: "conv3"
  top: "conv4"
  param {
    lr_mult: 1
    decay_mult: 1
    group_decay_mult: 1
  }
  param {
    lr_mult: 2
    decay_mult: 0
  }
  convolution_param {
    num_output: 384
    pad: 1
    kernel_size: 3
    group: 2
    weight_filler {
      type: "gaussian"
      std: 0.01
    }
    bias_filler {
      type: "constant"
      value: 1
    }
  }
}
layer {
  name: "relu4"
  type: "ReLU"
  bottom: "conv4"
  top: "conv4"
}
layer {
  name: "conv5"
  type: "Convolution"
  bottom: "conv4"
  top: "conv5"
  param {
    lr_mult: 1
    decay_mult: 1
    group_decay_mult: 1
  }
  param {
    lr_mult: 2
    decay_mult: 0
  }
  convolution_param {
    num_output: 256
    pad: 1
    kernel_size: 3
    group: 2
    weight_filler {
      type: "gaussian"
      std: 0.01
    }
    bias_filler {
      type: "constant"
      value: 1
    }
  }
}
layer {
  name: "relu5"
  type: "ReLU"
  bottom: "conv5"
  top: "conv5"
}
layer {
  name: "pool5"
  type: "Pooling"
  bottom: "conv5"
  top: "pool5"
  pooling_param {
    pool: MAX
    kernel_size: 3
    stride: 2
  }
}
layer {
  name: "fc6"
  type: "InnerProduct"
  bottom: "pool5"
  top: "fc6"
  param {
    lr_mult: 1
    decay_mult: 0
  }
  param {
    lr_mult: 2
    decay_mult: 0
  }
  inner_product_param {
    num_output: 4096
    weight_filler {
      type: "gaussian"
      std: 0.005
    }
    bias_filler {
      type: "constant"
      value: 1
    }
  }
}
layer {
  name: "relu6"
  type: "ReLU"
  bottom: "fc6"
  top: "fc6"
}
layer {
  name: "drop6"
  type: "Dropout"
  bottom: "fc6"
  top: "fc6"
  dropout_param {
    dropout_ratio: 0.5
  }
}
layer {
  name: "fc7"
  type: "InnerProduct"
  bottom: "fc6"
  top: "fc7"
  param {
    lr_mult: 1
    decay_mult: 0
  }
  param {
    lr_mult: 2
    decay_mult: 0
  }
  inner_product_param {
    num_output: 4096
    weight_filler {
      type: "gaussian"
      std: 0.005
    }
    bias_filler {
      type: "constant"
      value: 1
    }
  }
}
layer {
  name: "relu7"
  type: "ReLU"
  bottom: "fc7"
  top: "fc7"
}
layer {
  name: "drop7"
  type: "Dropout"
  bottom: "fc7"
  top: "fc7"
  dropout_param {
    dropout_ratio: 0.5
  }
}
layer {
  name: "fc8"
  type: "InnerProduct"
  bottom: "fc7"
  top: "fc8"
  param {
    lr_mult: 1
    decay_mult: 0
  }
  param {
    lr_mult: 2
    decay_mult: 0
  }
  inner_product_param {
    num_output: 1000
    weight_filler {
      type: "gaussian"
      std: 0.01
    }
    bias_filler {
      type: "constant"
      value: 0
    }
  }
}
layer {
  name: "loss"
  type: "SoftmaxWithLoss"
  bottom: "fc8"
  bottom: "label"
  top: "loss"
}
I0302 16:24:24.203658 28731 layer_factory.hpp:77] Creating layer data
I0302 16:24:24.204459 28731 net.cpp:93] Creating Layer data
I0302 16:24:24.204480 28731 net.cpp:401] data -> data
I0302 16:24:24.204532 28731 net.cpp:401] data -> label
I0302 16:24:24.204560 28731 data_transformer.cpp:25] Loading mean file from: data/ilsvrc12/imagenet_mean.binaryproto
I0302 16:24:24.264039 28742 db_lmdb.cpp:38] Opened lmdb examples/imagenet/ilsvrc12_train_lmdb
I0302 16:24:24.305665 28731 data_layer.cpp:41] output data size: 256,3,227,227
I0302 16:24:24.642770 28731 net.cpp:143] Setting up data
I0302 16:24:24.642841 28731 net.cpp:150] Top shape: 256 3 227 227 (39574272)
I0302 16:24:24.642853 28731 net.cpp:150] Top shape: 256 (256)
I0302 16:24:24.642860 28731 net.cpp:158] Memory required for data: 158298112
I0302 16:24:24.642880 28731 layer_factory.hpp:77] Creating layer conv1
I0302 16:24:24.642923 28731 net.cpp:93] Creating Layer conv1
I0302 16:24:24.642937 28731 net.cpp:427] conv1 <- data
I0302 16:24:24.642962 28731 net.cpp:401] conv1 -> conv1
I0302 16:24:24.816289 28731 net.cpp:143] Setting up conv1
I0302 16:24:24.816346 28731 net.cpp:150] Top shape: 256 96 55 55 (74342400)
I0302 16:24:24.816355 28731 net.cpp:158] Memory required for data: 455667712
I0302 16:24:24.816387 28731 layer_factory.hpp:77] Creating layer relu1
I0302 16:24:24.816409 28731 net.cpp:93] Creating Layer relu1
I0302 16:24:24.816419 28731 net.cpp:427] relu1 <- conv1
I0302 16:24:24.816433 28731 net.cpp:388] relu1 -> conv1 (in-place)
I0302 16:24:24.816638 28731 net.cpp:143] Setting up relu1
I0302 16:24:24.816655 28731 net.cpp:150] Top shape: 256 96 55 55 (74342400)
I0302 16:24:24.816663 28731 net.cpp:158] Memory required for data: 753037312
I0302 16:24:24.816670 28731 layer_factory.hpp:77] Creating layer pool1
I0302 16:24:24.816684 28731 net.cpp:93] Creating Layer pool1
I0302 16:24:24.816692 28731 net.cpp:427] pool1 <- conv1
I0302 16:24:24.816704 28731 net.cpp:401] pool1 -> pool1
I0302 16:24:24.816777 28731 net.cpp:143] Setting up pool1
I0302 16:24:24.816792 28731 net.cpp:150] Top shape: 256 96 27 27 (17915904)
I0302 16:24:24.816812 28731 net.cpp:158] Memory required for data: 824700928
I0302 16:24:24.816833 28731 layer_factory.hpp:77] Creating layer norm1
I0302 16:24:24.816854 28731 net.cpp:93] Creating Layer norm1
I0302 16:24:24.816861 28731 net.cpp:427] norm1 <- pool1
I0302 16:24:24.816871 28731 net.cpp:401] norm1 -> norm1
I0302 16:24:24.817246 28731 net.cpp:143] Setting up norm1
I0302 16:24:24.817265 28731 net.cpp:150] Top shape: 256 96 27 27 (17915904)
I0302 16:24:24.817272 28731 net.cpp:158] Memory required for data: 896364544
I0302 16:24:24.817281 28731 layer_factory.hpp:77] Creating layer conv2
I0302 16:24:24.817301 28731 net.cpp:93] Creating Layer conv2
I0302 16:24:24.817309 28731 net.cpp:427] conv2 <- norm1
I0302 16:24:24.817320 28731 net.cpp:401] conv2 -> conv2
I0302 16:24:24.831478 28731 net.cpp:143] Setting up conv2
I0302 16:24:24.831529 28731 net.cpp:150] Top shape: 256 256 27 27 (47775744)
I0302 16:24:24.831537 28731 net.cpp:158] Memory required for data: 1087467520
I0302 16:24:24.831562 28731 layer_factory.hpp:77] Creating layer relu2
I0302 16:24:24.831579 28731 net.cpp:93] Creating Layer relu2
I0302 16:24:24.831588 28731 net.cpp:427] relu2 <- conv2
I0302 16:24:24.831604 28731 net.cpp:388] relu2 -> conv2 (in-place)
I0302 16:24:24.831815 28731 net.cpp:143] Setting up relu2
I0302 16:24:24.831833 28731 net.cpp:150] Top shape: 256 256 27 27 (47775744)
I0302 16:24:24.831841 28731 net.cpp:158] Memory required for data: 1278570496
I0302 16:24:24.831850 28731 layer_factory.hpp:77] Creating layer pool2
I0302 16:24:24.831861 28731 net.cpp:93] Creating Layer pool2
I0302 16:24:24.831869 28731 net.cpp:427] pool2 <- conv2
I0302 16:24:24.831879 28731 net.cpp:401] pool2 -> pool2
I0302 16:24:24.831938 28731 net.cpp:143] Setting up pool2
I0302 16:24:24.831950 28731 net.cpp:150] Top shape: 256 256 13 13 (11075584)
I0302 16:24:24.831957 28731 net.cpp:158] Memory required for data: 1322872832
I0302 16:24:24.831964 28731 layer_factory.hpp:77] Creating layer norm2
I0302 16:24:24.831982 28731 net.cpp:93] Creating Layer norm2
I0302 16:24:24.831990 28731 net.cpp:427] norm2 <- pool2
I0302 16:24:24.832002 28731 net.cpp:401] norm2 -> norm2
I0302 16:24:24.832422 28731 net.cpp:143] Setting up norm2
I0302 16:24:24.832442 28731 net.cpp:150] Top shape: 256 256 13 13 (11075584)
I0302 16:24:24.832449 28731 net.cpp:158] Memory required for data: 1367175168
I0302 16:24:24.832458 28731 layer_factory.hpp:77] Creating layer conv3
I0302 16:24:24.832479 28731 net.cpp:93] Creating Layer conv3
I0302 16:24:24.832487 28731 net.cpp:427] conv3 <- norm2
I0302 16:24:24.832501 28731 net.cpp:401] conv3 -> conv3
I0302 16:24:24.866047 28731 net.cpp:143] Setting up conv3
I0302 16:24:24.866102 28731 net.cpp:150] Top shape: 256 384 13 13 (16613376)
I0302 16:24:24.866111 28731 net.cpp:158] Memory required for data: 1433628672
I0302 16:24:24.866137 28731 layer_factory.hpp:77] Creating layer relu3
I0302 16:24:24.866158 28731 net.cpp:93] Creating Layer relu3
I0302 16:24:24.866168 28731 net.cpp:427] relu3 <- conv3
I0302 16:24:24.866180 28731 net.cpp:388] relu3 -> conv3 (in-place)
I0302 16:24:24.866529 28731 net.cpp:143] Setting up relu3
I0302 16:24:24.866546 28731 net.cpp:150] Top shape: 256 384 13 13 (16613376)
I0302 16:24:24.866556 28731 net.cpp:158] Memory required for data: 1500082176
I0302 16:24:24.866565 28731 layer_factory.hpp:77] Creating layer conv4
I0302 16:24:24.866586 28731 net.cpp:93] Creating Layer conv4
I0302 16:24:24.866595 28731 net.cpp:427] conv4 <- conv3
I0302 16:24:24.866607 28731 net.cpp:401] conv4 -> conv4
I0302 16:24:24.893019 28731 net.cpp:143] Setting up conv4
I0302 16:24:24.893069 28731 net.cpp:150] Top shape: 256 384 13 13 (16613376)
I0302 16:24:24.893079 28731 net.cpp:158] Memory required for data: 1566535680
I0302 16:24:24.893095 28731 layer_factory.hpp:77] Creating layer relu4
I0302 16:24:24.893111 28731 net.cpp:93] Creating Layer relu4
I0302 16:24:24.893121 28731 net.cpp:427] relu4 <- conv4
I0302 16:24:24.893137 28731 net.cpp:388] relu4 -> conv4 (in-place)
I0302 16:24:24.893344 28731 net.cpp:143] Setting up relu4
I0302 16:24:24.893359 28731 net.cpp:150] Top shape: 256 384 13 13 (16613376)
I0302 16:24:24.893389 28731 net.cpp:158] Memory required for data: 1632989184
I0302 16:24:24.893398 28731 layer_factory.hpp:77] Creating layer conv5
I0302 16:24:24.893419 28731 net.cpp:93] Creating Layer conv5
I0302 16:24:24.893429 28731 net.cpp:427] conv5 <- conv4
I0302 16:24:24.893440 28731 net.cpp:401] conv5 -> conv5
I0302 16:24:24.905647 28743 blocking_queue.cpp:50] Waiting for data
I0302 16:24:24.911767 28731 net.cpp:143] Setting up conv5
I0302 16:24:24.911789 28731 net.cpp:150] Top shape: 256 256 13 13 (11075584)
I0302 16:24:24.911798 28731 net.cpp:158] Memory required for data: 1677291520
I0302 16:24:24.911818 28731 layer_factory.hpp:77] Creating layer relu5
I0302 16:24:24.911831 28731 net.cpp:93] Creating Layer relu5
I0302 16:24:24.911839 28731 net.cpp:427] relu5 <- conv5
I0302 16:24:24.911849 28731 net.cpp:388] relu5 -> conv5 (in-place)
I0302 16:24:24.912045 28731 net.cpp:143] Setting up relu5
I0302 16:24:24.912060 28731 net.cpp:150] Top shape: 256 256 13 13 (11075584)
I0302 16:24:24.912067 28731 net.cpp:158] Memory required for data: 1721593856
I0302 16:24:24.912075 28731 layer_factory.hpp:77] Creating layer pool5
I0302 16:24:24.912087 28731 net.cpp:93] Creating Layer pool5
I0302 16:24:24.912096 28731 net.cpp:427] pool5 <- conv5
I0302 16:24:24.912107 28731 net.cpp:401] pool5 -> pool5
I0302 16:24:24.912168 28731 net.cpp:143] Setting up pool5
I0302 16:24:24.912180 28731 net.cpp:150] Top shape: 256 256 6 6 (2359296)
I0302 16:24:24.912188 28731 net.cpp:158] Memory required for data: 1731031040
I0302 16:24:24.912194 28731 layer_factory.hpp:77] Creating layer fc6
I0302 16:24:24.912212 28731 net.cpp:93] Creating Layer fc6
I0302 16:24:24.912220 28731 net.cpp:427] fc6 <- pool5
I0302 16:24:24.912232 28731 net.cpp:401] fc6 -> fc6
I0302 16:24:26.288331 28731 net.cpp:143] Setting up fc6
I0302 16:24:26.288390 28731 net.cpp:150] Top shape: 256 4096 (1048576)
I0302 16:24:26.288398 28731 net.cpp:158] Memory required for data: 1735225344
I0302 16:24:26.288419 28731 layer_factory.hpp:77] Creating layer relu6
I0302 16:24:26.288437 28731 net.cpp:93] Creating Layer relu6
I0302 16:24:26.288447 28731 net.cpp:427] relu6 <- fc6
I0302 16:24:26.288463 28731 net.cpp:388] relu6 -> fc6 (in-place)
I0302 16:24:26.288998 28731 net.cpp:143] Setting up relu6
I0302 16:24:26.289016 28731 net.cpp:150] Top shape: 256 4096 (1048576)
I0302 16:24:26.289023 28731 net.cpp:158] Memory required for data: 1739419648
I0302 16:24:26.289031 28731 layer_factory.hpp:77] Creating layer drop6
I0302 16:24:26.289048 28731 net.cpp:93] Creating Layer drop6
I0302 16:24:26.289057 28731 net.cpp:427] drop6 <- fc6
I0302 16:24:26.289065 28731 net.cpp:388] drop6 -> fc6 (in-place)
I0302 16:24:26.289111 28731 net.cpp:143] Setting up drop6
I0302 16:24:26.289124 28731 net.cpp:150] Top shape: 256 4096 (1048576)
I0302 16:24:26.289131 28731 net.cpp:158] Memory required for data: 1743613952
I0302 16:24:26.289139 28731 layer_factory.hpp:77] Creating layer fc7
I0302 16:24:26.289154 28731 net.cpp:93] Creating Layer fc7
I0302 16:24:26.289160 28731 net.cpp:427] fc7 <- fc6
I0302 16:24:26.289173 28731 net.cpp:401] fc7 -> fc7
I0302 16:24:26.904450 28731 net.cpp:143] Setting up fc7
I0302 16:24:26.904512 28731 net.cpp:150] Top shape: 256 4096 (1048576)
I0302 16:24:26.904522 28731 net.cpp:158] Memory required for data: 1747808256
I0302 16:24:26.904547 28731 layer_factory.hpp:77] Creating layer relu7
I0302 16:24:26.904570 28731 net.cpp:93] Creating Layer relu7
I0302 16:24:26.904582 28731 net.cpp:427] relu7 <- fc7
I0302 16:24:26.904600 28731 net.cpp:388] relu7 -> fc7 (in-place)
I0302 16:24:26.904963 28731 net.cpp:143] Setting up relu7
I0302 16:24:26.904978 28731 net.cpp:150] Top shape: 256 4096 (1048576)
I0302 16:24:26.904986 28731 net.cpp:158] Memory required for data: 1752002560
I0302 16:24:26.904994 28731 layer_factory.hpp:77] Creating layer drop7
I0302 16:24:26.905009 28731 net.cpp:93] Creating Layer drop7
I0302 16:24:26.905017 28731 net.cpp:427] drop7 <- fc7
I0302 16:24:26.905027 28731 net.cpp:388] drop7 -> fc7 (in-place)
I0302 16:24:26.905063 28731 net.cpp:143] Setting up drop7
I0302 16:24:26.905088 28731 net.cpp:150] Top shape: 256 4096 (1048576)
I0302 16:24:26.905112 28731 net.cpp:158] Memory required for data: 1756196864
I0302 16:24:26.905120 28731 layer_factory.hpp:77] Creating layer fc8
I0302 16:24:26.905135 28731 net.cpp:93] Creating Layer fc8
I0302 16:24:26.905143 28731 net.cpp:427] fc8 <- fc7
I0302 16:24:26.905156 28731 net.cpp:401] fc8 -> fc8
I0302 16:24:27.054780 28731 net.cpp:143] Setting up fc8
I0302 16:24:27.054836 28731 net.cpp:150] Top shape: 256 1000 (256000)
I0302 16:24:27.054844 28731 net.cpp:158] Memory required for data: 1757220864
I0302 16:24:27.054864 28731 layer_factory.hpp:77] Creating layer loss
I0302 16:24:27.054883 28731 net.cpp:93] Creating Layer loss
I0302 16:24:27.054893 28731 net.cpp:427] loss <- fc8
I0302 16:24:27.054908 28731 net.cpp:427] loss <- label
I0302 16:24:27.054929 28731 net.cpp:401] loss -> loss
I0302 16:24:27.054960 28731 layer_factory.hpp:77] Creating layer loss
…
I0302 16:24:27.057521 28731 net.cpp:315] The NetState phase (1) differed from the phase (0) specified by a rule in layer data
I0302 16:24:27.057745 28731 net.cpp:51] Initializing net from parameters: 
name: "CaffeNet"
state {
  phase: TEST
}
layer {
  name: "data"
  type: "Data"
  top: "data"
  top: "label"
  include {
    phase: TEST
  }
  transform_param {
    mirror: false
    crop_size: 227
    mean_file: "data/ilsvrc12/imagenet_mean.binaryproto"
  }
  data_param {
    source: "examples/imagenet/ilsvrc12_val_lmdb"
    batch_size: 50
    backend: LMDB
  }
}
layer {
  name: "conv1"
  type: "Convolution"
  bottom: "data"
  top: "conv1"
  param {
    lr_mult: 1
    decay_mult: 1
    group_decay_mult: 0
  }
  param {
    lr_mult: 2
    decay_mult: 0
  }
  convolution_param {
    num_output: 96
    kernel_size: 11
    stride: 4
    weight_filler {
      type: "gaussian"
      std: 0.01
    }
    bias_filler {
      type: "constant"
      value: 0
    }
  }
}
layer {
  name: "relu1"
  type: "ReLU"
  bottom: "conv1"
  top: "conv1"
}
layer {
  name: "pool1"
  type: "Pooling"
  bottom: "conv1"
  top: "pool1"
  pooling_param {
    pool: MAX
    kernel_size: 3
    stride: 2
  }
}
layer {
  name: "norm1"
  type: "LRN"
  bottom: "pool1"
  top: "norm1"
  lrn_param {
    local_size: 5
    alpha: 0.0001
    beta: 0.75
  }
}
layer {
  name: "conv2"
  type: "Convolution"
  bottom: "norm1"
  top: "conv2"
  param {
    lr_mult: 1
    decay_mult: 1
    group_decay_mult: 1
  }
  param {
    lr_mult: 2
    decay_mult: 0
  }
  convolution_param {
    num_output: 256
    pad: 2
    kernel_size: 5
    group: 2
    weight_filler {
      type: "gaussian"
      std: 0.01
    }
    bias_filler {
      type: "constant"
      value: 1
    }
  }
}
layer {
  name: "relu2"
  type: "ReLU"
  bottom: "conv2"
  top: "conv2"
}
layer {
  name: "pool2"
  type: "Pooling"
  bottom: "conv2"
  top: "pool2"
  pooling_param {
    pool: MAX
    kernel_size: 3
    stride: 2
  }
}
layer {
  name: "norm2"
  type: "LRN"
  bottom: "pool2"
  top: "norm2"
  lrn_param {
    local_size: 5
    alpha: 0.0001
    beta: 0.75
  }
}
layer {
  name: "conv3"
  type: "Convolution"
  bottom: "norm2"
  top: "conv3"
  param {
    lr_mult: 1
    decay_mult: 1
    group_decay_mult: 1
  }
  param {
    lr_mult: 2
    decay_mult: 0
  }
  convolution_param {
    num_output: 384
    pad: 1
    kernel_size: 3
    weight_filler {
      type: "gaussian"
      std: 0.01
    }
    bias_filler {
      type: "constant"
      value: 0
    }
  }
}
layer {
  name: "relu3"
  type: "ReLU"
  bottom: "conv3"
  top: "conv3"
}
layer {
  name: "conv4"
  type: "Convolution"
  bottom: "conv3"
  top: "conv4"
  param {
    lr_mult: 1
    decay_mult: 1
    group_decay_mult: 1
  }
  param {
    lr_mult: 2
    decay_mult: 0
  }
  convolution_param {
    num_output: 384
    pad: 1
    kernel_size: 3
    group: 2
    weight_filler {
      type: "gaussian"
      std: 0.01
    }
    bias_filler {
      type: "constant"
      value: 1
    }
  }
}
layer {
  name: "relu4"
  type: "ReLU"
  bottom: "conv4"
  top: "conv4"
}
layer {
  name: "conv5"
  type: "Convolution"
  bottom: "conv4"
  top: "conv5"
  param {
    lr_mult: 1
    decay_mult: 1
    group_decay_mult: 1
  }
  param {
    lr_mult: 2
    decay_mult: 0
  }
  convolution_param {
    num_output: 256
    pad: 1
    kernel_size: 3
    group: 2
    weight_filler {
      type: "gaussian"
      std: 0.01
    }
    bias_filler {
      type: "constant"
      value: 1
    }
  }
}
layer {
  name: "relu5"
  type: "ReLU"
  bottom: "conv5"
  top: "conv5"
}
layer {
  name: "pool5"
  type: "Pooling"
  bottom: "conv5"
  top: "pool5"
  pooling_param {
    pool: MAX
    kernel_size: 3
    stride: 2
  }
}
layer {
  name: "fc6"
  type: "InnerProduct"
  bottom: "pool5"
  top: "fc6"
  param {
    lr_mult: 1
    decay_mult: 0
  }
  param {
    lr_mult: 2
    decay_mult: 0
  }
  inner_product_param {
    num_output: 4096
    weight_filler {
      type: "gaussian"
      std: 0.005
    }
    bias_filler {
      type: "constant"
      value: 1
    }
  }
}
layer {
  name: "relu6"
  type: "ReLU"
  bottom: "fc6"
  top: "fc6"
}
layer {
  name: "drop6"
  type: "Dropout"
  bottom: "fc6"
  top: "fc6"
  dropout_param {
    dropout_ratio: 0.5
  }
}
layer {
  name: "fc7"
  type: "InnerProduct"
  bottom: "fc6"
  top: "fc7"
  param {
    lr_mult: 1
    decay_mult: 0
  }
  param {
    lr_mult: 2
    decay_mult: 0
  }
  inner_product_param {
    num_output: 4096
    weight_filler {
      type: "gaussian"
      std: 0.005
    }
    bias_filler {
      type: "constant"
      value: 1
    }
  }
}
layer {
  name: "relu7"
  type: "ReLU"
  bottom: "fc7"
  top: "fc7"
}
layer {
  name: "drop7"
  type: "Dropout"
  bottom: "fc7"
  top: "fc7"
  dropout_param {
    dropout_ratio: 0.5
  }
}
layer {
  name: "fc8"
  type: "InnerProduct"
  bottom: "fc7"
  top: "fc8"
  param {
    lr_mult: 1
    decay_mult: 0
  }
  param {
    lr_mult: 2
    decay_mult: 0
  }
  inner_product_param {
    num_output: 1000
    weight_filler {
      type: "gaussian"
      std: 0.01
    }
    bias_filler {
      type: "constant"
      value: 0
    }
  }
}
layer {
  name: "accuracy"
  type: "Accuracy"
  bottom: "fc8"
  bottom: "label"
  top: "accuracy"
  include {
    phase: TEST
  }
}
layer {
  name: "loss"
  type: "SoftmaxWithLoss"
  bottom: "fc8"
  bottom: "label"
  top: "loss"
}
I0302 16:24:27.057921 28731 layer_factory.hpp:77] Creating layer data
I0302 16:24:27.058043 28731 net.cpp:93] Creating Layer data
I0302 16:24:27.058059 28731 net.cpp:401] data -> data
I0302 16:24:27.058074 28731 net.cpp:401] data -> label
I0302 16:24:27.058089 28731 data_transformer.cpp:25] Loading mean file from: data/ilsvrc12/imagenet_mean.binaryproto
I0302 16:24:27.061100 28744 db_lmdb.cpp:38] Opened lmdb examples/imagenet/ilsvrc12_val_lmdb
I0302 16:24:27.061717 28731 data_layer.cpp:41] output data size: 50,3,227,227
I0302 16:24:27.122344 28731 net.cpp:143] Setting up data
I0302 16:24:27.122405 28731 net.cpp:150] Top shape: 50 3 227 227 (7729350)
I0302 16:24:27.122416 28731 net.cpp:150] Top shape: 50 (50)
I0302 16:24:27.122422 28731 net.cpp:158] Memory required for data: 30917600
I0302 16:24:27.122437 28731 layer_factory.hpp:77] Creating layer label_data_1_split
I0302 16:24:27.122462 28731 net.cpp:93] Creating Layer label_data_1_split
I0302 16:24:27.122472 28731 net.cpp:427] label_data_1_split <- label
I0302 16:24:27.122488 28731 net.cpp:401] label_data_1_split -> label_data_1_split_0
I0302 16:24:27.122509 28731 net.cpp:401] label_data_1_split -> label_data_1_split_1
I0302 16:24:27.122575 28731 net.cpp:143] Setting up label_data_1_split
I0302 16:24:27.122588 28731 net.cpp:150] Top shape: 50 (50)
I0302 16:24:27.122597 28731 net.cpp:150] Top shape: 50 (50)
I0302 16:24:27.122604 28731 net.cpp:158] Memory required for data: 30918000
I0302 16:24:27.122611 28731 layer_factory.hpp:77] Creating layer conv1
I0302 16:24:27.122635 28731 net.cpp:93] Creating Layer conv1
I0302 16:24:27.122644 28731 net.cpp:427] conv1 <- data
I0302 16:24:27.122655 28731 net.cpp:401] conv1 -> conv1
I0302 16:24:27.125453 28731 net.cpp:143] Setting up conv1
I0302 16:24:27.125474 28731 net.cpp:150] Top shape: 50 96 55 55 (14520000)
I0302 16:24:27.125483 28731 net.cpp:158] Memory required for data: 88998000
I0302 16:24:27.125500 28731 layer_factory.hpp:77] Creating layer relu1
I0302 16:24:27.125514 28731 net.cpp:93] Creating Layer relu1
I0302 16:24:27.125522 28731 net.cpp:427] relu1 <- conv1
I0302 16:24:27.125532 28731 net.cpp:388] relu1 -> conv1 (in-place)
I0302 16:24:27.125730 28731 net.cpp:143] Setting up relu1
I0302 16:24:27.125744 28731 net.cpp:150] Top shape: 50 96 55 55 (14520000)
I0302 16:24:27.125751 28731 net.cpp:158] Memory required for data: 147078000
I0302 16:24:27.125759 28731 layer_factory.hpp:77] Creating layer pool1
I0302 16:24:27.125773 28731 net.cpp:93] Creating Layer pool1
I0302 16:24:27.125782 28731 net.cpp:427] pool1 <- conv1
I0302 16:24:27.125792 28731 net.cpp:401] pool1 -> pool1
I0302 16:24:27.125870 28731 net.cpp:143] Setting up pool1
I0302 16:24:27.125885 28731 net.cpp:150] Top shape: 50 96 27 27 (3499200)
I0302 16:24:27.125891 28731 net.cpp:158] Memory required for data: 161074800
I0302 16:24:27.125900 28731 layer_factory.hpp:77] Creating layer norm1
I0302 16:24:27.125913 28731 net.cpp:93] Creating Layer norm1
I0302 16:24:27.125921 28731 net.cpp:427] norm1 <- pool1
I0302 16:24:27.125931 28731 net.cpp:401] norm1 -> norm1
I0302 16:24:27.126395 28731 net.cpp:143] Setting up norm1
I0302 16:24:27.126412 28731 net.cpp:150] Top shape: 50 96 27 27 (3499200)
I0302 16:24:27.126420 28731 net.cpp:158] Memory required for data: 175071600
I0302 16:24:27.126430 28731 layer_factory.hpp:77] Creating layer conv2
I0302 16:24:27.126446 28731 net.cpp:93] Creating Layer conv2
I0302 16:24:27.126453 28731 net.cpp:427] conv2 <- norm1
I0302 16:24:27.126466 28731 net.cpp:401] conv2 -> conv2
I0302 16:24:27.142122 28731 net.cpp:143] Setting up conv2
I0302 16:24:27.142148 28731 net.cpp:150] Top shape: 50 256 27 27 (9331200)
I0302 16:24:27.142184 28731 net.cpp:158] Memory required for data: 212396400
I0302 16:24:27.142199 28731 layer_factory.hpp:77] Creating layer relu2
I0302 16:24:27.142212 28731 net.cpp:93] Creating Layer relu2
I0302 16:24:27.142220 28731 net.cpp:427] relu2 <- conv2
I0302 16:24:27.142230 28731 net.cpp:388] relu2 -> conv2 (in-place)
I0302 16:24:27.142577 28731 net.cpp:143] Setting up relu2
I0302 16:24:27.142596 28731 net.cpp:150] Top shape: 50 256 27 27 (9331200)
I0302 16:24:27.142603 28731 net.cpp:158] Memory required for data: 249721200
I0302 16:24:27.142611 28731 layer_factory.hpp:77] Creating layer pool2
I0302 16:24:27.142624 28731 net.cpp:93] Creating Layer pool2
I0302 16:24:27.142632 28731 net.cpp:427] pool2 <- conv2
I0302 16:24:27.142642 28731 net.cpp:401] pool2 -> pool2
I0302 16:24:27.142699 28731 net.cpp:143] Setting up pool2
I0302 16:24:27.142714 28731 net.cpp:150] Top shape: 50 256 13 13 (2163200)
I0302 16:24:27.142720 28731 net.cpp:158] Memory required for data: 258374000
I0302 16:24:27.142727 28731 layer_factory.hpp:77] Creating layer norm2
I0302 16:24:27.142740 28731 net.cpp:93] Creating Layer norm2
I0302 16:24:27.142747 28731 net.cpp:427] norm2 <- pool2
I0302 16:24:27.142757 28731 net.cpp:401] norm2 -> norm2
I0302 16:24:27.142984 28731 net.cpp:143] Setting up norm2
I0302 16:24:27.143000 28731 net.cpp:150] Top shape: 50 256 13 13 (2163200)
I0302 16:24:27.143007 28731 net.cpp:158] Memory required for data: 267026800
I0302 16:24:27.143015 28731 layer_factory.hpp:77] Creating layer conv3
I0302 16:24:27.143030 28731 net.cpp:93] Creating Layer conv3
I0302 16:24:27.143038 28731 net.cpp:427] conv3 <- norm2
I0302 16:24:27.143049 28731 net.cpp:401] conv3 -> conv3
I0302 16:24:27.178282 28731 net.cpp:143] Setting up conv3
I0302 16:24:27.178319 28731 net.cpp:150] Top shape: 50 384 13 13 (3244800)
I0302 16:24:27.178328 28731 net.cpp:158] Memory required for data: 280006000
I0302 16:24:27.178347 28731 layer_factory.hpp:77] Creating layer relu3
I0302 16:24:27.178361 28731 net.cpp:93] Creating Layer relu3
I0302 16:24:27.178370 28731 net.cpp:427] relu3 <- conv3
I0302 16:24:27.178381 28731 net.cpp:388] relu3 -> conv3 (in-place)
I0302 16:24:27.178730 28731 net.cpp:143] Setting up relu3
I0302 16:24:27.178747 28731 net.cpp:150] Top shape: 50 384 13 13 (3244800)
I0302 16:24:27.178755 28731 net.cpp:158] Memory required for data: 292985200
I0302 16:24:27.178762 28731 layer_factory.hpp:77] Creating layer conv4
I0302 16:24:27.178779 28731 net.cpp:93] Creating Layer conv4
I0302 16:24:27.178788 28731 net.cpp:427] conv4 <- conv3
I0302 16:24:27.178800 28731 net.cpp:401] conv4 -> conv4
I0302 16:24:27.205034 28731 net.cpp:143] Setting up conv4
I0302 16:24:27.205057 28731 net.cpp:150] Top shape: 50 384 13 13 (3244800)
I0302 16:24:27.205065 28731 net.cpp:158] Memory required for data: 305964400
I0302 16:24:27.205077 28731 layer_factory.hpp:77] Creating layer relu4
I0302 16:24:27.205090 28731 net.cpp:93] Creating Layer relu4
I0302 16:24:27.205097 28731 net.cpp:427] relu4 <- conv4
I0302 16:24:27.205108 28731 net.cpp:388] relu4 -> conv4 (in-place)
I0302 16:24:27.205461 28731 net.cpp:143] Setting up relu4
I0302 16:24:27.205478 28731 net.cpp:150] Top shape: 50 384 13 13 (3244800)
I0302 16:24:27.205485 28731 net.cpp:158] Memory required for data: 318943600
I0302 16:24:27.205493 28731 layer_factory.hpp:77] Creating layer conv5
I0302 16:24:27.205510 28731 net.cpp:93] Creating Layer conv5
I0302 16:24:27.205518 28731 net.cpp:427] conv5 <- conv4
I0302 16:24:27.205531 28731 net.cpp:401] conv5 -> conv5
I0302 16:24:27.223558 28731 net.cpp:143] Setting up conv5
I0302 16:24:27.223578 28731 net.cpp:150] Top shape: 50 256 13 13 (2163200)
I0302 16:24:27.223587 28731 net.cpp:158] Memory required for data: 327596400
I0302 16:24:27.223603 28731 layer_factory.hpp:77] Creating layer relu5
I0302 16:24:27.223614 28731 net.cpp:93] Creating Layer relu5
I0302 16:24:27.223623 28731 net.cpp:427] relu5 <- conv5
I0302 16:24:27.223633 28731 net.cpp:388] relu5 -> conv5 (in-place)
I0302 16:24:27.223960 28731 net.cpp:143] Setting up relu5
I0302 16:24:27.223989 28731 net.cpp:150] Top shape: 50 256 13 13 (2163200)
I0302 16:24:27.224009 28731 net.cpp:158] Memory required for data: 336249200
I0302 16:24:27.224019 28731 layer_factory.hpp:77] Creating layer pool5
I0302 16:24:27.224033 28731 net.cpp:93] Creating Layer pool5
I0302 16:24:27.224041 28731 net.cpp:427] pool5 <- conv5
I0302 16:24:27.224052 28731 net.cpp:401] pool5 -> pool5
I0302 16:24:27.224112 28731 net.cpp:143] Setting up pool5
I0302 16:24:27.224124 28731 net.cpp:150] Top shape: 50 256 6 6 (460800)
I0302 16:24:27.224131 28731 net.cpp:158] Memory required for data: 338092400
I0302 16:24:27.224138 28731 layer_factory.hpp:77] Creating layer fc6
I0302 16:24:27.224153 28731 net.cpp:93] Creating Layer fc6
I0302 16:24:27.224160 28731 net.cpp:427] fc6 <- pool5
I0302 16:24:27.224170 28731 net.cpp:401] fc6 -> fc6
I0302 16:24:28.605032 28731 net.cpp:143] Setting up fc6
I0302 16:24:28.605093 28731 net.cpp:150] Top shape: 50 4096 (204800)
I0302 16:24:28.605103 28731 net.cpp:158] Memory required for data: 338911600
I0302 16:24:28.605125 28731 layer_factory.hpp:77] Creating layer relu6
I0302 16:24:28.605147 28731 net.cpp:93] Creating Layer relu6
I0302 16:24:28.605159 28731 net.cpp:427] relu6 <- fc6
I0302 16:24:28.605175 28731 net.cpp:388] relu6 -> fc6 (in-place)
I0302 16:24:28.605885 28731 net.cpp:143] Setting up relu6
I0302 16:24:28.605901 28731 net.cpp:150] Top shape: 50 4096 (204800)
I0302 16:24:28.605909 28731 net.cpp:158] Memory required for data: 339730800
I0302 16:24:28.605917 28731 layer_factory.hpp:77] Creating layer drop6
I0302 16:24:28.605933 28731 net.cpp:93] Creating Layer drop6
I0302 16:24:28.605942 28731 net.cpp:427] drop6 <- fc6
I0302 16:24:28.605952 28731 net.cpp:388] drop6 -> fc6 (in-place)
I0302 16:24:28.606001 28731 net.cpp:143] Setting up drop6
I0302 16:24:28.606014 28731 net.cpp:150] Top shape: 50 4096 (204800)
I0302 16:24:28.606022 28731 net.cpp:158] Memory required for data: 340550000
I0302 16:24:28.606030 28731 layer_factory.hpp:77] Creating layer fc7
I0302 16:24:28.606047 28731 net.cpp:93] Creating Layer fc7
I0302 16:24:28.606055 28731 net.cpp:427] fc7 <- fc6
I0302 16:24:28.606066 28731 net.cpp:401] fc7 -> fc7
I0302 16:24:29.259872 28731 net.cpp:143] Setting up fc7
I0302 16:24:29.259917 28731 net.cpp:150] Top shape: 50 4096 (204800)
I0302 16:24:29.259927 28731 net.cpp:158] Memory required for data: 341369200
I0302 16:24:29.259943 28731 layer_factory.hpp:77] Creating layer relu7
I0302 16:24:29.259958 28731 net.cpp:93] Creating Layer relu7
I0302 16:24:29.259968 28731 net.cpp:427] relu7 <- fc7
I0302 16:24:29.259982 28731 net.cpp:388] relu7 -> fc7 (in-place)
I0302 16:24:29.260249 28731 net.cpp:143] Setting up relu7
I0302 16:24:29.260267 28731 net.cpp:150] Top shape: 50 4096 (204800)
I0302 16:24:29.260275 28731 net.cpp:158] Memory required for data: 342188400
I0302 16:24:29.260283 28731 layer_factory.hpp:77] Creating layer drop7
I0302 16:24:29.260298 28731 net.cpp:93] Creating Layer drop7
I0302 16:24:29.260305 28731 net.cpp:427] drop7 <- fc7
I0302 16:24:29.260316 28731 net.cpp:388] drop7 -> fc7 (in-place)
I0302 16:24:29.260363 28731 net.cpp:143] Setting up drop7
I0302 16:24:29.260376 28731 net.cpp:150] Top shape: 50 4096 (204800)
I0302 16:24:29.260385 28731 net.cpp:158] Memory required for data: 343007600
I0302 16:24:29.260392 28731 layer_factory.hpp:77] Creating layer fc8
I0302 16:24:29.260408 28731 net.cpp:93] Creating Layer fc8
I0302 16:24:29.260416 28731 net.cpp:427] fc8 <- fc7
I0302 16:24:29.260428 28731 net.cpp:401] fc8 -> fc8
I0302 16:24:29.411105 28731 net.cpp:143] Setting up fc8
I0302 16:24:29.411170 28731 net.cpp:150] Top shape: 50 1000 (50000)
I0302 16:24:29.411178 28731 net.cpp:158] Memory required for data: 343207600
I0302 16:24:29.411200 28731 layer_factory.hpp:77] Creating layer fc8_fc8_0_split
I0302 16:24:29.411221 28731 net.cpp:93] Creating Layer fc8_fc8_0_split
I0302 16:24:29.411232 28731 net.cpp:427] fc8_fc8_0_split <- fc8
I0302 16:24:29.411248 28731 net.cpp:401] fc8_fc8_0_split -> fc8_fc8_0_split_0
I0302 16:24:29.411268 28731 net.cpp:401] fc8_fc8_0_split -> fc8_fc8_0_split_1
I0302 16:24:29.411345 28731 net.cpp:143] Setting up fc8_fc8_0_split
I0302 16:24:29.411375 28731 net.cpp:150] Top shape: 50 1000 (50000)
I0302 16:24:29.411383 28731 net.cpp:150] Top shape: 50 1000 (50000)
I0302 16:24:29.411391 28731 net.cpp:158] Memory required for data: 343607600
I0302 16:24:29.411397 28731 layer_factory.hpp:77] Creating layer accuracy
I0302 16:24:29.411412 28731 net.cpp:93] Creating Layer accuracy
I0302 16:24:29.411420 28731 net.cpp:427] accuracy <- fc8_fc8_0_split_0
I0302 16:24:29.411430 28731 net.cpp:427] accuracy <- label_data_1_split_0
I0302 16:24:29.411440 28731 net.cpp:401] accuracy -> accuracy
…
