…
I0330 14:00:07.833305 94940 net.cpp:315] The NetState phase (0) differed from the phase (1) specified by a rule in layer accuracy
I0330 14:00:07.833511 94940 net.cpp:51] Initializing net from parameters: 
name: "CaffeNet"
state {
  phase: TRAIN
}
layer {
  name: "data"
  type: "Data"
  top: "data"
  top: "label"
  include {
    phase: TRAIN
  }
  transform_param {
    mirror: true
    crop_size: 227
    mean_file: "data/ilsvrc12/imagenet_mean.binaryproto"
  }
  data_param {
    source: "examples/imagenet/ilsvrc12_train_lmdb"
    batch_size: 256
    backend: LMDB
  }
}
layer {
  name: "conv1"
  type: "Convolution"
  bottom: "data"
  top: "conv1"
  param {
    lr_mult: 1
    decay_mult: 1
  }
  param {
    lr_mult: 2
    decay_mult: 0
  }
  connectivity_mode: DISCONNECTED_ELTWISE
  convolution_param {
    num_output: 96
    kernel_size: 11
    stride: 4
    weight_filler {
      type: "gaussian"
      std: 0.01
    }
    bias_filler {
      type: "constant"
      value: 0
    }
  }
}
layer {
  name: "relu1"
  type: "ReLU"
  bottom: "conv1"
  top: "conv1"
}
layer {
  name: "pool1"
  type: "Pooling"
  bottom: "conv1"
  top: "pool1"
  pooling_param {
    pool: MAX
    kernel_size: 3
    stride: 2
  }
}
layer {
  name: "norm1"
  type: "LRN"
  bottom: "pool1"
  top: "norm1"
  lrn_param {
    local_size: 5
    alpha: 0.0001
    beta: 0.75
  }
}
layer {
  name: "conv2"
  type: "Convolution"
  bottom: "norm1"
  top: "conv2"
  param {
    lr_mult: 1
    decay_mult: 1
  }
  param {
    lr_mult: 2
    decay_mult: 0
  }
  connectivity_mode: DISCONNECTED_ELTWISE
  convolution_param {
    num_output: 256
    pad: 2
    kernel_size: 5
    group: 2
    weight_filler {
      type: "gaussian"
      std: 0.01
    }
    bias_filler {
      type: "constant"
      value: 1
    }
  }
}
layer {
  name: "relu2"
  type: "ReLU"
  bottom: "conv2"
  top: "conv2"
}
layer {
  name: "pool2"
  type: "Pooling"
  bottom: "conv2"
  top: "pool2"
  pooling_param {
    pool: MAX
    kernel_size: 3
    stride: 2
  }
}
layer {
  name: "norm2"
  type: "LRN"
  bottom: "pool2"
  top: "norm2"
  lrn_param {
    local_size: 5
    alpha: 0.0001
    beta: 0.75
  }
}
layer {
  name: "conv3"
  type: "Convolution"
  bottom: "norm2"
  top: "conv3"
  param {
    lr_mult: 1
    decay_mult: 1
  }
  param {
    lr_mult: 2
    decay_mult: 0
  }
  connectivity_mode: DISCONNECTED_ELTWISE
  convolution_param {
    num_output: 384
    pad: 1
    kernel_size: 3
    weight_filler {
      type: "gaussian"
      std: 0.01
    }
    bias_filler {
      type: "constant"
      value: 0
    }
  }
}
layer {
  name: "relu3"
  type: "ReLU"
  bottom: "conv3"
  top: "conv3"
}
layer {
  name: "conv4"
  type: "Convolution"
  bottom: "conv3"
  top: "conv4"
  param {
    lr_mult: 1
    decay_mult: 1
  }
  param {
    lr_mult: 2
    decay_mult: 0
  }
  connectivity_mode: DISCONNECTED_ELTWISE
  convolution_param {
    num_output: 384
    pad: 1
    kernel_size: 3
    group: 2
    weight_filler {
      type: "gaussian"
      std: 0.01
    }
    bias_filler {
      type: "constant"
      value: 1
    }
  }
}
layer {
  name: "relu4"
  type: "ReLU"
  bottom: "conv4"
  top: "conv4"
}
layer {
  name: "conv5"
  type: "Convolution"
  bottom: "conv4"
  top: "conv5"
  param {
    lr_mult: 1
    decay_mult: 1
  }
  param {
    lr_mult: 2
    decay_mult: 0
  }
  connectivity_mode: DISCONNECTED_ELTWISE
  convolution_param {
    num_output: 256
    pad: 1
    kernel_size: 3
    group: 2
    weight_filler {
      type: "gaussian"
      std: 0.01
    }
    bias_filler {
      type: "constant"
      value: 1
    }
  }
}
layer {
  name: "relu5"
  type: "ReLU"
  bottom: "conv5"
  top: "conv5"
}
layer {
  name: "pool5"
  type: "Pooling"
  bottom: "conv5"
  top: "pool5"
  pooling_param {
    pool: MAX
    kernel_size: 3
    stride: 2
  }
}
layer {
  name: "fc6"
  type: "InnerProduct"
  bottom: "pool5"
  top: "fc6"
  param {
    lr_mult: 1
    decay_mult: 1
  }
  param {
    lr_mult: 2
    decay_mult: 0
  }
  connectivity_mode: DISCONNECTED_ELTWISE
  inner_product_param {
    num_output: 4096
    weight_filler {
      type: "gaussian"
      std: 0.005
    }
    bias_filler {
      type: "constant"
      value: 1
    }
  }
}
layer {
  name: "relu6"
  type: "ReLU"
  bottom: "fc6"
  top: "fc6"
}
layer {
  name: "drop6"
  type: "Dropout"
  bottom: "fc6"
  top: "fc6"
  dropout_param {
    dropout_ratio: 0.5
  }
}
layer {
  name: "fc7"
  type: "InnerProduct"
  bottom: "fc6"
  top: "fc7"
  param {
    lr_mult: 1
    decay_mult: 1
  }
  param {
    lr_mult: 2
    decay_mult: 0
  }
  connectivity_mode: DISCONNECTED_ELTWISE
  inner_product_param {
    num_output: 4096
    weight_filler {
      type: "gaussian"
      std: 0.005
    }
    bias_filler {
      type: "constant"
      value: 1
    }
  }
}
layer {
  name: "relu7"
  type: "ReLU"
  bottom: "fc7"
  top: "fc7"
}
layer {
  name: "drop7"
  type: "Dropout"
  bottom: "fc7"
  top: "fc7"
  dropout_param {
    dropout_ratio: 0.5
  }
}
layer {
  name: "fc8"
  type: "InnerProduct"
  bottom: "fc7"
  top: "fc8"
  param {
    lr_mult: 1
    decay_mult: 1
  }
  param {
    lr_mult: 2
    decay_mult: 0
  }
  connectivity_mode: DISCONNECTED_ELTWISE
  inner_product_param {
    num_output: 1000
    weight_filler {
      type: "gaussian"
      std: 0.01
    }
    bias_filler {
      type: "constant"
      value: 0
    }
  }
}
layer {
  name: "loss"
  type: "SoftmaxWithLoss"
  bottom: "fc8"
  bottom: "label"
  top: "loss"
}
I0330 14:00:07.834241 94940 layer_factory.hpp:77] Creating layer data
I0330 14:00:07.835521 94940 net.cpp:93] Creating Layer data
I0330 14:00:07.835582 94940 net.cpp:401] data -> data
I0330 14:00:07.835625 94940 net.cpp:401] data -> label
I0330 14:00:07.835645 94940 data_transformer.cpp:25] Loading mean file from: data/ilsvrc12/imagenet_mean.binaryproto
I0330 14:00:07.925640 94943 db_lmdb.cpp:38] Opened lmdb examples/imagenet/ilsvrc12_train_lmdb
I0330 14:00:08.953326 94940 data_layer.cpp:41] output data size: 256,3,227,227
I0330 14:00:09.927467 94940 net.cpp:143] Setting up data
I0330 14:00:09.927531 94940 net.cpp:150] Top shape: 256 3 227 227 (39574272)
I0330 14:00:09.927538 94940 net.cpp:150] Top shape: 256 (256)
I0330 14:00:09.927542 94940 net.cpp:158] Memory required for data: 158298112
I0330 14:00:09.927580 94940 layer_factory.hpp:77] Creating layer conv1
I0330 14:00:09.927628 94940 net.cpp:93] Creating Layer conv1
I0330 14:00:09.927637 94940 net.cpp:427] conv1 <- data
I0330 14:00:09.927664 94940 net.cpp:401] conv1 -> conv1
I0330 14:00:10.017565 94944 blocking_queue.cpp:50] Waiting for data
I0330 14:00:11.602227 94940 net.cpp:143] Setting up conv1
I0330 14:00:11.602279 94940 net.cpp:150] Top shape: 256 96 55 55 (74342400)
I0330 14:00:11.602284 94940 net.cpp:158] Memory required for data: 455667712
I0330 14:00:11.602331 94940 layer_factory.hpp:77] Creating layer relu1
I0330 14:00:11.602357 94940 net.cpp:93] Creating Layer relu1
I0330 14:00:11.602365 94940 net.cpp:427] relu1 <- conv1
I0330 14:00:11.602373 94940 net.cpp:388] relu1 -> conv1 (in-place)
I0330 14:00:11.602844 94940 net.cpp:143] Setting up relu1
I0330 14:00:11.602862 94940 net.cpp:150] Top shape: 256 96 55 55 (74342400)
I0330 14:00:11.602866 94940 net.cpp:158] Memory required for data: 753037312
I0330 14:00:11.602885 94940 layer_factory.hpp:77] Creating layer pool1
I0330 14:00:11.602910 94940 net.cpp:93] Creating Layer pool1
I0330 14:00:11.602916 94940 net.cpp:427] pool1 <- conv1
I0330 14:00:11.602923 94940 net.cpp:401] pool1 -> pool1
I0330 14:00:11.884168 94940 net.cpp:143] Setting up pool1
I0330 14:00:11.884224 94940 net.cpp:150] Top shape: 256 96 27 27 (17915904)
I0330 14:00:11.884229 94940 net.cpp:158] Memory required for data: 824700928
I0330 14:00:11.884238 94940 layer_factory.hpp:77] Creating layer norm1
I0330 14:00:11.884276 94940 net.cpp:93] Creating Layer norm1
I0330 14:00:11.884284 94940 net.cpp:427] norm1 <- pool1
I0330 14:00:11.884294 94940 net.cpp:401] norm1 -> norm1
I0330 14:00:12.222918 94940 net.cpp:143] Setting up norm1
I0330 14:00:12.222977 94940 net.cpp:150] Top shape: 256 96 27 27 (17915904)
I0330 14:00:12.222983 94940 net.cpp:158] Memory required for data: 896364544
I0330 14:00:12.222992 94940 layer_factory.hpp:77] Creating layer conv2
I0330 14:00:12.223019 94940 net.cpp:93] Creating Layer conv2
I0330 14:00:12.223026 94940 net.cpp:427] conv2 <- norm1
I0330 14:00:12.223039 94940 net.cpp:401] conv2 -> conv2
I0330 14:00:12.646621 94940 net.cpp:143] Setting up conv2
I0330 14:00:12.646670 94940 net.cpp:150] Top shape: 256 256 27 27 (47775744)
I0330 14:00:12.646675 94940 net.cpp:158] Memory required for data: 1087467520
I0330 14:00:12.646713 94940 layer_factory.hpp:77] Creating layer relu2
I0330 14:00:12.646735 94940 net.cpp:93] Creating Layer relu2
I0330 14:00:12.646744 94940 net.cpp:427] relu2 <- conv2
I0330 14:00:12.646754 94940 net.cpp:388] relu2 -> conv2 (in-place)
I0330 14:00:12.647111 94940 net.cpp:143] Setting up relu2
I0330 14:00:12.647122 94940 net.cpp:150] Top shape: 256 256 27 27 (47775744)
I0330 14:00:12.647127 94940 net.cpp:158] Memory required for data: 1278570496
I0330 14:00:12.647132 94940 layer_factory.hpp:77] Creating layer pool2
I0330 14:00:12.647146 94940 net.cpp:93] Creating Layer pool2
I0330 14:00:12.647151 94940 net.cpp:427] pool2 <- conv2
I0330 14:00:12.647161 94940 net.cpp:401] pool2 -> pool2
I0330 14:00:12.752790 94940 net.cpp:143] Setting up pool2
I0330 14:00:12.752845 94940 net.cpp:150] Top shape: 256 256 13 13 (11075584)
I0330 14:00:12.752849 94940 net.cpp:158] Memory required for data: 1322872832
I0330 14:00:12.752858 94940 layer_factory.hpp:77] Creating layer norm2
I0330 14:00:12.752889 94940 net.cpp:93] Creating Layer norm2
I0330 14:00:12.752897 94940 net.cpp:427] norm2 <- pool2
I0330 14:00:12.752909 94940 net.cpp:401] norm2 -> norm2
I0330 14:00:12.896739 94940 net.cpp:143] Setting up norm2
I0330 14:00:12.896795 94940 net.cpp:150] Top shape: 256 256 13 13 (11075584)
I0330 14:00:12.896801 94940 net.cpp:158] Memory required for data: 1367175168
I0330 14:00:12.896811 94940 layer_factory.hpp:77] Creating layer conv3
I0330 14:00:12.896842 94940 net.cpp:93] Creating Layer conv3
I0330 14:00:12.896850 94940 net.cpp:427] conv3 <- norm2
I0330 14:00:12.896867 94940 net.cpp:401] conv3 -> conv3
I0330 14:00:13.041929 94940 net.cpp:143] Setting up conv3
I0330 14:00:13.041985 94940 net.cpp:150] Top shape: 256 384 13 13 (16613376)
I0330 14:00:13.041990 94940 net.cpp:158] Memory required for data: 1433628672
I0330 14:00:13.042016 94940 layer_factory.hpp:77] Creating layer relu3
I0330 14:00:13.042037 94940 net.cpp:93] Creating Layer relu3
I0330 14:00:13.042044 94940 net.cpp:427] relu3 <- conv3
I0330 14:00:13.042053 94940 net.cpp:388] relu3 -> conv3 (in-place)
I0330 14:00:13.042367 94940 net.cpp:143] Setting up relu3
I0330 14:00:13.042389 94940 net.cpp:150] Top shape: 256 384 13 13 (16613376)
I0330 14:00:13.042397 94940 net.cpp:158] Memory required for data: 1500082176
I0330 14:00:13.042403 94940 layer_factory.hpp:77] Creating layer conv4
I0330 14:00:13.042428 94940 net.cpp:93] Creating Layer conv4
I0330 14:00:13.042433 94940 net.cpp:427] conv4 <- conv3
I0330 14:00:13.042445 94940 net.cpp:401] conv4 -> conv4
I0330 14:00:13.226037 94940 net.cpp:143] Setting up conv4
I0330 14:00:13.226086 94940 net.cpp:150] Top shape: 256 384 13 13 (16613376)
I0330 14:00:13.226092 94940 net.cpp:158] Memory required for data: 1566535680
I0330 14:00:13.226136 94940 layer_factory.hpp:77] Creating layer relu4
I0330 14:00:13.226156 94940 net.cpp:93] Creating Layer relu4
I0330 14:00:13.226162 94940 net.cpp:427] relu4 <- conv4
I0330 14:00:13.226172 94940 net.cpp:388] relu4 -> conv4 (in-place)
I0330 14:00:13.226529 94940 net.cpp:143] Setting up relu4
I0330 14:00:13.226546 94940 net.cpp:150] Top shape: 256 384 13 13 (16613376)
I0330 14:00:13.226549 94940 net.cpp:158] Memory required for data: 1632989184
I0330 14:00:13.226553 94940 layer_factory.hpp:77] Creating layer conv5
I0330 14:00:13.226575 94940 net.cpp:93] Creating Layer conv5
I0330 14:00:13.226580 94940 net.cpp:427] conv5 <- conv4
I0330 14:00:13.226593 94940 net.cpp:401] conv5 -> conv5
I0330 14:00:13.381223 94940 net.cpp:143] Setting up conv5
I0330 14:00:13.381286 94940 net.cpp:150] Top shape: 256 256 13 13 (11075584)
I0330 14:00:13.381292 94940 net.cpp:158] Memory required for data: 1677291520
I0330 14:00:13.381333 94940 layer_factory.hpp:77] Creating layer relu5
I0330 14:00:13.381351 94940 net.cpp:93] Creating Layer relu5
I0330 14:00:13.381357 94940 net.cpp:427] relu5 <- conv5
I0330 14:00:13.381367 94940 net.cpp:388] relu5 -> conv5 (in-place)
I0330 14:00:13.381760 94940 net.cpp:143] Setting up relu5
I0330 14:00:13.381778 94940 net.cpp:150] Top shape: 256 256 13 13 (11075584)
I0330 14:00:13.381781 94940 net.cpp:158] Memory required for data: 1721593856
I0330 14:00:13.381788 94940 layer_factory.hpp:77] Creating layer pool5
I0330 14:00:13.381803 94940 net.cpp:93] Creating Layer pool5
I0330 14:00:13.381808 94940 net.cpp:427] pool5 <- conv5
I0330 14:00:13.381816 94940 net.cpp:401] pool5 -> pool5
I0330 14:00:13.415096 94940 net.cpp:143] Setting up pool5
I0330 14:00:13.415145 94940 net.cpp:150] Top shape: 256 256 6 6 (2359296)
I0330 14:00:13.415150 94940 net.cpp:158] Memory required for data: 1731031040
I0330 14:00:13.415159 94940 layer_factory.hpp:77] Creating layer fc6
I0330 14:00:13.415534 94940 net.cpp:93] Creating Layer fc6
I0330 14:00:13.415549 94940 net.cpp:427] fc6 <- pool5
I0330 14:00:13.415566 94940 net.cpp:401] fc6 -> fc6
I0330 14:00:15.125885 94940 net.cpp:143] Setting up fc6
I0330 14:00:15.125938 94940 net.cpp:150] Top shape: 256 4096 (1048576)
I0330 14:00:15.125942 94940 net.cpp:158] Memory required for data: 1735225344
I0330 14:00:15.125958 94940 layer_factory.hpp:77] Creating layer relu6
I0330 14:00:15.125974 94940 net.cpp:93] Creating Layer relu6
I0330 14:00:15.125982 94940 net.cpp:427] relu6 <- fc6
I0330 14:00:15.125988 94940 net.cpp:388] relu6 -> fc6 (in-place)
I0330 14:00:15.126425 94940 net.cpp:143] Setting up relu6
I0330 14:00:15.126438 94940 net.cpp:150] Top shape: 256 4096 (1048576)
I0330 14:00:15.126441 94940 net.cpp:158] Memory required for data: 1739419648
I0330 14:00:15.126446 94940 layer_factory.hpp:77] Creating layer drop6
I0330 14:00:15.126458 94940 net.cpp:93] Creating Layer drop6
I0330 14:00:15.126462 94940 net.cpp:427] drop6 <- fc6
I0330 14:00:15.126466 94940 net.cpp:388] drop6 -> fc6 (in-place)
I0330 14:00:15.129313 94940 net.cpp:143] Setting up drop6
I0330 14:00:15.129329 94940 net.cpp:150] Top shape: 256 4096 (1048576)
I0330 14:00:15.129333 94940 net.cpp:158] Memory required for data: 1743613952
I0330 14:00:15.129338 94940 layer_factory.hpp:77] Creating layer fc7
I0330 14:00:15.129351 94940 net.cpp:93] Creating Layer fc7
I0330 14:00:15.129355 94940 net.cpp:427] fc7 <- fc6
I0330 14:00:15.129360 94940 net.cpp:401] fc7 -> fc7
I0330 14:00:15.678704 94940 net.cpp:143] Setting up fc7
I0330 14:00:15.678750 94940 net.cpp:150] Top shape: 256 4096 (1048576)
I0330 14:00:15.678753 94940 net.cpp:158] Memory required for data: 1747808256
I0330 14:00:15.678766 94940 layer_factory.hpp:77] Creating layer relu7
I0330 14:00:15.678777 94940 net.cpp:93] Creating Layer relu7
I0330 14:00:15.678783 94940 net.cpp:427] relu7 <- fc7
I0330 14:00:15.678792 94940 net.cpp:388] relu7 -> fc7 (in-place)
I0330 14:00:15.679107 94940 net.cpp:143] Setting up relu7
I0330 14:00:15.679116 94940 net.cpp:150] Top shape: 256 4096 (1048576)
I0330 14:00:15.679118 94940 net.cpp:158] Memory required for data: 1752002560
I0330 14:00:15.679143 94940 layer_factory.hpp:77] Creating layer drop7
I0330 14:00:15.679153 94940 net.cpp:93] Creating Layer drop7
I0330 14:00:15.679157 94940 net.cpp:427] drop7 <- fc7
I0330 14:00:15.679162 94940 net.cpp:388] drop7 -> fc7 (in-place)
I0330 14:00:15.681598 94940 net.cpp:143] Setting up drop7
I0330 14:00:15.681613 94940 net.cpp:150] Top shape: 256 4096 (1048576)
I0330 14:00:15.681617 94940 net.cpp:158] Memory required for data: 1756196864
I0330 14:00:15.681620 94940 layer_factory.hpp:77] Creating layer fc8
I0330 14:00:15.681630 94940 net.cpp:93] Creating Layer fc8
I0330 14:00:15.681633 94940 net.cpp:427] fc8 <- fc7
I0330 14:00:15.681645 94940 net.cpp:401] fc8 -> fc8
I0330 14:00:15.810529 94940 net.cpp:143] Setting up fc8
I0330 14:00:15.810573 94940 net.cpp:150] Top shape: 256 1000 (256000)
I0330 14:00:15.810576 94940 net.cpp:158] Memory required for data: 1757220864
I0330 14:00:15.810588 94940 layer_factory.hpp:77] Creating layer loss
I0330 14:00:15.810843 94940 net.cpp:93] Creating Layer loss
I0330 14:00:15.810853 94940 net.cpp:427] loss <- fc8
I0330 14:00:15.810859 94940 net.cpp:427] loss <- label
I0330 14:00:15.810868 94940 net.cpp:401] loss -> loss
I0330 14:00:15.810885 94940 layer_factory.hpp:77] Creating layer loss
…
I0330 14:00:15.813894 94940 net.cpp:315] The NetState phase (1) differed from the phase (0) specified by a rule in layer data
I0330 14:00:15.814097 94940 net.cpp:51] Initializing net from parameters: 
name: "CaffeNet"
state {
  phase: TEST
}
layer {
  name: "data"
  type: "Data"
  top: "data"
  top: "label"
  include {
    phase: TEST
  }
  transform_param {
    mirror: false
    crop_size: 227
    mean_file: "data/ilsvrc12/imagenet_mean.binaryproto"
  }
  data_param {
    source: "examples/imagenet/ilsvrc12_val_lmdb"
    batch_size: 50
    backend: LMDB
  }
}
layer {
  name: "conv1"
  type: "Convolution"
  bottom: "data"
  top: "conv1"
  param {
    lr_mult: 1
    decay_mult: 1
  }
  param {
    lr_mult: 2
    decay_mult: 0
  }
  connectivity_mode: DISCONNECTED_ELTWISE
  convolution_param {
    num_output: 96
    kernel_size: 11
    stride: 4
    weight_filler {
      type: "gaussian"
      std: 0.01
    }
    bias_filler {
      type: "constant"
      value: 0
    }
  }
}
layer {
  name: "relu1"
  type: "ReLU"
  bottom: "conv1"
  top: "conv1"
}
layer {
  name: "pool1"
  type: "Pooling"
  bottom: "conv1"
  top: "pool1"
  pooling_param {
    pool: MAX
    kernel_size: 3
    stride: 2
  }
}
layer {
  name: "norm1"
  type: "LRN"
  bottom: "pool1"
  top: "norm1"
  lrn_param {
    local_size: 5
    alpha: 0.0001
    beta: 0.75
  }
}
layer {
  name: "conv2"
  type: "Convolution"
  bottom: "norm1"
  top: "conv2"
  param {
    lr_mult: 1
    decay_mult: 1
  }
  param {
    lr_mult: 2
    decay_mult: 0
  }
  connectivity_mode: DISCONNECTED_ELTWISE
  convolution_param {
    num_output: 256
    pad: 2
    kernel_size: 5
    group: 2
    weight_filler {
      type: "gaussian"
      std: 0.01
    }
    bias_filler {
      type: "constant"
      value: 1
    }
  }
}
layer {
  name: "relu2"
  type: "ReLU"
  bottom: "conv2"
  top: "conv2"
}
layer {
  name: "pool2"
  type: "Pooling"
  bottom: "conv2"
  top: "pool2"
  pooling_param {
    pool: MAX
    kernel_size: 3
    stride: 2
  }
}
layer {
  name: "norm2"
  type: "LRN"
  bottom: "pool2"
  top: "norm2"
  lrn_param {
    local_size: 5
    alpha: 0.0001
    beta: 0.75
  }
}
layer {
  name: "conv3"
  type: "Convolution"
  bottom: "norm2"
  top: "conv3"
  param {
    lr_mult: 1
    decay_mult: 1
  }
  param {
    lr_mult: 2
    decay_mult: 0
  }
  connectivity_mode: DISCONNECTED_ELTWISE
  convolution_param {
    num_output: 384
    pad: 1
    kernel_size: 3
    weight_filler {
      type: "gaussian"
      std: 0.01
    }
    bias_filler {
      type: "constant"
      value: 0
    }
  }
}
layer {
  name: "relu3"
  type: "ReLU"
  bottom: "conv3"
  top: "conv3"
}
layer {
  name: "conv4"
  type: "Convolution"
  bottom: "conv3"
  top: "conv4"
  param {
    lr_mult: 1
    decay_mult: 1
  }
  param {
    lr_mult: 2
    decay_mult: 0
  }
  connectivity_mode: DISCONNECTED_ELTWISE
  convolution_param {
    num_output: 384
    pad: 1
    kernel_size: 3
    group: 2
    weight_filler {
      type: "gaussian"
      std: 0.01
    }
    bias_filler {
      type: "constant"
      value: 1
    }
  }
}
layer {
  name: "relu4"
  type: "ReLU"
  bottom: "conv4"
  top: "conv4"
}
layer {
  name: "conv5"
  type: "Convolution"
  bottom: "conv4"
  top: "conv5"
  param {
    lr_mult: 1
    decay_mult: 1
  }
  param {
    lr_mult: 2
    decay_mult: 0
  }
  connectivity_mode: DISCONNECTED_ELTWISE
  convolution_param {
    num_output: 256
    pad: 1
    kernel_size: 3
    group: 2
    weight_filler {
      type: "gaussian"
      std: 0.01
    }
    bias_filler {
      type: "constant"
      value: 1
    }
  }
}
layer {
  name: "relu5"
  type: "ReLU"
  bottom: "conv5"
  top: "conv5"
}
layer {
  name: "pool5"
  type: "Pooling"
  bottom: "conv5"
  top: "pool5"
  pooling_param {
    pool: MAX
    kernel_size: 3
    stride: 2
  }
}
layer {
  name: "fc6"
  type: "InnerProduct"
  bottom: "pool5"
  top: "fc6"
  param {
    lr_mult: 1
    decay_mult: 1
  }
  param {
    lr_mult: 2
    decay_mult: 0
  }
  connectivity_mode: DISCONNECTED_ELTWISE
  inner_product_param {
    num_output: 4096
    weight_filler {
      type: "gaussian"
      std: 0.005
    }
    bias_filler {
      type: "constant"
      value: 1
    }
  }
}
layer {
  name: "relu6"
  type: "ReLU"
  bottom: "fc6"
  top: "fc6"
}
layer {
  name: "drop6"
  type: "Dropout"
  bottom: "fc6"
  top: "fc6"
  dropout_param {
    dropout_ratio: 0.5
  }
}
layer {
  name: "fc7"
  type: "InnerProduct"
  bottom: "fc6"
  top: "fc7"
  param {
    lr_mult: 1
    decay_mult: 1
  }
  param {
    lr_mult: 2
    decay_mult: 0
  }
  connectivity_mode: DISCONNECTED_ELTWISE
  inner_product_param {
    num_output: 4096
    weight_filler {
      type: "gaussian"
      std: 0.005
    }
    bias_filler {
      type: "constant"
      value: 1
    }
  }
}
layer {
  name: "relu7"
  type: "ReLU"
  bottom: "fc7"
  top: "fc7"
}
layer {
  name: "drop7"
  type: "Dropout"
  bottom: "fc7"
  top: "fc7"
  dropout_param {
    dropout_ratio: 0.5
  }
}
layer {
  name: "fc8"
  type: "InnerProduct"
  bottom: "fc7"
  top: "fc8"
  param {
    lr_mult: 1
    decay_mult: 1
  }
  param {
    lr_mult: 2
    decay_mult: 0
  }
  connectivity_mode: DISCONNECTED_ELTWISE
  inner_product_param {
    num_output: 1000
    weight_filler {
      type: "gaussian"
      std: 0.01
    }
    bias_filler {
      type: "constant"
      value: 0
    }
  }
}
layer {
  name: "accuracy"
  type: "Accuracy"
  bottom: "fc8"
  bottom: "label"
  top: "accuracy"
  include {
    phase: TEST
  }
}
layer {
  name: "loss"
  type: "SoftmaxWithLoss"
  bottom: "fc8"
  bottom: "label"
  top: "loss"
}
I0330 14:00:15.814259 94940 layer_factory.hpp:77] Creating layer data
I0330 14:00:15.814381 94940 net.cpp:93] Creating Layer data
I0330 14:00:15.814395 94940 net.cpp:401] data -> data
I0330 14:00:15.814404 94940 net.cpp:401] data -> label
I0330 14:00:15.814411 94940 data_transformer.cpp:25] Loading mean file from: data/ilsvrc12/imagenet_mean.binaryproto
I0330 14:00:15.977813 94945 db_lmdb.cpp:38] Opened lmdb examples/imagenet/ilsvrc12_val_lmdb
I0330 14:00:16.075794 94940 data_layer.cpp:41] output data size: 50,3,227,227
I0330 14:00:16.331902 94940 net.cpp:143] Setting up data
I0330 14:00:16.331953 94940 net.cpp:150] Top shape: 50 3 227 227 (7729350)
I0330 14:00:16.331962 94940 net.cpp:150] Top shape: 50 (50)
I0330 14:00:16.331967 94940 net.cpp:158] Memory required for data: 30917600
I0330 14:00:16.331976 94940 layer_factory.hpp:77] Creating layer label_data_1_split
I0330 14:00:16.332000 94940 net.cpp:93] Creating Layer label_data_1_split
I0330 14:00:16.332008 94940 net.cpp:427] label_data_1_split <- label
I0330 14:00:16.332018 94940 net.cpp:401] label_data_1_split -> label_data_1_split_0
I0330 14:00:16.332033 94940 net.cpp:401] label_data_1_split -> label_data_1_split_1
I0330 14:00:16.332243 94940 net.cpp:143] Setting up label_data_1_split
I0330 14:00:16.332255 94940 net.cpp:150] Top shape: 50 (50)
I0330 14:00:16.332262 94940 net.cpp:150] Top shape: 50 (50)
I0330 14:00:16.332265 94940 net.cpp:158] Memory required for data: 30918000
I0330 14:00:16.332270 94940 layer_factory.hpp:77] Creating layer conv1
I0330 14:00:16.332293 94940 net.cpp:93] Creating Layer conv1
I0330 14:00:16.332298 94940 net.cpp:427] conv1 <- data
I0330 14:00:16.332309 94940 net.cpp:401] conv1 -> conv1
I0330 14:00:16.511024 94940 net.cpp:143] Setting up conv1
I0330 14:00:16.511077 94940 net.cpp:150] Top shape: 50 96 55 55 (14520000)
I0330 14:00:16.511082 94940 net.cpp:158] Memory required for data: 88998000
I0330 14:00:16.511108 94940 layer_factory.hpp:77] Creating layer relu1
I0330 14:00:16.511126 94940 net.cpp:93] Creating Layer relu1
I0330 14:00:16.511132 94940 net.cpp:427] relu1 <- conv1
I0330 14:00:16.511142 94940 net.cpp:388] relu1 -> conv1 (in-place)
I0330 14:00:16.511483 94940 net.cpp:143] Setting up relu1
I0330 14:00:16.511498 94940 net.cpp:150] Top shape: 50 96 55 55 (14520000)
I0330 14:00:16.511502 94940 net.cpp:158] Memory required for data: 147078000
I0330 14:00:16.511507 94940 layer_factory.hpp:77] Creating layer pool1
I0330 14:00:16.511521 94940 net.cpp:93] Creating Layer pool1
I0330 14:00:16.511525 94940 net.cpp:427] pool1 <- conv1
I0330 14:00:16.511533 94940 net.cpp:401] pool1 -> pool1
I0330 14:00:16.532835 94940 net.cpp:143] Setting up pool1
I0330 14:00:16.532882 94940 net.cpp:150] Top shape: 50 96 27 27 (3499200)
I0330 14:00:16.532887 94940 net.cpp:158] Memory required for data: 161074800
I0330 14:00:16.532896 94940 layer_factory.hpp:77] Creating layer norm1
I0330 14:00:16.532913 94940 net.cpp:93] Creating Layer norm1
I0330 14:00:16.532919 94940 net.cpp:427] norm1 <- pool1
I0330 14:00:16.532932 94940 net.cpp:401] norm1 -> norm1
I0330 14:00:16.557312 94940 net.cpp:143] Setting up norm1
I0330 14:00:16.557387 94940 net.cpp:150] Top shape: 50 96 27 27 (3499200)
I0330 14:00:16.557394 94940 net.cpp:158] Memory required for data: 175071600
I0330 14:00:16.557404 94940 layer_factory.hpp:77] Creating layer conv2
I0330 14:00:16.557430 94940 net.cpp:93] Creating Layer conv2
I0330 14:00:16.557438 94940 net.cpp:427] conv2 <- norm1
I0330 14:00:16.557451 94940 net.cpp:401] conv2 -> conv2
I0330 14:00:16.609442 94940 net.cpp:143] Setting up conv2
I0330 14:00:16.609491 94940 net.cpp:150] Top shape: 50 256 27 27 (9331200)
I0330 14:00:16.609496 94940 net.cpp:158] Memory required for data: 212396400
I0330 14:00:16.609519 94940 layer_factory.hpp:77] Creating layer relu2
I0330 14:00:16.609535 94940 net.cpp:93] Creating Layer relu2
I0330 14:00:16.609542 94940 net.cpp:427] relu2 <- conv2
I0330 14:00:16.609555 94940 net.cpp:388] relu2 -> conv2 (in-place)
I0330 14:00:16.609865 94940 net.cpp:143] Setting up relu2
I0330 14:00:16.609874 94940 net.cpp:150] Top shape: 50 256 27 27 (9331200)
I0330 14:00:16.609879 94940 net.cpp:158] Memory required for data: 249721200
I0330 14:00:16.609884 94940 layer_factory.hpp:77] Creating layer pool2
I0330 14:00:16.609897 94940 net.cpp:93] Creating Layer pool2
I0330 14:00:16.609901 94940 net.cpp:427] pool2 <- conv2
I0330 14:00:16.609910 94940 net.cpp:401] pool2 -> pool2
I0330 14:00:16.625097 94940 net.cpp:143] Setting up pool2
I0330 14:00:16.625141 94940 net.cpp:150] Top shape: 50 256 13 13 (2163200)
I0330 14:00:16.625146 94940 net.cpp:158] Memory required for data: 258374000
I0330 14:00:16.625154 94940 layer_factory.hpp:77] Creating layer norm2
I0330 14:00:16.625170 94940 net.cpp:93] Creating Layer norm2
I0330 14:00:16.625177 94940 net.cpp:427] norm2 <- pool2
I0330 14:00:16.625187 94940 net.cpp:401] norm2 -> norm2
I0330 14:00:16.638655 94940 net.cpp:143] Setting up norm2
I0330 14:00:16.638695 94940 net.cpp:150] Top shape: 50 256 13 13 (2163200)
I0330 14:00:16.638700 94940 net.cpp:158] Memory required for data: 267026800
I0330 14:00:16.638707 94940 layer_factory.hpp:77] Creating layer conv3
I0330 14:00:16.638731 94940 net.cpp:93] Creating Layer conv3
I0330 14:00:16.638739 94940 net.cpp:427] conv3 <- norm2
I0330 14:00:16.638752 94940 net.cpp:401] conv3 -> conv3
I0330 14:00:16.700063 94940 net.cpp:143] Setting up conv3
I0330 14:00:16.700112 94940 net.cpp:150] Top shape: 50 384 13 13 (3244800)
I0330 14:00:16.700117 94940 net.cpp:158] Memory required for data: 280006000
I0330 14:00:16.700140 94940 layer_factory.hpp:77] Creating layer relu3
I0330 14:00:16.700156 94940 net.cpp:93] Creating Layer relu3
I0330 14:00:16.700165 94940 net.cpp:427] relu3 <- conv3
I0330 14:00:16.700175 94940 net.cpp:388] relu3 -> conv3 (in-place)
I0330 14:00:16.700660 94940 net.cpp:143] Setting up relu3
I0330 14:00:16.700678 94940 net.cpp:150] Top shape: 50 384 13 13 (3244800)
I0330 14:00:16.700682 94940 net.cpp:158] Memory required for data: 292985200
I0330 14:00:16.700687 94940 layer_factory.hpp:77] Creating layer conv4
I0330 14:00:16.700706 94940 net.cpp:93] Creating Layer conv4
I0330 14:00:16.700711 94940 net.cpp:427] conv4 <- conv3
I0330 14:00:16.700721 94940 net.cpp:401] conv4 -> conv4
I0330 14:00:16.762569 94940 net.cpp:143] Setting up conv4
I0330 14:00:16.762624 94940 net.cpp:150] Top shape: 50 384 13 13 (3244800)
I0330 14:00:16.762629 94940 net.cpp:158] Memory required for data: 305964400
I0330 14:00:16.762646 94940 layer_factory.hpp:77] Creating layer relu4
I0330 14:00:16.762663 94940 net.cpp:93] Creating Layer relu4
I0330 14:00:16.762670 94940 net.cpp:427] relu4 <- conv4
I0330 14:00:16.762681 94940 net.cpp:388] relu4 -> conv4 (in-place)
I0330 14:00:16.763032 94940 net.cpp:143] Setting up relu4
I0330 14:00:16.763043 94940 net.cpp:150] Top shape: 50 384 13 13 (3244800)
I0330 14:00:16.763048 94940 net.cpp:158] Memory required for data: 318943600
I0330 14:00:16.763052 94940 layer_factory.hpp:77] Creating layer conv5
I0330 14:00:16.763072 94940 net.cpp:93] Creating Layer conv5
I0330 14:00:16.763077 94940 net.cpp:427] conv5 <- conv4
I0330 14:00:16.763085 94940 net.cpp:401] conv5 -> conv5
I0330 14:00:16.809207 94940 net.cpp:143] Setting up conv5
I0330 14:00:16.809279 94940 net.cpp:150] Top shape: 50 256 13 13 (2163200)
I0330 14:00:16.809285 94940 net.cpp:158] Memory required for data: 327596400
I0330 14:00:16.809312 94940 layer_factory.hpp:77] Creating layer relu5
I0330 14:00:16.809329 94940 net.cpp:93] Creating Layer relu5
I0330 14:00:16.809335 94940 net.cpp:427] relu5 <- conv5
I0330 14:00:16.809346 94940 net.cpp:388] relu5 -> conv5 (in-place)
I0330 14:00:16.809662 94940 net.cpp:143] Setting up relu5
I0330 14:00:16.809677 94940 net.cpp:150] Top shape: 50 256 13 13 (2163200)
I0330 14:00:16.809681 94940 net.cpp:158] Memory required for data: 336249200
I0330 14:00:16.809686 94940 layer_factory.hpp:77] Creating layer pool5
I0330 14:00:16.809701 94940 net.cpp:93] Creating Layer pool5
I0330 14:00:16.809706 94940 net.cpp:427] pool5 <- conv5
I0330 14:00:16.809715 94940 net.cpp:401] pool5 -> pool5
I0330 14:00:16.813232 94940 net.cpp:143] Setting up pool5
I0330 14:00:16.813251 94940 net.cpp:150] Top shape: 50 256 6 6 (460800)
I0330 14:00:16.813254 94940 net.cpp:158] Memory required for data: 338092400
I0330 14:00:16.813259 94940 layer_factory.hpp:77] Creating layer fc6
I0330 14:00:16.813274 94940 net.cpp:93] Creating Layer fc6
I0330 14:00:16.813278 94940 net.cpp:427] fc6 <- pool5
I0330 14:00:16.813288 94940 net.cpp:401] fc6 -> fc6
I0330 14:00:18.232790 94940 net.cpp:143] Setting up fc6
I0330 14:00:18.232836 94940 net.cpp:150] Top shape: 50 4096 (204800)
I0330 14:00:18.232839 94940 net.cpp:158] Memory required for data: 338911600
I0330 14:00:18.232854 94940 layer_factory.hpp:77] Creating layer relu6
I0330 14:00:18.232872 94940 net.cpp:93] Creating Layer relu6
I0330 14:00:18.232880 94940 net.cpp:427] relu6 <- fc6
I0330 14:00:18.232888 94940 net.cpp:388] relu6 -> fc6 (in-place)
I0330 14:00:18.233345 94940 net.cpp:143] Setting up relu6
I0330 14:00:18.233355 94940 net.cpp:150] Top shape: 50 4096 (204800)
I0330 14:00:18.233358 94940 net.cpp:158] Memory required for data: 339730800
I0330 14:00:18.233361 94940 layer_factory.hpp:77] Creating layer drop6
I0330 14:00:18.233371 94940 net.cpp:93] Creating Layer drop6
I0330 14:00:18.233376 94940 net.cpp:427] drop6 <- fc6
I0330 14:00:18.233395 94940 net.cpp:388] drop6 -> fc6 (in-place)
I0330 14:00:18.234087 94940 net.cpp:143] Setting up drop6
I0330 14:00:18.234097 94940 net.cpp:150] Top shape: 50 4096 (204800)
I0330 14:00:18.234100 94940 net.cpp:158] Memory required for data: 340550000
I0330 14:00:18.234104 94940 layer_factory.hpp:77] Creating layer fc7
I0330 14:00:18.234115 94940 net.cpp:93] Creating Layer fc7
I0330 14:00:18.234119 94940 net.cpp:427] fc7 <- fc6
I0330 14:00:18.234125 94940 net.cpp:401] fc7 -> fc7
I0330 14:00:18.860473 94940 net.cpp:143] Setting up fc7
I0330 14:00:18.860517 94940 net.cpp:150] Top shape: 50 4096 (204800)
I0330 14:00:18.860522 94940 net.cpp:158] Memory required for data: 341369200
I0330 14:00:18.860538 94940 layer_factory.hpp:77] Creating layer relu7
I0330 14:00:18.860551 94940 net.cpp:93] Creating Layer relu7
I0330 14:00:18.860558 94940 net.cpp:427] relu7 <- fc7
I0330 14:00:18.860566 94940 net.cpp:388] relu7 -> fc7 (in-place)
I0330 14:00:18.860944 94940 net.cpp:143] Setting up relu7
I0330 14:00:18.860952 94940 net.cpp:150] Top shape: 50 4096 (204800)
I0330 14:00:18.860956 94940 net.cpp:158] Memory required for data: 342188400
I0330 14:00:18.860960 94940 layer_factory.hpp:77] Creating layer drop7
I0330 14:00:18.860970 94940 net.cpp:93] Creating Layer drop7
I0330 14:00:18.860973 94940 net.cpp:427] drop7 <- fc7
I0330 14:00:18.860978 94940 net.cpp:388] drop7 -> fc7 (in-place)
I0330 14:00:18.861896 94940 net.cpp:143] Setting up drop7
I0330 14:00:18.861910 94940 net.cpp:150] Top shape: 50 4096 (204800)
I0330 14:00:18.861913 94940 net.cpp:158] Memory required for data: 343007600
I0330 14:00:18.861917 94940 layer_factory.hpp:77] Creating layer fc8
I0330 14:00:18.861932 94940 net.cpp:93] Creating Layer fc8
I0330 14:00:18.861937 94940 net.cpp:427] fc8 <- fc7
I0330 14:00:18.861943 94940 net.cpp:401] fc8 -> fc8
I0330 14:00:19.008792 94940 net.cpp:143] Setting up fc8
I0330 14:00:19.008862 94940 net.cpp:150] Top shape: 50 1000 (50000)
I0330 14:00:19.008877 94940 net.cpp:158] Memory required for data: 343207600
I0330 14:00:19.008890 94940 layer_factory.hpp:77] Creating layer fc8_fc8_0_split
I0330 14:00:19.008901 94940 net.cpp:93] Creating Layer fc8_fc8_0_split
I0330 14:00:19.008908 94940 net.cpp:427] fc8_fc8_0_split <- fc8
I0330 14:00:19.008915 94940 net.cpp:401] fc8_fc8_0_split -> fc8_fc8_0_split_0
I0330 14:00:19.008925 94940 net.cpp:401] fc8_fc8_0_split -> fc8_fc8_0_split_1
I0330 14:00:19.009151 94940 net.cpp:143] Setting up fc8_fc8_0_split
I0330 14:00:19.009158 94940 net.cpp:150] Top shape: 50 1000 (50000)
I0330 14:00:19.009163 94940 net.cpp:150] Top shape: 50 1000 (50000)
I0330 14:00:19.009166 94940 net.cpp:158] Memory required for data: 343607600
I0330 14:00:19.009169 94940 layer_factory.hpp:77] Creating layer accuracy
I0330 14:00:19.009183 94940 net.cpp:93] Creating Layer accuracy
I0330 14:00:19.009187 94940 net.cpp:427] accuracy <- fc8_fc8_0_split_0
I0330 14:00:19.009191 94940 net.cpp:427] accuracy <- label_data_1_split_0
I0330 14:00:19.009201 94940 net.cpp:401] accuracy -> accuracy
…
