…
I0327 22:22:48.949395 16321 net.cpp:315] The NetState phase (0) differed from the phase (1) specified by a rule in layer accuracy
I0327 22:22:48.949669 16321 net.cpp:51] Initializing net from parameters: 
name: "CaffeNet"
state {
  phase: TRAIN
}
layer {
  name: "data"
  type: "Data"
  top: "data"
  top: "label"
  include {
    phase: TRAIN
  }
  transform_param {
    mirror: true
    crop_size: 227
    mean_file: "data/ilsvrc12/imagenet_mean.binaryproto"
  }
  data_param {
    source: "examples/imagenet/ilsvrc12_train_lmdb"
    batch_size: 256
    backend: LMDB
  }
}
layer {
  name: "conv1"
  type: "Convolution"
  bottom: "data"
  top: "conv1"
  param {
    lr_mult: 1
    decay_mult: 1
    breadth_decay_mult: 0
    kernel_shape_decay_mult: 0
    block_group_lasso {
      xdimen: 121
      ydimen: 1
      block_decay_mult: 1
    }
  }
  param {
    lr_mult: 2
    decay_mult: 0
    breadth_decay_mult: 0
    kernel_shape_decay_mult: 0
  }
  convolution_param {
    num_output: 96
    kernel_size: 11
    stride: 4
    weight_filler {
      type: "gaussian"
      std: 0.01
    }
    bias_filler {
      type: "constant"
      value: 0
    }
  }
}
layer {
  name: "relu1"
  type: "ReLU"
  bottom: "conv1"
  top: "conv1"
}
layer {
  name: "pool1"
  type: "Pooling"
  bottom: "conv1"
  top: "pool1"
  pooling_param {
    pool: MAX
    kernel_size: 3
    stride: 2
  }
}
layer {
  name: "norm1"
  type: "LRN"
  bottom: "pool1"
  top: "norm1"
  lrn_param {
    local_size: 5
    alpha: 0.0001
    beta: 0.75
  }
}
layer {
  name: "conv2"
  type: "Convolution"
  bottom: "norm1"
  top: "conv2"
  param {
    lr_mult: 1
    decay_mult: 1
    breadth_decay_mult: 0
    kernel_shape_decay_mult: 0
    block_group_lasso {
      xdimen: 25
      ydimen: 1
      block_decay_mult: 1
    }
  }
  param {
    lr_mult: 2
    decay_mult: 0
    breadth_decay_mult: 0
    kernel_shape_decay_mult: 0
  }
  convolution_param {
    num_output: 256
    pad: 2
    kernel_size: 5
    group: 2
    weight_filler {
      type: "gaussian"
      std: 0.01
    }
    bias_filler {
      type: "constant"
      value: 1
    }
  }
}
layer {
  name: "relu2"
  type: "ReLU"
  bottom: "conv2"
  top: "conv2"
}
layer {
  name: "pool2"
  type: "Pooling"
  bottom: "conv2"
  top: "pool2"
  pooling_param {
    pool: MAX
    kernel_size: 3
    stride: 2
  }
}
layer {
  name: "norm2"
  type: "LRN"
  bottom: "pool2"
  top: "norm2"
  lrn_param {
    local_size: 5
    alpha: 0.0001
    beta: 0.75
  }
}
layer {
  name: "conv3"
  type: "Convolution"
  bottom: "norm2"
  top: "conv3"
  param {
    lr_mult: 1
    decay_mult: 1
    breadth_decay_mult: 0
    kernel_shape_decay_mult: 0
    block_group_lasso {
      xdimen: 9
      ydimen: 1
      block_decay_mult: 1
    }
  }
  param {
    lr_mult: 2
    decay_mult: 0
    breadth_decay_mult: 0
    kernel_shape_decay_mult: 0
  }
  convolution_param {
    num_output: 384
    pad: 1
    kernel_size: 3
    weight_filler {
      type: "gaussian"
      std: 0.01
    }
    bias_filler {
      type: "constant"
      value: 0
    }
  }
}
layer {
  name: "relu3"
  type: "ReLU"
  bottom: "conv3"
  top: "conv3"
}
layer {
  name: "conv4"
  type: "Convolution"
  bottom: "conv3"
  top: "conv4"
  param {
    lr_mult: 1
    decay_mult: 1
    breadth_decay_mult: 0
    kernel_shape_decay_mult: 0
    block_group_lasso {
      xdimen: 9
      ydimen: 1
      block_decay_mult: 1
    }
  }
  param {
    lr_mult: 2
    decay_mult: 0
    breadth_decay_mult: 0
    kernel_shape_decay_mult: 0
  }
  convolution_param {
    num_output: 384
    pad: 1
    kernel_size: 3
    group: 2
    weight_filler {
      type: "gaussian"
      std: 0.01
    }
    bias_filler {
      type: "constant"
      value: 1
    }
  }
}
layer {
  name: "relu4"
  type: "ReLU"
  bottom: "conv4"
  top: "conv4"
}
layer {
  name: "conv5"
  type: "Convolution"
  bottom: "conv4"
  top: "conv5"
  param {
    lr_mult: 1
    decay_mult: 1
    breadth_decay_mult: 0
    kernel_shape_decay_mult: 0
    block_group_lasso {
      xdimen: 9
      ydimen: 1
      block_decay_mult: 1
    }
  }
  param {
    lr_mult: 2
    decay_mult: 0
    breadth_decay_mult: 0
    kernel_shape_decay_mult: 0
  }
  convolution_param {
    num_output: 256
    pad: 1
    kernel_size: 3
    group: 2
    weight_filler {
      type: "gaussian"
      std: 0.01
    }
    bias_filler {
      type: "constant"
      value: 1
    }
  }
}
layer {
  name: "relu5"
  type: "ReLU"
  bottom: "conv5"
  top: "conv5"
}
layer {
  name: "pool5"
  type: "Pooling"
  bottom: "conv5"
  top: "pool5"
  pooling_param {
    pool: MAX
    kernel_size: 3
    stride: 2
  }
}
layer {
  name: "fc6"
  type: "InnerProduct"
  bottom: "pool5"
  top: "fc6"
  param {
    lr_mult: 1
    decay_mult: 1
    breadth_decay_mult: 1
    kernel_shape_decay_mult: 1
  }
  param {
    lr_mult: 2
    decay_mult: 0
    breadth_decay_mult: 0
    kernel_shape_decay_mult: 0
  }
  inner_product_param {
    num_output: 4096
    weight_filler {
      type: "gaussian"
      std: 0.005
    }
    bias_filler {
      type: "constant"
      value: 1
    }
  }
}
layer {
  name: "relu6"
  type: "ReLU"
  bottom: "fc6"
  top: "fc6"
}
layer {
  name: "drop6"
  type: "Dropout"
  bottom: "fc6"
  top: "fc6"
  dropout_param {
    dropout_ratio: 0.5
  }
}
layer {
  name: "fc7"
  type: "InnerProduct"
  bottom: "fc6"
  top: "fc7"
  param {
    lr_mult: 1
    decay_mult: 1
    breadth_decay_mult: 1
    kernel_shape_decay_mult: 1
  }
  param {
    lr_mult: 2
    decay_mult: 0
    breadth_decay_mult: 0
    kernel_shape_decay_mult: 0
  }
  inner_product_param {
    num_output: 4096
    weight_filler {
      type: "gaussian"
      std: 0.005
    }
    bias_filler {
      type: "constant"
      value: 1
    }
  }
}
layer {
  name: "relu7"
  type: "ReLU"
  bottom: "fc7"
  top: "fc7"
}
layer {
  name: "drop7"
  type: "Dropout"
  bottom: "fc7"
  top: "fc7"
  dropout_param {
    dropout_ratio: 0.5
  }
}
layer {
  name: "fc8"
  type: "InnerProduct"
  bottom: "fc7"
  top: "fc8"
  param {
    lr_mult: 1
    decay_mult: 1
    breadth_decay_mult: 0
    kernel_shape_decay_mult: 1
  }
  param {
    lr_mult: 2
    decay_mult: 0
    breadth_decay_mult: 0
    kernel_shape_decay_mult: 0
  }
  inner_product_param {
    num_output: 1000
    weight_filler {
      type: "gaussian"
      std: 0.01
    }
    bias_filler {
      type: "constant"
      value: 0
    }
  }
}
layer {
  name: "loss"
  type: "SoftmaxWithLoss"
  bottom: "fc8"
  bottom: "label"
  top: "loss"
}
I0327 22:22:48.951630 16321 layer_factory.hpp:77] Creating layer data
I0327 22:22:48.971369 16321 net.cpp:93] Creating Layer data
I0327 22:22:48.971400 16321 net.cpp:401] data -> data
I0327 22:22:48.971449 16321 net.cpp:401] data -> label
I0327 22:22:48.971601 16321 data_transformer.cpp:25] Loading mean file from: data/ilsvrc12/imagenet_mean.binaryproto
I0327 22:22:49.024087 16332 db_lmdb.cpp:38] Opened lmdb examples/imagenet/ilsvrc12_train_lmdb
I0327 22:22:49.655647 16321 data_layer.cpp:41] output data size: 256,3,227,227
I0327 22:22:49.981763 16321 net.cpp:143] Setting up data
I0327 22:22:49.981840 16321 net.cpp:150] Top shape: 256 3 227 227 (39574272)
I0327 22:22:49.981853 16321 net.cpp:150] Top shape: 256 (256)
I0327 22:22:49.981871 16321 net.cpp:158] Memory required for data: 158298112
I0327 22:22:49.981910 16321 layer_factory.hpp:77] Creating layer conv1
I0327 22:22:49.981951 16321 net.cpp:93] Creating Layer conv1
I0327 22:22:49.981963 16321 net.cpp:427] conv1 <- data
I0327 22:22:49.981983 16321 net.cpp:401] conv1 -> conv1
I0327 22:22:50.939826 16333 blocking_queue.cpp:50] Waiting for data
I0327 22:22:52.645913 16321 net.cpp:143] Setting up conv1
I0327 22:22:52.645990 16321 net.cpp:150] Top shape: 256 96 55 55 (74342400)
I0327 22:22:52.646000 16321 net.cpp:158] Memory required for data: 455667712
I0327 22:22:52.646057 16321 layer_factory.hpp:77] Creating layer relu1
I0327 22:22:52.646095 16321 net.cpp:93] Creating Layer relu1
I0327 22:22:52.646106 16321 net.cpp:427] relu1 <- conv1
I0327 22:22:52.646118 16321 net.cpp:388] relu1 -> conv1 (in-place)
I0327 22:22:52.646420 16321 net.cpp:143] Setting up relu1
I0327 22:22:52.646436 16321 net.cpp:150] Top shape: 256 96 55 55 (74342400)
I0327 22:22:52.646445 16321 net.cpp:158] Memory required for data: 753037312
I0327 22:22:52.646453 16321 layer_factory.hpp:77] Creating layer pool1
I0327 22:22:52.646468 16321 net.cpp:93] Creating Layer pool1
I0327 22:22:52.646476 16321 net.cpp:427] pool1 <- conv1
I0327 22:22:52.646487 16321 net.cpp:401] pool1 -> pool1
I0327 22:22:52.743693 16321 net.cpp:143] Setting up pool1
I0327 22:22:52.743762 16321 net.cpp:150] Top shape: 256 96 27 27 (17915904)
I0327 22:22:52.743772 16321 net.cpp:158] Memory required for data: 824700928
I0327 22:22:52.743785 16321 layer_factory.hpp:77] Creating layer norm1
I0327 22:22:52.743835 16321 net.cpp:93] Creating Layer norm1
I0327 22:22:52.743846 16321 net.cpp:427] norm1 <- pool1
I0327 22:22:52.743860 16321 net.cpp:401] norm1 -> norm1
I0327 22:22:52.861186 16321 net.cpp:143] Setting up norm1
I0327 22:22:52.861258 16321 net.cpp:150] Top shape: 256 96 27 27 (17915904)
I0327 22:22:52.861268 16321 net.cpp:158] Memory required for data: 896364544
I0327 22:22:52.861305 16321 layer_factory.hpp:77] Creating layer conv2
I0327 22:22:52.861342 16321 net.cpp:93] Creating Layer conv2
I0327 22:22:52.861353 16321 net.cpp:427] conv2 <- norm1
I0327 22:22:52.861371 16321 net.cpp:401] conv2 -> conv2
I0327 22:22:53.094148 16321 net.cpp:143] Setting up conv2
I0327 22:22:53.094210 16321 net.cpp:150] Top shape: 256 256 27 27 (47775744)
I0327 22:22:53.094220 16321 net.cpp:158] Memory required for data: 1087467520
I0327 22:22:53.094256 16321 layer_factory.hpp:77] Creating layer relu2
I0327 22:22:53.094276 16321 net.cpp:93] Creating Layer relu2
I0327 22:22:53.094286 16321 net.cpp:427] relu2 <- conv2
I0327 22:22:53.094300 16321 net.cpp:388] relu2 -> conv2 (in-place)
I0327 22:22:53.094583 16321 net.cpp:143] Setting up relu2
I0327 22:22:53.094599 16321 net.cpp:150] Top shape: 256 256 27 27 (47775744)
I0327 22:22:53.094605 16321 net.cpp:158] Memory required for data: 1278570496
I0327 22:22:53.094614 16321 layer_factory.hpp:77] Creating layer pool2
I0327 22:22:53.094629 16321 net.cpp:93] Creating Layer pool2
I0327 22:22:53.094636 16321 net.cpp:427] pool2 <- conv2
I0327 22:22:53.094647 16321 net.cpp:401] pool2 -> pool2
I0327 22:22:53.192173 16321 net.cpp:143] Setting up pool2
I0327 22:22:53.192241 16321 net.cpp:150] Top shape: 256 256 13 13 (11075584)
I0327 22:22:53.192251 16321 net.cpp:158] Memory required for data: 1322872832
I0327 22:22:53.192265 16321 layer_factory.hpp:77] Creating layer norm2
I0327 22:22:53.192296 16321 net.cpp:93] Creating Layer norm2
I0327 22:22:53.192306 16321 net.cpp:427] norm2 <- pool2
I0327 22:22:53.192320 16321 net.cpp:401] norm2 -> norm2
I0327 22:22:53.289990 16321 net.cpp:143] Setting up norm2
I0327 22:22:53.290056 16321 net.cpp:150] Top shape: 256 256 13 13 (11075584)
I0327 22:22:53.290066 16321 net.cpp:158] Memory required for data: 1367175168
I0327 22:22:53.290078 16321 layer_factory.hpp:77] Creating layer conv3
I0327 22:22:53.290122 16321 net.cpp:93] Creating Layer conv3
I0327 22:22:53.290132 16321 net.cpp:427] conv3 <- norm2
I0327 22:22:53.290148 16321 net.cpp:401] conv3 -> conv3
I0327 22:22:53.413965 16321 net.cpp:143] Setting up conv3
I0327 22:22:53.414048 16321 net.cpp:150] Top shape: 256 384 13 13 (16613376)
I0327 22:22:53.414079 16321 net.cpp:158] Memory required for data: 1433628672
I0327 22:22:53.414113 16321 layer_factory.hpp:77] Creating layer relu3
I0327 22:22:53.414132 16321 net.cpp:93] Creating Layer relu3
I0327 22:22:53.414142 16321 net.cpp:427] relu3 <- conv3
I0327 22:22:53.414155 16321 net.cpp:388] relu3 -> conv3 (in-place)
I0327 22:22:53.414646 16321 net.cpp:143] Setting up relu3
I0327 22:22:53.414664 16321 net.cpp:150] Top shape: 256 384 13 13 (16613376)
I0327 22:22:53.414672 16321 net.cpp:158] Memory required for data: 1500082176
I0327 22:22:53.414680 16321 layer_factory.hpp:77] Creating layer conv4
I0327 22:22:53.414710 16321 net.cpp:93] Creating Layer conv4
I0327 22:22:53.414718 16321 net.cpp:427] conv4 <- conv3
I0327 22:22:53.414729 16321 net.cpp:401] conv4 -> conv4
I0327 22:22:53.527806 16321 net.cpp:143] Setting up conv4
I0327 22:22:53.527866 16321 net.cpp:150] Top shape: 256 384 13 13 (16613376)
I0327 22:22:53.527875 16321 net.cpp:158] Memory required for data: 1566535680
I0327 22:22:53.527902 16321 layer_factory.hpp:77] Creating layer relu4
I0327 22:22:53.527922 16321 net.cpp:93] Creating Layer relu4
I0327 22:22:53.527931 16321 net.cpp:427] relu4 <- conv4
I0327 22:22:53.527945 16321 net.cpp:388] relu4 -> conv4 (in-place)
I0327 22:22:53.528280 16321 net.cpp:143] Setting up relu4
I0327 22:22:53.528295 16321 net.cpp:150] Top shape: 256 384 13 13 (16613376)
I0327 22:22:53.528303 16321 net.cpp:158] Memory required for data: 1632989184
I0327 22:22:53.528313 16321 layer_factory.hpp:77] Creating layer conv5
I0327 22:22:53.528339 16321 net.cpp:93] Creating Layer conv5
I0327 22:22:53.528348 16321 net.cpp:427] conv5 <- conv4
I0327 22:22:53.528363 16321 net.cpp:401] conv5 -> conv5
I0327 22:22:53.605929 16321 net.cpp:143] Setting up conv5
I0327 22:22:53.605998 16321 net.cpp:150] Top shape: 256 256 13 13 (11075584)
I0327 22:22:53.606008 16321 net.cpp:158] Memory required for data: 1677291520
I0327 22:22:53.606042 16321 layer_factory.hpp:77] Creating layer relu5
I0327 22:22:53.606063 16321 net.cpp:93] Creating Layer relu5
I0327 22:22:53.606073 16321 net.cpp:427] relu5 <- conv5
I0327 22:22:53.606089 16321 net.cpp:388] relu5 -> conv5 (in-place)
I0327 22:22:53.606408 16321 net.cpp:143] Setting up relu5
I0327 22:22:53.606425 16321 net.cpp:150] Top shape: 256 256 13 13 (11075584)
I0327 22:22:53.606432 16321 net.cpp:158] Memory required for data: 1721593856
I0327 22:22:53.606441 16321 layer_factory.hpp:77] Creating layer pool5
I0327 22:22:53.606464 16321 net.cpp:93] Creating Layer pool5
I0327 22:22:53.606472 16321 net.cpp:427] pool5 <- conv5
I0327 22:22:53.606483 16321 net.cpp:401] pool5 -> pool5
I0327 22:22:53.625146 16321 net.cpp:143] Setting up pool5
I0327 22:22:53.625200 16321 net.cpp:150] Top shape: 256 256 6 6 (2359296)
I0327 22:22:53.625210 16321 net.cpp:158] Memory required for data: 1731031040
I0327 22:22:53.625221 16321 layer_factory.hpp:77] Creating layer fc6
I0327 22:22:53.625255 16321 net.cpp:93] Creating Layer fc6
I0327 22:22:53.625269 16321 net.cpp:427] fc6 <- pool5
I0327 22:22:53.625294 16321 net.cpp:401] fc6 -> fc6
I0327 22:22:55.243374 16321 net.cpp:143] Setting up fc6
I0327 22:22:55.243437 16321 net.cpp:150] Top shape: 256 4096 (1048576)
I0327 22:22:55.243445 16321 net.cpp:158] Memory required for data: 1735225344
I0327 22:22:55.243473 16321 layer_factory.hpp:77] Creating layer relu6
I0327 22:22:55.243499 16321 net.cpp:93] Creating Layer relu6
I0327 22:22:55.243510 16321 net.cpp:427] relu6 <- fc6
I0327 22:22:55.243523 16321 net.cpp:388] relu6 -> fc6 (in-place)
I0327 22:22:55.244141 16321 net.cpp:143] Setting up relu6
I0327 22:22:55.244159 16321 net.cpp:150] Top shape: 256 4096 (1048576)
I0327 22:22:55.244174 16321 net.cpp:158] Memory required for data: 1739419648
I0327 22:22:55.244181 16321 layer_factory.hpp:77] Creating layer drop6
I0327 22:22:55.244202 16321 net.cpp:93] Creating Layer drop6
I0327 22:22:55.244210 16321 net.cpp:427] drop6 <- fc6
I0327 22:22:55.244220 16321 net.cpp:388] drop6 -> fc6 (in-place)
I0327 22:22:55.248283 16321 net.cpp:143] Setting up drop6
I0327 22:22:55.248320 16321 net.cpp:150] Top shape: 256 4096 (1048576)
I0327 22:22:55.248328 16321 net.cpp:158] Memory required for data: 1743613952
I0327 22:22:55.248337 16321 layer_factory.hpp:77] Creating layer fc7
I0327 22:22:55.248350 16321 net.cpp:93] Creating Layer fc7
I0327 22:22:55.248358 16321 net.cpp:427] fc7 <- fc6
I0327 22:22:55.248373 16321 net.cpp:401] fc7 -> fc7
I0327 22:22:55.967469 16321 net.cpp:143] Setting up fc7
I0327 22:22:55.967527 16321 net.cpp:150] Top shape: 256 4096 (1048576)
I0327 22:22:55.967536 16321 net.cpp:158] Memory required for data: 1747808256
I0327 22:22:55.967557 16321 layer_factory.hpp:77] Creating layer relu7
I0327 22:22:55.967581 16321 net.cpp:93] Creating Layer relu7
I0327 22:22:55.967592 16321 net.cpp:427] relu7 <- fc7
I0327 22:22:55.967607 16321 net.cpp:388] relu7 -> fc7 (in-place)
I0327 22:22:55.967938 16321 net.cpp:143] Setting up relu7
I0327 22:22:55.967954 16321 net.cpp:150] Top shape: 256 4096 (1048576)
I0327 22:22:55.967962 16321 net.cpp:158] Memory required for data: 1752002560
I0327 22:22:55.967970 16321 layer_factory.hpp:77] Creating layer drop7
I0327 22:22:55.967984 16321 net.cpp:93] Creating Layer drop7
I0327 22:22:55.967993 16321 net.cpp:427] drop7 <- fc7
I0327 22:22:55.968005 16321 net.cpp:388] drop7 -> fc7 (in-place)
I0327 22:22:55.972049 16321 net.cpp:143] Setting up drop7
I0327 22:22:55.972069 16321 net.cpp:150] Top shape: 256 4096 (1048576)
I0327 22:22:55.972076 16321 net.cpp:158] Memory required for data: 1756196864
I0327 22:22:55.972084 16321 layer_factory.hpp:77] Creating layer fc8
I0327 22:22:55.972105 16321 net.cpp:93] Creating Layer fc8
I0327 22:22:55.972113 16321 net.cpp:427] fc8 <- fc7
I0327 22:22:55.972127 16321 net.cpp:401] fc8 -> fc8
I0327 22:22:56.147652 16321 net.cpp:143] Setting up fc8
I0327 22:22:56.147709 16321 net.cpp:150] Top shape: 256 1000 (256000)
I0327 22:22:56.147718 16321 net.cpp:158] Memory required for data: 1757220864
I0327 22:22:56.147739 16321 layer_factory.hpp:77] Creating layer loss
I0327 22:22:56.147758 16321 net.cpp:93] Creating Layer loss
I0327 22:22:56.147768 16321 net.cpp:427] loss <- fc8
I0327 22:22:56.147778 16321 net.cpp:427] loss <- label
I0327 22:22:56.147794 16321 net.cpp:401] loss -> loss
I0327 22:22:56.147819 16321 layer_factory.hpp:77] Creating layer loss
…
I0327 22:22:56.152019 16321 net.cpp:315] The NetState phase (1) differed from the phase (0) specified by a rule in layer data
I0327 22:22:56.152282 16321 net.cpp:51] Initializing net from parameters: 
name: "CaffeNet"
state {
  phase: TEST
}
layer {
  name: "data"
  type: "Data"
  top: "data"
  top: "label"
  include {
    phase: TEST
  }
  transform_param {
    mirror: false
    crop_size: 227
    mean_file: "data/ilsvrc12/imagenet_mean.binaryproto"
  }
  data_param {
    source: "examples/imagenet/ilsvrc12_val_lmdb"
    batch_size: 50
    backend: LMDB
  }
}
layer {
  name: "conv1"
  type: "Convolution"
  bottom: "data"
  top: "conv1"
  param {
    lr_mult: 1
    decay_mult: 1
    breadth_decay_mult: 0
    kernel_shape_decay_mult: 0
    block_group_lasso {
      xdimen: 121
      ydimen: 1
      block_decay_mult: 1
    }
  }
  param {
    lr_mult: 2
    decay_mult: 0
    breadth_decay_mult: 0
    kernel_shape_decay_mult: 0
  }
  convolution_param {
    num_output: 96
    kernel_size: 11
    stride: 4
    weight_filler {
      type: "gaussian"
      std: 0.01
    }
    bias_filler {
      type: "constant"
      value: 0
    }
  }
}
layer {
  name: "relu1"
  type: "ReLU"
  bottom: "conv1"
  top: "conv1"
}
layer {
  name: "pool1"
  type: "Pooling"
  bottom: "conv1"
  top: "pool1"
  pooling_param {
    pool: MAX
    kernel_size: 3
    stride: 2
  }
}
layer {
  name: "norm1"
  type: "LRN"
  bottom: "pool1"
  top: "norm1"
  lrn_param {
    local_size: 5
    alpha: 0.0001
    beta: 0.75
  }
}
layer {
  name: "conv2"
  type: "Convolution"
  bottom: "norm1"
  top: "conv2"
  param {
    lr_mult: 1
    decay_mult: 1
    breadth_decay_mult: 0
    kernel_shape_decay_mult: 0
    block_group_lasso {
      xdimen: 25
      ydimen: 1
      block_decay_mult: 1
    }
  }
  param {
    lr_mult: 2
    decay_mult: 0
    breadth_decay_mult: 0
    kernel_shape_decay_mult: 0
  }
  convolution_param {
    num_output: 256
    pad: 2
    kernel_size: 5
    group: 2
    weight_filler {
      type: "gaussian"
      std: 0.01
    }
    bias_filler {
      type: "constant"
      value: 1
    }
  }
}
layer {
  name: "relu2"
  type: "ReLU"
  bottom: "conv2"
  top: "conv2"
}
layer {
  name: "pool2"
  type: "Pooling"
  bottom: "conv2"
  top: "pool2"
  pooling_param {
    pool: MAX
    kernel_size: 3
    stride: 2
  }
}
layer {
  name: "norm2"
  type: "LRN"
  bottom: "pool2"
  top: "norm2"
  lrn_param {
    local_size: 5
    alpha: 0.0001
    beta: 0.75
  }
}
layer {
  name: "conv3"
  type: "Convolution"
  bottom: "norm2"
  top: "conv3"
  param {
    lr_mult: 1
    decay_mult: 1
    breadth_decay_mult: 0
    kernel_shape_decay_mult: 0
    block_group_lasso {
      xdimen: 9
      ydimen: 1
      block_decay_mult: 1
    }
  }
  param {
    lr_mult: 2
    decay_mult: 0
    breadth_decay_mult: 0
    kernel_shape_decay_mult: 0
  }
  convolution_param {
    num_output: 384
    pad: 1
    kernel_size: 3
    weight_filler {
      type: "gaussian"
      std: 0.01
    }
    bias_filler {
      type: "constant"
      value: 0
    }
  }
}
layer {
  name: "relu3"
  type: "ReLU"
  bottom: "conv3"
  top: "conv3"
}
layer {
  name: "conv4"
  type: "Convolution"
  bottom: "conv3"
  top: "conv4"
  param {
    lr_mult: 1
    decay_mult: 1
    breadth_decay_mult: 0
    kernel_shape_decay_mult: 0
    block_group_lasso {
      xdimen: 9
      ydimen: 1
      block_decay_mult: 1
    }
  }
  param {
    lr_mult: 2
    decay_mult: 0
    breadth_decay_mult: 0
    kernel_shape_decay_mult: 0
  }
  convolution_param {
    num_output: 384
    pad: 1
    kernel_size: 3
    group: 2
    weight_filler {
      type: "gaussian"
      std: 0.01
    }
    bias_filler {
      type: "constant"
      value: 1
    }
  }
}
layer {
  name: "relu4"
  type: "ReLU"
  bottom: "conv4"
  top: "conv4"
}
layer {
  name: "conv5"
  type: "Convolution"
  bottom: "conv4"
  top: "conv5"
  param {
    lr_mult: 1
    decay_mult: 1
    breadth_decay_mult: 0
    kernel_shape_decay_mult: 0
    block_group_lasso {
      xdimen: 9
      ydimen: 1
      block_decay_mult: 1
    }
  }
  param {
    lr_mult: 2
    decay_mult: 0
    breadth_decay_mult: 0
    kernel_shape_decay_mult: 0
  }
  convolution_param {
    num_output: 256
    pad: 1
    kernel_size: 3
    group: 2
    weight_filler {
      type: "gaussian"
      std: 0.01
    }
    bias_filler {
      type: "constant"
      value: 1
    }
  }
}
layer {
  name: "relu5"
  type: "ReLU"
  bottom: "conv5"
  top: "conv5"
}
layer {
  name: "pool5"
  type: "Pooling"
  bottom: "conv5"
  top: "pool5"
  pooling_param {
    pool: MAX
    kernel_size: 3
    stride: 2
  }
}
layer {
  name: "fc6"
  type: "InnerProduct"
  bottom: "pool5"
  top: "fc6"
  param {
    lr_mult: 1
    decay_mult: 1
    breadth_decay_mult: 1
    kernel_shape_decay_mult: 1
  }
  param {
    lr_mult: 2
    decay_mult: 0
    breadth_decay_mult: 0
    kernel_shape_decay_mult: 0
  }
  inner_product_param {
    num_output: 4096
    weight_filler {
      type: "gaussian"
      std: 0.005
    }
    bias_filler {
      type: "constant"
      value: 1
    }
  }
}
layer {
  name: "relu6"
  type: "ReLU"
  bottom: "fc6"
  top: "fc6"
}
layer {
  name: "drop6"
  type: "Dropout"
  bottom: "fc6"
  top: "fc6"
  dropout_param {
    dropout_ratio: 0.5
  }
}
layer {
  name: "fc7"
  type: "InnerProduct"
  bottom: "fc6"
  top: "fc7"
  param {
    lr_mult: 1
    decay_mult: 1
    breadth_decay_mult: 1
    kernel_shape_decay_mult: 1
  }
  param {
    lr_mult: 2
    decay_mult: 0
    breadth_decay_mult: 0
    kernel_shape_decay_mult: 0
  }
  inner_product_param {
    num_output: 4096
    weight_filler {
      type: "gaussian"
      std: 0.005
    }
    bias_filler {
      type: "constant"
      value: 1
    }
  }
}
layer {
  name: "relu7"
  type: "ReLU"
  bottom: "fc7"
  top: "fc7"
}
layer {
  name: "drop7"
  type: "Dropout"
  bottom: "fc7"
  top: "fc7"
  dropout_param {
    dropout_ratio: 0.5
  }
}
layer {
  name: "fc8"
  type: "InnerProduct"
  bottom: "fc7"
  top: "fc8"
  param {
    lr_mult: 1
    decay_mult: 1
    breadth_decay_mult: 0
    kernel_shape_decay_mult: 1
  }
  param {
    lr_mult: 2
    decay_mult: 0
    breadth_decay_mult: 0
    kernel_shape_decay_mult: 0
  }
  inner_product_param {
    num_output: 1000
    weight_filler {
      type: "gaussian"
      std: 0.01
    }
    bias_filler {
      type: "constant"
      value: 0
    }
  }
}
layer {
  name: "accuracy"
  type: "Accuracy"
  bottom: "fc8"
  bottom: "label"
  top: "accuracy"
  include {
    phase: TEST
  }
}
layer {
  name: "loss"
  type: "SoftmaxWithLoss"
  bottom: "fc8"
  bottom: "label"
  top: "loss"
}
I0327 22:22:56.152452 16321 layer_factory.hpp:77] Creating layer data
I0327 22:22:56.152595 16321 net.cpp:93] Creating Layer data
I0327 22:22:56.152612 16321 net.cpp:401] data -> data
I0327 22:22:56.152627 16321 net.cpp:401] data -> label
I0327 22:22:56.152642 16321 data_transformer.cpp:25] Loading mean file from: data/ilsvrc12/imagenet_mean.binaryproto
I0327 22:22:56.160202 16335 db_lmdb.cpp:38] Opened lmdb examples/imagenet/ilsvrc12_val_lmdb
I0327 22:22:56.305294 16321 data_layer.cpp:41] output data size: 50,3,227,227
I0327 22:22:56.395931 16321 net.cpp:143] Setting up data
I0327 22:22:56.396003 16321 net.cpp:150] Top shape: 50 3 227 227 (7729350)
I0327 22:22:56.396015 16321 net.cpp:150] Top shape: 50 (50)
I0327 22:22:56.396023 16321 net.cpp:158] Memory required for data: 30917600
I0327 22:22:56.396036 16321 layer_factory.hpp:77] Creating layer label_data_1_split
I0327 22:22:56.396059 16321 net.cpp:93] Creating Layer label_data_1_split
I0327 22:22:56.396085 16321 net.cpp:427] label_data_1_split <- label
I0327 22:22:56.396118 16321 net.cpp:401] label_data_1_split -> label_data_1_split_0
I0327 22:22:56.396138 16321 net.cpp:401] label_data_1_split -> label_data_1_split_1
I0327 22:22:56.396327 16321 net.cpp:143] Setting up label_data_1_split
I0327 22:22:56.396342 16321 net.cpp:150] Top shape: 50 (50)
I0327 22:22:56.396352 16321 net.cpp:150] Top shape: 50 (50)
I0327 22:22:56.396358 16321 net.cpp:158] Memory required for data: 30918000
I0327 22:22:56.396365 16321 layer_factory.hpp:77] Creating layer conv1
I0327 22:22:56.396392 16321 net.cpp:93] Creating Layer conv1
I0327 22:22:56.396400 16321 net.cpp:427] conv1 <- data
I0327 22:22:56.396412 16321 net.cpp:401] conv1 -> conv1
I0327 22:22:56.464215 16321 net.cpp:143] Setting up conv1
I0327 22:22:56.464277 16321 net.cpp:150] Top shape: 50 96 55 55 (14520000)
I0327 22:22:56.464287 16321 net.cpp:158] Memory required for data: 88998000
I0327 22:22:56.464320 16321 layer_factory.hpp:77] Creating layer relu1
I0327 22:22:56.464341 16321 net.cpp:93] Creating Layer relu1
I0327 22:22:56.464352 16321 net.cpp:427] relu1 <- conv1
I0327 22:22:56.464365 16321 net.cpp:388] relu1 -> conv1 (in-place)
I0327 22:22:56.464673 16321 net.cpp:143] Setting up relu1
I0327 22:22:56.464689 16321 net.cpp:150] Top shape: 50 96 55 55 (14520000)
I0327 22:22:56.464696 16321 net.cpp:158] Memory required for data: 147078000
I0327 22:22:56.464704 16321 layer_factory.hpp:77] Creating layer pool1
I0327 22:22:56.464721 16321 net.cpp:93] Creating Layer pool1
I0327 22:22:56.464730 16321 net.cpp:427] pool1 <- conv1
I0327 22:22:56.464741 16321 net.cpp:401] pool1 -> pool1
I0327 22:22:56.490655 16321 net.cpp:143] Setting up pool1
I0327 22:22:56.490711 16321 net.cpp:150] Top shape: 50 96 27 27 (3499200)
I0327 22:22:56.490720 16321 net.cpp:158] Memory required for data: 161074800
I0327 22:22:56.490732 16321 layer_factory.hpp:77] Creating layer norm1
I0327 22:22:56.490756 16321 net.cpp:93] Creating Layer norm1
I0327 22:22:56.490767 16321 net.cpp:427] norm1 <- pool1
I0327 22:22:56.490782 16321 net.cpp:401] norm1 -> norm1
I0327 22:22:56.518383 16321 net.cpp:143] Setting up norm1
I0327 22:22:56.518451 16321 net.cpp:150] Top shape: 50 96 27 27 (3499200)
I0327 22:22:56.518460 16321 net.cpp:158] Memory required for data: 175071600
I0327 22:22:56.518474 16321 layer_factory.hpp:77] Creating layer conv2
I0327 22:22:56.518507 16321 net.cpp:93] Creating Layer conv2
I0327 22:22:56.518518 16321 net.cpp:427] conv2 <- norm1
I0327 22:22:56.518537 16321 net.cpp:401] conv2 -> conv2
I0327 22:22:56.577258 16321 net.cpp:143] Setting up conv2
I0327 22:22:56.577327 16321 net.cpp:150] Top shape: 50 256 27 27 (9331200)
I0327 22:22:56.577335 16321 net.cpp:158] Memory required for data: 212396400
I0327 22:22:56.577368 16321 layer_factory.hpp:77] Creating layer relu2
I0327 22:22:56.577388 16321 net.cpp:93] Creating Layer relu2
I0327 22:22:56.577397 16321 net.cpp:427] relu2 <- conv2
I0327 22:22:56.577410 16321 net.cpp:388] relu2 -> conv2 (in-place)
I0327 22:22:56.577898 16321 net.cpp:143] Setting up relu2
I0327 22:22:56.577916 16321 net.cpp:150] Top shape: 50 256 27 27 (9331200)
I0327 22:22:56.577924 16321 net.cpp:158] Memory required for data: 249721200
I0327 22:22:56.577932 16321 layer_factory.hpp:77] Creating layer pool2
I0327 22:22:56.577950 16321 net.cpp:93] Creating Layer pool2
I0327 22:22:56.577958 16321 net.cpp:427] pool2 <- conv2
I0327 22:22:56.577970 16321 net.cpp:401] pool2 -> pool2
I0327 22:22:56.591848 16321 net.cpp:143] Setting up pool2
I0327 22:22:56.591900 16321 net.cpp:150] Top shape: 50 256 13 13 (2163200)
I0327 22:22:56.591909 16321 net.cpp:158] Memory required for data: 258374000
I0327 22:22:56.591920 16321 layer_factory.hpp:77] Creating layer norm2
I0327 22:22:56.591941 16321 net.cpp:93] Creating Layer norm2
I0327 22:22:56.591951 16321 net.cpp:427] norm2 <- pool2
I0327 22:22:56.591965 16321 net.cpp:401] norm2 -> norm2
I0327 22:22:56.606915 16321 net.cpp:143] Setting up norm2
I0327 22:22:56.606971 16321 net.cpp:150] Top shape: 50 256 13 13 (2163200)
I0327 22:22:56.606981 16321 net.cpp:158] Memory required for data: 267026800
I0327 22:22:56.607026 16321 layer_factory.hpp:77] Creating layer conv3
I0327 22:22:56.607060 16321 net.cpp:93] Creating Layer conv3
I0327 22:22:56.607072 16321 net.cpp:427] conv3 <- norm2
I0327 22:22:56.607090 16321 net.cpp:401] conv3 -> conv3
I0327 22:22:56.669221 16321 net.cpp:143] Setting up conv3
I0327 22:22:56.669291 16321 net.cpp:150] Top shape: 50 384 13 13 (3244800)
I0327 22:22:56.669302 16321 net.cpp:158] Memory required for data: 280006000
I0327 22:22:56.669339 16321 layer_factory.hpp:77] Creating layer relu3
I0327 22:22:56.669360 16321 net.cpp:93] Creating Layer relu3
I0327 22:22:56.669371 16321 net.cpp:427] relu3 <- conv3
I0327 22:22:56.669384 16321 net.cpp:388] relu3 -> conv3 (in-place)
I0327 22:22:56.669888 16321 net.cpp:143] Setting up relu3
I0327 22:22:56.669906 16321 net.cpp:150] Top shape: 50 384 13 13 (3244800)
I0327 22:22:56.669914 16321 net.cpp:158] Memory required for data: 292985200
I0327 22:22:56.669922 16321 layer_factory.hpp:77] Creating layer conv4
I0327 22:22:56.669946 16321 net.cpp:93] Creating Layer conv4
I0327 22:22:56.669955 16321 net.cpp:427] conv4 <- conv3
I0327 22:22:56.669970 16321 net.cpp:401] conv4 -> conv4
I0327 22:22:56.722887 16321 net.cpp:143] Setting up conv4
I0327 22:22:56.722944 16321 net.cpp:150] Top shape: 50 384 13 13 (3244800)
I0327 22:22:56.722954 16321 net.cpp:158] Memory required for data: 305964400
I0327 22:22:56.722980 16321 layer_factory.hpp:77] Creating layer relu4
I0327 22:22:56.723001 16321 net.cpp:93] Creating Layer relu4
I0327 22:22:56.723011 16321 net.cpp:427] relu4 <- conv4
I0327 22:22:56.723026 16321 net.cpp:388] relu4 -> conv4 (in-place)
I0327 22:22:56.723529 16321 net.cpp:143] Setting up relu4
I0327 22:22:56.723547 16321 net.cpp:150] Top shape: 50 384 13 13 (3244800)
I0327 22:22:56.723556 16321 net.cpp:158] Memory required for data: 318943600
I0327 22:22:56.723564 16321 layer_factory.hpp:77] Creating layer conv5
I0327 22:22:56.723587 16321 net.cpp:93] Creating Layer conv5
I0327 22:22:56.723597 16321 net.cpp:427] conv5 <- conv4
I0327 22:22:56.723609 16321 net.cpp:401] conv5 -> conv5
I0327 22:22:56.759714 16321 net.cpp:143] Setting up conv5
I0327 22:22:56.759773 16321 net.cpp:150] Top shape: 50 256 13 13 (2163200)
I0327 22:22:56.759781 16321 net.cpp:158] Memory required for data: 327596400
I0327 22:22:56.759817 16321 layer_factory.hpp:77] Creating layer relu5
I0327 22:22:56.759838 16321 net.cpp:93] Creating Layer relu5
I0327 22:22:56.759848 16321 net.cpp:427] relu5 <- conv5
I0327 22:22:56.759862 16321 net.cpp:388] relu5 -> conv5 (in-place)
I0327 22:22:56.760331 16321 net.cpp:143] Setting up relu5
I0327 22:22:56.760349 16321 net.cpp:150] Top shape: 50 256 13 13 (2163200)
I0327 22:22:56.760357 16321 net.cpp:158] Memory required for data: 336249200
I0327 22:22:56.760365 16321 layer_factory.hpp:77] Creating layer pool5
I0327 22:22:56.760386 16321 net.cpp:93] Creating Layer pool5
I0327 22:22:56.760395 16321 net.cpp:427] pool5 <- conv5
I0327 22:22:56.760407 16321 net.cpp:401] pool5 -> pool5
I0327 22:22:56.764086 16321 net.cpp:143] Setting up pool5
I0327 22:22:56.764106 16321 net.cpp:150] Top shape: 50 256 6 6 (460800)
I0327 22:22:56.764113 16321 net.cpp:158] Memory required for data: 338092400
I0327 22:22:56.764122 16321 layer_factory.hpp:77] Creating layer fc6
I0327 22:22:56.764139 16321 net.cpp:93] Creating Layer fc6
I0327 22:22:56.764147 16321 net.cpp:427] fc6 <- pool5
I0327 22:22:56.764159 16321 net.cpp:401] fc6 -> fc6
I0327 22:22:58.414042 16321 net.cpp:143] Setting up fc6
I0327 22:22:58.414113 16321 net.cpp:150] Top shape: 50 4096 (204800)
I0327 22:22:58.414124 16321 net.cpp:158] Memory required for data: 338911600
I0327 22:22:58.414167 16321 layer_factory.hpp:77] Creating layer relu6
I0327 22:22:58.414198 16321 net.cpp:93] Creating Layer relu6
I0327 22:22:58.414214 16321 net.cpp:427] relu6 <- fc6
I0327 22:22:58.414233 16321 net.cpp:388] relu6 -> fc6 (in-place)
I0327 22:22:58.415307 16321 net.cpp:143] Setting up relu6
I0327 22:22:58.415326 16321 net.cpp:150] Top shape: 50 4096 (204800)
I0327 22:22:58.415333 16321 net.cpp:158] Memory required for data: 339730800
I0327 22:22:58.415369 16321 layer_factory.hpp:77] Creating layer drop6
I0327 22:22:58.415382 16321 net.cpp:93] Creating Layer drop6
I0327 22:22:58.415390 16321 net.cpp:427] drop6 <- fc6
I0327 22:22:58.415405 16321 net.cpp:388] drop6 -> fc6 (in-place)
I0327 22:22:58.416288 16321 net.cpp:143] Setting up drop6
I0327 22:22:58.416306 16321 net.cpp:150] Top shape: 50 4096 (204800)
I0327 22:22:58.416313 16321 net.cpp:158] Memory required for data: 340550000
I0327 22:22:58.416321 16321 layer_factory.hpp:77] Creating layer fc7
I0327 22:22:58.416342 16321 net.cpp:93] Creating Layer fc7
I0327 22:22:58.416350 16321 net.cpp:427] fc7 <- fc6
I0327 22:22:58.416360 16321 net.cpp:401] fc7 -> fc7
I0327 22:22:59.128024 16321 net.cpp:143] Setting up fc7
I0327 22:22:59.128080 16321 net.cpp:150] Top shape: 50 4096 (204800)
I0327 22:22:59.128088 16321 net.cpp:158] Memory required for data: 341369200
I0327 22:22:59.128109 16321 layer_factory.hpp:77] Creating layer relu7
I0327 22:22:59.128129 16321 net.cpp:93] Creating Layer relu7
I0327 22:22:59.128139 16321 net.cpp:427] relu7 <- fc7
I0327 22:22:59.128156 16321 net.cpp:388] relu7 -> fc7 (in-place)
I0327 22:22:59.128502 16321 net.cpp:143] Setting up relu7
I0327 22:22:59.128518 16321 net.cpp:150] Top shape: 50 4096 (204800)
I0327 22:22:59.128525 16321 net.cpp:158] Memory required for data: 342188400
I0327 22:22:59.128533 16321 layer_factory.hpp:77] Creating layer drop7
I0327 22:22:59.128546 16321 net.cpp:93] Creating Layer drop7
I0327 22:22:59.128554 16321 net.cpp:427] drop7 <- fc7
I0327 22:22:59.128563 16321 net.cpp:388] drop7 -> fc7 (in-place)
I0327 22:22:59.129683 16321 net.cpp:143] Setting up drop7
I0327 22:22:59.129703 16321 net.cpp:150] Top shape: 50 4096 (204800)
I0327 22:22:59.129711 16321 net.cpp:158] Memory required for data: 343007600
I0327 22:22:59.129720 16321 layer_factory.hpp:77] Creating layer fc8
I0327 22:22:59.129734 16321 net.cpp:93] Creating Layer fc8
I0327 22:22:59.129742 16321 net.cpp:427] fc8 <- fc7
I0327 22:22:59.129757 16321 net.cpp:401] fc8 -> fc8
I0327 22:22:59.301882 16321 net.cpp:143] Setting up fc8
I0327 22:22:59.301942 16321 net.cpp:150] Top shape: 50 1000 (50000)
I0327 22:22:59.301951 16321 net.cpp:158] Memory required for data: 343207600
I0327 22:22:59.301972 16321 layer_factory.hpp:77] Creating layer fc8_fc8_0_split
I0327 22:22:59.301991 16321 net.cpp:93] Creating Layer fc8_fc8_0_split
I0327 22:22:59.302002 16321 net.cpp:427] fc8_fc8_0_split <- fc8
I0327 22:22:59.302017 16321 net.cpp:401] fc8_fc8_0_split -> fc8_fc8_0_split_0
I0327 22:22:59.302033 16321 net.cpp:401] fc8_fc8_0_split -> fc8_fc8_0_split_1
I0327 22:22:59.302301 16321 net.cpp:143] Setting up fc8_fc8_0_split
I0327 22:22:59.302316 16321 net.cpp:150] Top shape: 50 1000 (50000)
I0327 22:22:59.302325 16321 net.cpp:150] Top shape: 50 1000 (50000)
I0327 22:22:59.302332 16321 net.cpp:158] Memory required for data: 343607600
I0327 22:22:59.302340 16321 layer_factory.hpp:77] Creating layer accuracy
I0327 22:22:59.302551 16321 net.cpp:93] Creating Layer accuracy
I0327 22:22:59.302566 16321 net.cpp:427] accuracy <- fc8_fc8_0_split_0
I0327 22:22:59.302575 16321 net.cpp:427] accuracy <- label_data_1_split_0
I0327 22:22:59.302589 16321 net.cpp:401] accuracy -> accuracy
…
